net/torch/LeNetStates.pth (torch_old, 222883 bytes, 8 tensors)

0.0.weight f4 [16, 1, 3, 3]
-1.4803394 -0.41187745 0.30008355 -0.13853973 0.3286655 0.19051604 0.73627466 0.24124654
1.3841048 0.8805234 1.3159375 -2.1670527 0.2712201 -1.9915774 -0.39638624 -1.6937721
-0.22642589 0.54275453 0.9694576 -0.53161424 0.52741176 1.1574124 1.4277136 1.7269069
0.04684504 -0.6140405 -3.0548317 0.6662993 1.1697905 2.0291 -1.9620906 0.04597411
-0.6473298 -1.0931495 -1.2802236 -1.2015896 0.41707948 1.4083209 1.4138058 -0.4915981
0.5528359 0.8126119 -1.8816758 -2.3257563 -0.561583 -1.1064521 -2.8326232 1.7385082
2.1312795 -3.4972918 0.6641791 2.282356 -1.9916548 -0.5078333 -0.13471794 0.7401682
0.5426072 -0.66870743 -0.2902549 0.85798997 -0.78510904 0.32541332 0.9712153 0.27963835
0.2362747 0.1951332 0.34487778 -0.16110939 0.4603815 0.49458548 0.35059497 0.6901775
-2.4352863 0.31276113 0.7960576 -0.53464717 -0.22707029 1.1191237 -1.7350231 0.33973622
0.30154592 0.061626866 0.66570604 0.4062675 -0.37062198 1.5028648 -0.44088066 -1.8517948
-1.4896538 -1.6512576 -4.19927 0.56303066 -0.5537992 2.1486852 1.9467338 0.6600854
0.601668 -0.690001 -1.5667896 0.6314117 -0.53486407 -1.735394 0.6797453 1.4535669
-1.4276478 0.118945256 1.0474896 1.006063 1.141755 0.88169175 -1.4333047 0.9163805
0.089128815 -1.4755915 -0.70726293 -0.5737138 -1.8162413 0.8533389 1.0942852 -1.9773749
1.0615668 0.2806815 -1.2320855 1.0303599 -0.71391284 -0.6440169 -0.15334661 -2.2277634
-0.44114372 -0.9939314 0.5350848 1.4691745 1.5396422 0.958291 -0.5331716 -1.816538
-0.10262791 -1.072692 -0.28952757 -1.1381929 -1.515992 2.245687 1.3619641 0.35916868
00000000: c37b bdbf 9ae1 d2be 8da4 993e 5cdd 0dbe
00000010: d846 a83e a316 433e 7f7c 3c3f 5509 773e
00000020: 592a b13f fb69 613f a470 a83f feb0 0ac0
00000030: 5cdd 8a3e 02ec febf 23f3 cabe 86cd d8bf
00000040: 30dc 67be f6f1 0a3f 602e 783f df17 08bf
00000050: 7504 073f 1726 943f 52bf b63f 490b dd3f
00000060: 96e0 3f3d c231 1dbf 5d82 43c0 9792 2a3f
00000070: b2bb 953f c6dc 0140 c925 fbbf 594f 3c3d
00000080: 68b7 25bf 53ec 8bbf 5ede a3bf b0cd 99bf
00000090: 718b d53e dc43 b43f 97f7 b43f bfb2 fbbe
000000a0: a786 0d3f 5507 503f c1da f0bf 31d9 14c0
000000b0: e7c3 0fbf 39a0 8dbf b349 35c0 7087 de3f
000000c0: e266 0840 a1d3 5fc0 a407 2a3f 1f12 1240
000000d0: 8bee febf 5d01 02bf 80f3 09be aa7b 3d3f
000000e0: 4ee8 0a3f 6930 2bbf 4a9c 94be 3ba5 5b3f
000000f0: e8fc 48bf 939c a63e 91a1 783f c22c 8f3e
00000100: fff1 713e ffd0 473e d293 b03e dcf9 24be
00000110: 20b7 eb3e 4f3a fd3e 2f81 b33e 79af 303f
00000120: bbdb 1bc0 3a22 a03e 6eca 4b3f a3de 08bf
00000130: 1d85 68be 723f 8f3f 3d15 debf e8f1 ad3e
00000140: 3a64 9a3e 746c 7c3d b66b 2a3f 4b02 d03e
00000150: 2ac2 bdbe e05d c03f 1cbb e1be 9d07 edbf
00000160: faac bebf 695c d3bf 6b60 86c0 c722 103f
00000170: c9c5 0dbf 0f84 0940 932e f93f 5bfb 283f
00000180: ea06 1a3f e8a3 30bf 908c c8bf 32a4 213f
00000190: daec 08bf 6421 debf ca03 2e3f 7b0e ba3f
000001a0: 2abd b6bf 9299 f33d 2414 863f acc6 803f
000001b0: 0725 923f 8db6 613f 8776 b7bf ea97 6a3f
000001c0: 2b89 b63d 2fe0 bcbf 2f0f 35bf e8de 12bf
000001d0: 987a e8bf 6b74 5a3f 8a11 8c3f 9f1a fdbf
000001e0: 6ce1 873f 7cb5 8f3e fab4 9dbf d5e2 833f
000001f0: fec2 36bf 4bde 24bf e506 1dbe ad93 0ec0
00000200: 97dd e1be 4a72 7ebf 51fb 083f e90d bc3f
00000210: ff12 c53f 8f52 753f ef7d 08bf 5184 e8bf
00000220: 952e d2bd f94d 89bf f53c 94be 4eb0 91bf
00000230: 070c c2bf 56b9 0f40 d754 ae3f f5e4 b73e

0.0.bias f4 [16]
-0.3735433 0.27538785 -0.047042772 -0.05246812 -0.1131392 0.14620902 -0.57003886 -0.44454995
0.004085511 0.17944765 -0.20849003 -0.7547471 0.019084305 -0.17367777 -0.32445642 -0.025781065
00000000: 1141 bfbe a3ff 8c3e ecaf 40bd d0e8 56bd
00000010: 86b5 e7bd d1b7 153e 11ee 11bf 0d9c e3be
00000020: c0df 853b 20c1 373e 697e 55be 1b37 41bf
00000030: b056 9c3c 96d8 31be 271f a6be d032 d3bc

4.0.weight f4 [32, 16, 3, 3]
0.07422947 0.012429757 0.052925523 0.008510502 0.0054218816 0.012524888 -0.12364969 -0.09568741
0.00056932715 -0.014184538 -0.013825357 0.049824275 0.022724528 0.010485176 0.030978352 -0.055344563
-0.031487044 0.06954261 0.03561029 -0.03060551 -0.015380454 -0.0005677622 0.0029259787 0.054846186
-0.0165857 0.00674968 0.010636252 -0.043738388 -0.04616434 -0.060935184 -0.005308973 -0.021032546
0.04426324 0.04063188 0.051365282 -0.015249501 -0.04729679 -0.046929706 -0.018054644 0.0013514156
-0.032506656 0.029546302 0.08613138 0.02684913 -0.0045785755 0.008632688 -0.0043748803 -0.06861584
-0.022921404 -0.04197859 -0.028284494 -0.004628377 -0.0721451 -0.1519002 0.015648073 0.03261942
0.016752869 0.010700921 -0.0069996533 0.011762941 -0.042656433 -0.038514093 -0.033884764 0.020474926
-0.004162207 0.058938887 -0.012464074 -0.006270685 0.038109794 -0.059392516 -0.040669564 -0.019185161
-0.0033448553 0.025056925 -0.0007918096 0.036170725 0.01985667 0.022689812 0.0059809494 -0.065102
-0.058629964 -0.003379163 0.035191182 -0.018578447 -0.02793495 0.010309927 0.016129538 0.086361535
0.11089503 0.08416936 0.07338898 0.034798995 0.0011527161 -0.13285896 -0.02159198 0.01708914
-0.10695512 -0.07229275 -0.028798293 0.038381286 0.029932579 0.03180799 -0.009618058 -0.0017390554
-0.07313545 -0.060358874 -0.11076497 -0.10662197 0.029175354 0.010705774 -0.00679698 -0.037758484
0.0047433935 0.034155436 -0.09447194 -0.013734499 0.027969709 0.059611976 0.060432382 0.003514399
-0.020427918 -0.013044058 -0.07005166 -0.06517906 -0.1038912 -0.04382217 0.0462005 -0.009287961
0.016582899 -0.08566922 -0.009201697 0.020230269 -0.086996734 -0.019713217 0.02783537 -0.017514152
-0.0013389499 0.003983833 -0.061758522 0.007383487 -0.058883462 0.04420003 0.072769776 -0.010421464
-0.0048159803 0.010340499 -0.019863842 0.038625654 0.08429835 -0.08304726 0.033443194 -0.036565598
-0.004269632 0.00883021 -0.0055509103 0.037634067 0.035045184 0.008307245 0.03166268 0.06391504
-0.010472133 0.0024561482 -0.0034202326 0.013010642 0.029893303 -0.04374091 0.022670235 0.0033740718
-0.0072992216 0.0019861516 -0.034859255 -0.048361626 -0.09123741 -0.040471613 -0.08196302 -0.13123445
-0.09296507 -0.05941589 -0.023771748 -0.038288735 0.017956484 -0.014425639 -0.03801447 -0.029143926
-0.04742368 -0.050898764 -0.020439364 -0.0012520611 -0.024100939 -0.051262066 0.0051320493 -0.04183814
-0.021113116 0.011288182 0.012127523 -0.040378887 -0.0019045814 -0.02839381 0.025659833 0.07341597
0.004598322 0.08394878 0.034163445 -0.06122324 -0.0005587149 -0.0072785825 -0.041316096 -0.0010400583
0.053195998 -0.012863979 0.025537834 0.0175884 -0.044074915 -0.034204338 0.005232034 0.014817642
0.03219832 0.057804246 0.006094829 0.04111579 0.03048372 0.043839406 0.034383327 0.06255263
-0.010102379 -0.037827168 -0.16063792 -0.055451594 -0.026720269 -0.10095674 -0.02923351 -0.10831151
-0.06937636 -0.06994154 0.029544435 -0.030074807 0.023841308 0.06491074 0.036625147 0.0049029104
0.11960686 0.009440494 0.00097602274 -0.09454109 -0.028577607 -0.010631125 -0.023365177 0.008158884
0.018101204 -0.04877535 0.030829547 0.018006392 0.03330236 0.06477369 0.06163443 0.09852895
00000000: 9f05 983d 2ea6 4b3c 6fc8 583d a26f 0b3c
00000010: 0aaa b13b 3035 4d3c 0c3c fdbd c3f7 c3bd
00000020: e63e 153a 4466 68bc c083 62bc 8a14 4c3d
00000030: ca28 ba3c 04ca 2b3c 50c6 fd3c fbb0 62bd
00000040: 8ff8 00bd 5b6c 8e3d 18dc 113d 68b8 fabc
00000050: 4dfe 7bbc e0d5 14ba c7c1 3f3b 65a6 603d
00000060: bcde 87bc 6b2c dd3b ad43 2e3c 0627 33bd
00000070: d216 3dbd 2c97 79bd e5f6 adbb 724c acbc
00000080: 5f4d 353d 9d6d 263d 6764 523d 0bd9 79bc
00000090: 47ba 41bd 5d39 40bd 55e7 93bc fc21 b13a
000000a0: b325 05bd 160b f23c a665 b03d b5f2 db3c
000000b0: e007 96bb 1e70 0d3c 285b 8fbb 7686 8cbd
000000c0: abc5 bbbc bef1 2bbd e2b4 e7bc a4a9 97bb
000000d0: cfc0 93bd ba8b 1bbe 6330 803c f19b 053d
000000e0: 503d 893c ea52 2f3c 595d e5bb 5ab9 403c
000000f0: 83b8 2ebd f4c0 1dbd c0ca 0abd 08bb a73c
00000100: 1f63 88bb e769 713d 1e36 4cbc 517a cdbb
00000110: 0419 1c3d 9145 73bd 2195 26bd 332a 9dbc
00000120: 5c35 5bbb 2e44 cd3c 7191 4fba c127 143d
00000130: 75aa a23c fcdf b93c d7fb c33b 3354 85bd
00000140: f925 70bd f374 5dbb a124 103d d431 98bc
00000150: d6d7 e4bc f8ea 283c 1822 843c 51de b03d
00000160: ef1c e33d fc60 ac3d f64c 963d 6489 0e3d
00000170: bc16 973a 2e0c 08be aae1 b0bc 86fe 8b3c
00000180: 490b dbbd 390e 94bd 66ea ebbc b235 1d3d
00000190: 2b35 f53c 1849 023d 0f95 1dbc 04f1 e3ba
000001a0: 0ac8 95bd de3a 77bd bfd8 e2bd 9f5c dabd
000001b0: 2701 ef3c 4567 2f3c 33b9 debb a4a8 1abd
000001c0: 786e 9b3b 92e6 0b3d 817a c1bd aa06 61bc
000001d0: bb20 e53c b02b 743d f287 773d d551 663b
000001e0: 7358 a7bc bfb6 55bc 3f77 8fbd 997c 85bd
000001f0: e9c4 d4bd e07e 33bd bc3c 3d3d 882c 18bc
00000200: dcd8 873c 5873 afbd b7c2 16bc f3b9 a53c
00000210: 582b b2bd 9d7d a1bc 0007 e43c d779 8fbc
00000220: b47f afba d08a 823b 81f6 7cbd 2ef1 f13b
00000230: c92f 71bd 170b 353d 5208 953d cabe 2abc
00000240: 5fcf 9dbb 326b 293c 7fb9 a2bc ef35 1e3d
00000250: 9da4 ac3d af14 aabd bbfb 083d cfc5 15bd
00000260: 45e8 8bbb 96ac 103c 69e4 b5bb 2e26 1a3d
00000270: 8a8b 0f3d 1c1b 083c bab0 013d e3e5 823d
00000280: 4f93 2bbc 54f7 203b fb25 60bb 962a 553c
00000290: cde2 f43c ab29 33bd eeb6 b93c 881f 5d3b
000002a0: 4f2e efbb 182a 023b 94c8 0ebd d716 46bd
000002b0: aeda babd 90c5 25bd 3adc a7bd 5362 06be
000002c0: 7864 bebd 145e 73bd f8bc c2bc a6d4 1cbd
000002d0: 7a19 933c 8459 6cbc 10b5 1bbd 3ebf eebc
000002e0: 553f 42bd 397b 50bd 7470 a7bc 331c a4ba
000002f0: 556f c5bc 2cf8 51bd c02a a83b 785e 2bbd
00000300: 6af5 acbc 11f2 383c 85b2 463c 5564 25bd
00000310: 26a3 f9ba 239a e8bc 9234 d23c 1d5b 963d
00000320: 85ad 963b 57ed ab3d f8ee 0b3d 38c5 7abd
00000330: b976 12ba 2d81 eebb 113b 29bd 9152 88ba
00000340: 0ce4 593d 70c3 52bc b834 d13c 8c15 903c
00000350: e687 34bd d919 0cbd 7b71 ab3b b2c5 723c
00000360: 63e2 033d 25c4 6c3d 22b7 c73b 0869 283d
00000370: ffb8 f93c f390 333d 88d5 0c3d 981b 803d
00000380: 7384 25bc a9f0 1abd 447e 24be 3621 63bd
00000390: 77e4 dabc 68c2 cebd 1d7b efbc 6dd2 ddbd
000003a0: 3115 8ebd 833d 8fbd 2c07 f23c 715f f6bc
000003b0: d94e c33c ecef 843d 4004 163d 98a8 a03b
000003c0: 71f4 f43d 4dac 1a3c c7db 7f3a c29e c1bd
000003d0: 961b eabc 2c2e 2ebc 5468 bfbc d7ac 053c
000003e0: fa48 943c a9c8 47bd 3f8e fc3c 2482 933c
000003f0: 0e68 083d 12a8 843d 6274 7c3d 8cc9 c93d

4.0.bias f4 [32]
-0.070185274 0.061416864 -0.24067208 0.15312263 0.046078414 -0.043298542 0.47654593 0.21575823
-0.005386263 -0.05572608 0.048782945 -0.032801658 0.02812165 0.025613248 -0.30432916 -0.12161234
-0.09990466 -0.48477513 -0.11438523 -0.0606381 -0.122366175 0.0800623 0.05687526 0.09616956
-0.18331064 -0.11214185 0.17909312 -0.15674478 -0.10685733 0.021245927 -0.31845987 0.0223338
00000000: 4cbd 8fbd 4090 7b3d be72 76be 2ecc 1c3e
00000010: b8bc 3c3d d059 31bd d4fd f33e baef 5c3e
00000020: 407f b0bb 0841 64bd a0d0 473d 085b 06bd
00000030: 605f e63c e0d2 d13c 08d1 9bbe e40f f9bd
00000040: d09a ccbd 7234 f8be ce42 eabd a85f 78bd
00000050: 1e9b fabd b4f7 a33d 08f6 683d 8cf4 c43d
00000060: c9b5 3bbe a0aa e5bd 3064 373e b481 20be
00000070: 04d8 dabd f00b ae3c 2c0d a3be 60f5 b63c

9.0.weight f4 [32, 1568]
0.013431416 0.01876815 -0.012240227 -0.015742118 -0.023865094 0.019179905 -0.008734664 -0.010871289
0.027429543 0.0126647325 -0.014949077 0.013554712 -0.010042 0.017542139 -0.005665582 0.016078128
0.004859917 0.009640461 0.013779958 -0.007804164 0.0075655673 -0.003595685 0.016358497 0.00522819
0.005418754 0.011190338 0.006158251 -0.02498377 -0.013051577 0.0002759028 0.001334198 0.0067396485
-0.018887226 -0.017267285 0.0092497235 0.012077126 -0.016203877 0.0022902226 -0.023349676 -0.014025263
-0.02673096 0.002650885 -0.01811391 -0.025809305 0.014550909 -0.011040585 -0.016944857 0.015945703
-0.014591167 -0.014984689 -0.00029845722 0.021288091 -0.010173378 -0.013462627 -0.018316617 -0.005999595
-0.016300302 -0.013452043 -0.027865203 -0.02764916 0.014741108 -0.021516219 -0.014157804 -0.022619447
-0.011325437 -0.029026294 0.013402989 -0.00080631545 0.020451976 -0.017506609 -0.014366671 0.002267409
0.004384894 -0.011042366 -0.01411266 0.012769208 0.0036391057 0.0025748163 0.01619552 -0.009459701
-0.00023192866 -0.008963153 -0.015595612 0.009022377 0.0047666524 -0.013901563 0.007833985 -0.010267255
0.008386736 -0.025966328 0.007662706 -0.010080665 0.019057952 0.01729004 -0.0121609885 0.0124298055
-0.0036466215 0.017713103 -0.022633566 -0.021910891 0.0012922676 -0.009235915 -0.010133008 0.013207934
0.011486507 -0.0116819395 0.0015404101 -0.0013356863 0.003713931 0.010578665 -0.003456694 0.011658401
0.0008526791 0.00397938 0.014721436 -0.00949547 -0.021993753 -0.004549146 0.00967512 0.0025924558
0.009862818 -0.008800302 0.0026645751 -0.0030729522 -0.017331947 -0.027415814 -0.00928761 0.0072518755
-0.016489187 -0.014972268 0.009376642 0.016572153 -0.010591887 -0.016826272 0.009849247 0.017521387
0.0075677736 -0.030560343 -0.01653208 0.0034874734 0.007590983 0.013105241 -0.004910311 -0.031224094
-0.006062443 0.011825262 -0.02626579 -0.012281706 -0.023900611 -0.0065077613 -0.0013601559 0.009248243
-0.0060110786 -0.021255158 0.01857755 -0.01867443 0.007930806 0.016975718 -0.003560881 -0.011973685
0.0066547715 0.017942442 0.013679979 0.0077136187 0.019332785 -0.009571243 0.004915157 0.011089114
0.004273177 -0.006771596 0.0014319038 -0.025215438 -0.018252516 -0.022409765 -0.023408413 0.0033772287
-0.021021355 -0.018770024 -0.015562447 -0.022495873 -0.00033161344 -0.009015275 0.019039286 -0.009477674
0.009666532 -0.015382925 -0.022701826 -0.03090709 0.012600972 -0.014039167 -0.030321488 0.0023899192
-0.005856461 -0.025106318 -0.025146162 -0.028808275 -0.027157512 -0.02437033 -0.015246448 0.011438163
-0.01410578 -0.025348337 0.0067774095 -0.012918199 -0.008994693 -0.010121191 0.004654014 0.0030386937
0.008597257 -0.030831179 -0.004137629 0.00083338586 0.017245425 -0.017063001 -0.023865893 -0.0059439824
0.018748403 0.017845359 0.009763498 -0.014660802 0.0131913815 0.009384277 0.00938892 -0.009698804
0.0052598463 -0.018491246 -0.028117567 0.007843962 -0.0065338174 0.011017612 -0.009773626 -0.013199583
0.018132992 0.0020966204 -0.015154106 -0.003382563 -0.0151868835 0.0050174817 -0.029437106 0.0039571025
0.0012289583 0.008532306 -0.0012572805 -0.015634198 -0.006266839 0.016642688 0.001924051 0.0026001232
-0.01860663 -0.02350457 0.0052205105 -0.0034027533 0.004296992 -0.0030133447 0.006114253 -0.0011256501
00000000: 710f 5c3c aabf 993c 3c8b 48bc 9df5 80bc
00000010: bb80 c3bc 2d1f 9d3c d61b 0fbc 7e1d 32bc
00000020: ecb3 e03c bd7f 4f3c f9ec 74bc 9514 5e3c
00000030: 3387 24bc 88b4 8f3c 59a6 b9bb 47b6 833c
00000040: f03f 9f3b 06f3 1d3c 55c5 613c 13ba ffbb
00000050: 94e8 f73b 95a5 6bbb 4102 863c 3d51 ab3b
00000060: ce8f b13b ae57 373c 27cb c93b c3aa ccbc
00000070: 48d6 55bc 0ca7 9039 42e0 ae3a 45d8 dc3b
00000080: 62b9 9abc 1f74 8dbc 278c 173c 23df 453c
00000090: febd 84bc 8f17 163b d247 bfbc 37ca 65bc
000000a0: e3fa dabc 78ba 2d3b 9f63 94bc 096e d3bc
000000b0: f066 6e3c 92e3 34bc f1cf 8abc 90a0 823c
000000c0: ca0f 6fbc 5782 75bc 407a 9cb9 5d64 ae3c
000000d0: 3dae 26bc 5a92 5cbc bb0c 96bc 4098 c4bb
000000e0: 3688 85bc f565 5cbc 9145 e4bc 7e80 e2bc
000000f0: b084 713c c842 b0bc 22f6 67bc 6b4c b9bc
00000100: 538e 39bc 8dc8 edbc 3698 5b3c ea5e 53ba
00000110: e78a a73c 056a 8fbc 3062 6bbc d098 143b
00000120: 28af 8f3b 0aeb 34bc c938 67bc f135 513c
00000130: 107e 6e3b 40be 283b 78ac 843c ddfc 1abc
00000140: e031 73b9 30da 12bc bd84 7fbc 98d2 133c
00000150: 9431 9c3b 62c3 63bc 1d5a 003c fd37 28bc
00000160: 8568 093c 56b7 d4bc 7017 fb3b 6029 25bc
00000170: 6c1f 9c3c d8a3 8d3c e23e 47bc 62a6 4b3c
00000180: 28fc 6ebb 121b 913c 076a b9bc 787e b3bc
00000190: 4e61 a93a 3c52 17bc ea04 26bc 1766 583c
000001a0: e731 3c3c 9b65 3fbc 96e7 c93a 3212 afba
000001b0: 6c65 733b 2352 2d3c b489 62bb e102 3f3c
000001c0: 5386 5f3a 7565 823b 2e32 713c e392 1bbc
000001d0: 3e2c b4bc 0111 95bb 6584 1e3c 31e6 293b
000001e0: a897 213c 242f 10bc 27a0 2e3b 9563 49bb
000001f0: bafb 8dbc 2197 e0bc 0f2b 18bc 24a1 ed3b
00000200: 5514 87bc 3e4e 75bc 7da0 193c 53c2 873c
00000210: 9889 2dbc 40d7 89bc bc5e 213c 0389 8f3c
00000220: 16fb f73b af59 fabc 496e 87bc 188e 643b
00000230: c8bd f83b 5db7 563c ade6 a0bb acc9 ffbc
00000240: 75a7 c6bb bebe 413c 5b2b d7bc 3539 49bc
00000250: 37cb c3bc 0f3f d5bb 4247 b2ba f185 173c
00000260: 95f8 c4bb 4c1f aebc f22f 983c 1efb 98bc
00000270: 36f0 013c a910 8b3c ab5d 69bb 462d 44bc
00000280: 4510 da3b 07fc 923c fe21 603c 86c2 fc3b
00000290: ca5f 9e3c b4d0 1cbc 530f a13b 1daf 353c
000002a0: 0206 8c3b 44e4 ddbb b8ae bb3a 9b90 cebc
000002b0: 4d86 95bc af94 b7bc 00c3 bfbc 7f54 5d3b
000002c0: fa34 acbc 98c3 99bc a2f9 7ebc 4449 b8bc
000002d0: 67dc adb9 ceb4 13bc 47f8 9b3c 3f48 1bbc
000002e0: 6060 1e3c aa08 7cbc 2ef9 b9bc de30 fdbc
000002f0: 4f74 4e3c 8904 66bc c564 f8bc 31a0 1c3b
00000300: 8ee7 bfbb c4ab cdbc 53ff cdbc 55ff ebbc
00000310: 6e79 debc 49a4 c7bc 3dcc 79bc 2267 3b3c
00000320: ee1b 67bc 51a7 cfbc 0815 de3b dba6 53bc
00000330: 7a5e 13bc 5ad3 25bc b380 983b d224 473b
00000340: 82db 0c3c ab91 fcbc f394 87bb 9477 5a3a
00000350: 4746 8d3c b5c7 8bbc 6882 c3bc bdc5 c2bb
00000360: 4096 993c 6e30 923c 14f7 1f3c dc33 70bc
00000370: aa20 583c 83c0 193c fcd3 193c bbe7 1ebc
00000380: ca5a ac3b f47a 97bc d056 e6bc f683 003c
00000390: a219 d6bb 3783 343c 8f21 20bc 1043 58bc
000003a0: a48b 943c 7467 093b ed48 78bc fdad 5dbb
000003b0: 68d2 78bc b069 a43b 1626 f1bc 95aa 813b
000003c0: ff14 a13a 16cb 0b3c 55cb a4ba 4a13 80bc
000003d0: 0e5a cdbb 3f56 883c 7030 fc3a d466 2a3b
000003e0: ee6c 98bc a88c c0bc d110 ab3b ba00 5fbb
000003f0: c8cd 8c3b 897b 45bb 125a c83b 8d8a 93ba

9.0.bias f4 [32]
0.013843186 -0.04056091 0.02395377 -0.010608053 0.0005966415 -0.061006773 -0.022327174 -0.01483634
-0.053899363 0.010477458 0.019705135 0.005193631 -0.024397735 -0.030243676 0.0026510758 -0.033188965
-0.029835576 -0.013446512 0.047456935 -0.011666146 -0.0042096707 0.01209236 -0.020207299 0.018362194
0.0020875144 0.023962438 -0.04072134 -0.029148208 0.048682597 0.0024550403 -0.02674012 0.029624587
00000000: 88ce 623c 3223 26bd b23a c43c 66cd 2dbc
00000010: ef67 1c3a 3de2 79bd 7ae7 b6bc 1f14 73bc
00000020: 94c5 5cbd a5a9 2b3c aa6c a13c 562f aa3b
00000030: c2dd c7bc 96c1 f7bc acbd 2d3b 27f1 07bd
00000040: bd69 f4bc c24e 5cbc 3462 423d 5d23 3fbc
00000050: 47f1 89bb 091f 463c c789 a5bc 506c 963c
00000060: aece 083b e04c c43c 6bcb 26bd 39c8 eebc
00000070: 6767 473d bee4 203b 190e dbbc 43af f23c

11.weight f4 [10, 32]
-0.08210607 -0.2938128 -0.59659076 -0.0578015 -0.468395 -0.6869885 -0.14504488 0.019989697
-0.47874543 -0.026622962 0.19162185 0.027536334 0.09243982 0.17685449 -0.6110499 -0.48544407
0.15259503 0.1313608 -0.7034431 -0.023535652 -0.4390634 -0.061472114 0.071775876 -0.1350075
0.097510554 0.22254151 -0.65153486 0.03810881 0.22705545 -0.012741611 0.1985035 -0.45094413
-0.11823467 -0.44398606 0.24535078 0.07663812 -0.21093068 -0.21116258 -0.0862847 -0.14584202
-0.35695565 -0.03607554 -0.3453839 0.040406093 -0.03598178 -0.43658122 0.23363309 -0.25721857
-0.066757075 -0.62555665 0.2523426 -0.10607562 0.20987912 -0.058105256 0.032631528 -0.1174669
0.11931695 0.21196337 -0.3185842 -0.01291792 0.20852788 0.066238284 -0.6587084 0.17368184
-0.03789528 -0.2842538 0.23217618 0.056623682 0.17136952 -0.35620663 0.0026827392 0.059753
-0.35984093 0.115423694 0.1667356 0.015296832 0.10581252 0.1657877 -0.22903427 0.2648043
0.03481092 -0.35355535 -0.35765594 0.15000501 -0.45568627 0.06530041 -0.16848032 0.044479348
0.16377886 -0.34788504 -0.41459367 -0.1493094 -0.41029397 0.11121303 -0.4749499 0.17025428
-0.044613406 -0.46071255 0.19319643 0.12935756 0.20103976 0.21846579 0.15748213 0.084888786
0.11277026 -0.028674604 0.15383312 0.10213228 -0.020881016 0.14032684 -0.2892626 0.22566825
0.11030949 0.11546482 -0.15581526 -0.1515743 0.15288883 0.14832795 -0.006072778 -0.1779622
0.16728152 -0.42207503 0.22378102 -0.12578195 -0.29434434 0.1166732 -0.37134546 -0.26290315
-0.103966184 0.29179627 -0.32589686 0.031062461 -0.38222528 0.23842187 0.060464717 -0.016594507
0.1508004 -0.07915383 -0.400423 -0.110310435 0.04144518 -0.53170174 0.24334891 -0.493493
-0.0055659846 -0.4264731 -0.23798434 -0.07471416 0.16844657 -0.15483582 -0.04678148 0.14815335
0.0958091 0.23282972 0.2409177 0.1057224 -0.37554404 -0.06693483 0.005104893 -0.21600665
0.11903952 -0.083798155 -0.32039443 0.086730406 0.20003311 0.18985827 -0.14361423 0.10648818
-0.21653199 -0.14439361 -0.21214247 -0.023273911 0.09626812 0.102587275 -0.49095497 0.22925806
-0.118294284 0.09280092 0.21152402 -0.1041191 0.17774655 0.011596157 0.08122837 -0.15829545
-0.099771485 0.19995195 0.19806829 0.09189335 0.18005288 -0.05938938 0.18303178 -0.1615959
-0.069017135 0.2708466 -0.42502806 0.07384581 0.23092072 -0.32547218 -0.09781234 -0.15706594
-0.7190334 0.09612162 0.1642447 -0.14788692 -0.17062351 -0.24347858 -0.4892366 -0.15777308
0.0011701309 -0.24163502 -0.36191577 -0.068933584 0.2257507 -0.12262919 0.10407793 -0.15229352
-0.046333916 0.23297325 -0.37563816 -0.019587236 0.022640774 0.14347225 0.21301375 0.17652051
-0.0012283211 -0.51631474 -0.18159285 0.07411129 0.23815267 -0.27075678 0.055124108 -0.08108431
0.16021068 -0.03722652 0.18864444 0.16938692 0.099382855 -0.30458295 0.25346175 -0.20465788
0.08385642 -0.42250597 0.23890728 -0.08565588 -0.40056986 -0.06412668 0.005948534 -0.12833412
0.06043807 -0.36173785 -0.25761718 0.16790839 -0.3843571 0.10640958 -0.36725685 -0.36780763
00000000: 3a27 a8bd a26e 96be 2cba 18bf 44c1 6cbd
00000010: 78d1 efbe 7ade 2fbf a586 14be 6fc1 a33c
00000020: 1f1e f5be 6618 dabc 8538 443e e193 e13c
00000030: 1751 bd3d 5819 353e c46d 1cbf 208c f8be
00000040: df41 1c3e 7283 063e d914 34bf d7cd c0bc
00000050: ebcc e0be 2fca 7bbd 3bff 923d 683f 0abe
00000060: 9db3 c73d ece1 633e fdca 26bf fc17 1c3d
00000070: 3981 683e 31c2 50bc 8044 4b3e 26e2 e6be
00000080: 0525 f2bd 2452 e3be 3c3d 7b3e 72f4 9c3d
00000090: 36fe 57be 013b 58be 08b6 b0bd 9c57 15be
000000a0: e4c2 b6be f2c3 13bd 29d6 b0be dc80 253d
000000b0: a261 13bd 9387 dfbe 833d 6f3e 27b2 83be
000000c0: efb7 88bd 7b24 20bf 0d33 813e 2d3e d9bd
000000d0: 8dea 563e c7ff 6dbd a3a8 053d 7c92 f0bd
000000e0: 725c f43d ed0c 593e 781d a3be afa5 53bc
000000f0: 5588 553e f0a7 873d 1da1 28bf a7d9 313e
00000100: 1538 1bbd b789 91be 98bf 6d3e 3cee 673d
00000110: 7e7b 2f3e b760 b6be e5d0 2f3b 90bf 743d
00000120: 123d b8be 4263 ec3d bdbc 2a3e 909f 7a3c
00000130: 3cb4 d83d 40c4 293e f687 6abe 6e94 873e
00000140: e595 0e3d 3505 b5be ae1e b7be ea9a 193e
00000150: b64f e9be 39bc 853d 1b86 2cbe fa2f 363d
00000160: a5b5 273e fd1d b2be 9f45 d4be 90e4 18be
00000170: 0d12 d2be a8c3 e33d a22c f3be 2357 2e3e
00000180: 8cbc 36bd 84e2 ebbe 49d5 453e 4f76 043e
00000190: 5edd 4d3e 7fb5 5f3e ff42 213e 2cda ad3d
000001a0: 18f4 e63d 01e7 eabc 6e86 1d3e bb2a d13d
000001b0: aa0e abbc d7b1 0f3e 3a1a 94be 9415 673e
000001c0: f1e9 e13d d278 ec3d 098e 1fbe 4b36 1bbe
000001d0: e48e 1c3e 48e3 173e 27fe c6bb b93b 36be
000001e0: d94b 2b3e 381a d8be da26 653e fccc 00be
000001f0: 4db4 96be 5cf2 ee3d fe20 bebe 3e9b 86be
00000200: 39ec d4bd 5266 953e f4db a6be b476 fe3c
00000210: 08b3 c3be dd24 743e daa9 773d 34f1 87bc
00000220: 6c6b 1a3e 671b a2bd 3e04 cdbe 70ea e1bd
00000230: 6cc2 293d 9b1d 08bf 7530 793e 1dab fcbe
00000240: dd62 b6bb af5a dabe 2bb2 73be bd03 99bd
00000250: 427d 2c3e 488d 1ebe f09d 3fbd 83b5 173e
00000260: 9037 c43d ea6a 6e3e 21b3 763e fc84 d83d
00000270: 4f47 c0be 2115 89bd f246 a73b d930 5dbe
00000280: feca f33d 5e9e abbd bd0a a4be b69f b13d
00000290: 7bd5 4c3e 356a 423e 9c0f 13be 7a16 da3d
000002a0: 90ba 5dbe ebdb 13be e03b 59be eea8 bebc
000002b0: 3828 c53d 4719 d23d 735e fbbe a0c2 6a3e
000002c0: 4644 f2bd 690e be3d c199 583e 653c d5bd
000002d0: 3103 363e cffd 3d3c 0f5b a63d 3418 22be
000002e0: fe54 ccbd 34c0 4c3e 6ad2 4a3e 9532 bc3d
000002f0: c85f 383e 4742 73bd af6c 3b3e 6579 25be
00000300: db58 8dbd 68ac 8a3e 479d d9be 793c 973d
00000310: 7b76 6c3e 4aa4 a6be d651 c8bd e5d5 20be
00000320: 9312 38bf 69db c43d c32f 283e ab6f 17be
00000330: eeb7 2ebe 7352 79be 387d fabe 448f 21be
00000340: 145f 993a 2c6f 77be 064d b9be 0d2d 8dbd
00000350: 312b 673e 0325 fbbd cf26 d53d d5f2 1bbe
00000360: a2c8 3dbd 8a90 6e3e a553 c0be 6975 a0bc
00000370: 2579 b93c 64ea 123e 4720 5a3e cbc1 343e
00000380: 9eff a0ba 342d 04bf 7af3 39be a9c7 973d
00000390: 4bde 733e a2a0 8abe d1c9 613d 880f a6bd
000003a0: 450e 243e d67a 18bd 022c 413e c473 2d3e
000003b0: 3d89 cb3d 4cf2 9bbe bdc5 813e d691 51be
000003c0: eabc ab3d b452 d8be 1ca4 743e 5a6c afbd
000003d0: 7e17 cdbe d954 83bd ebeb c23b 056a 03be
000003e0: e98d 773d b435 b9be 66e6 83be 2df0 2b3e
000003f0: 74ca c4be 44ed d93d 1709 bcbe 4851 bcbe

11.bias f4 [10]
0.59123445 0.16208059 0.7729748 -0.9480497 -0.056858603 -1.3821936 -0.29313347 1.032912
-0.32405686 0.40989962
00000000: 245b 173f 74f8 253e ade1 453f 63b3 72bf
00000010: 91e4 68bd b8eb b0bf 9715 96be 7636 843f
00000020: c8ea a5be 5dde d13e
