net/torch/LeNet.pth (torch_old, 244340 bytes, 8 tensors)

weight f4 [16, 1, 3, 3]
000000 9c cd 43 3e bc 4b 08 3c 70 96 4a c0 20 02 3c bf
       0.19121403 0.008318838 -3.165432 -0.7344074
000010 c7 3d 93 bf 52 a8 52 3f f3 94 84 3f 7b 2d 22 40
       -1.1503228 0.82288086 1.0357956 2.534026
000020 77 1b b8 3e b0 96 07 40 55 f0 0a 3e fc 8b 9a bf
       0.35958454 2.1185722 0.13568242 -1.207397
000030 2f 98 4a c0 0d ea 1b c0 3b 34 83 bf 73 a2 c1 3d
       -3.1655385 -2.4361603 -1.0250314 0.09454813
000040 60 19 c1 3f be 50 07 40 17 db 05 bf 6d 70 87 be
       1.5085869 2.114303 -0.5228743 -0.26452962
000050 54 4d 3b 3e 16 58 95 3f a3 81 44 3f 57 9f 05 40
       0.18291217 1.1667507 0.7676031 2.0878503
000060 f3 53 14 c0 23 44 89 bf 0e de a3 3f b8 b9 99 be
       -2.3176239 -1.0723919 1.2802141 -0.30024505
000070 14 1d 83 be 13 ba 5c be 9f bc 8d be 92 87 92 3d
       -0.25608122 -0.21555357 -0.2768297 0.07154764
000080 2c f7 f8 be 0f cb e5 be 6e 76 ad be d7 3f 87 be
       -0.48626077 -0.44881484 -0.33879417 -0.26415893
000090 35 58 1e c0 90 15 d8 3f 91 01 f4 3f 31 0b 12 40
       -2.4741337 1.688158 1.9062978 2.281933
0000a0 f1 84 af 3f 3c 96 cd bf fd e9 94 be 5a 72 1f c0
       1.3712445 -1.6061473 -0.2908477 -2.4913545
0000b0 65 6b 80 bf 00 33 19 c0 5a a5 5c 3f 05 ef 0f 3f
       -1.0032774 -2.3937378 0.86189806 0.5622409
0000c0 a0 af de bf e3 39 aa 3f f4 2a 07 3f d5 f8 17 3f
       -1.7397346 1.3298916 0.52799916 0.5936406
0000d0 51 b0 b0 3f 3b 6f 9a be cd a0 34 be 5d f2 4e bf
       1.3803807 -0.30162987 -0.17639466 -0.80838567
0000e0 75 08 d8 3f 43 52 f2 bf ee dd 44 c0 b8 8d 1a c0
       1.6877581 -1.8931354 -3.0760455 -2.4148998
0000f0 70 0b 3c 40 19 33 00 40 2a ab 0e bf e9 a8 92 bf
       2.938198 2.0031188 -0.55729926 -1.1457797
000100 46 d8 71 be 0e 89 cb bd 35 0c aa 3f 53 ba bc 3f
       -0.23617658 -0.099382505 1.3284975 1.4744362
000110 7a 1f 9e 3f 06 22 ec 3f 11 d9 db bf f9 91 be bf
       1.2353356 1.8447883 -1.7175618 -1.4888297
000120 cd 2d 78 3f a4 44 ad 3f 3f 53 9a 3f 9b dc 65 3f
       0.96944886 1.3536572 1.2056655 0.8978974
000130 51 2c 97 3e 00 d3 ac bf 31 ea 2b bf 92 46 9e bf
       0.29525998 -1.3501892 -0.6715422 -1.2365286
000140 49 e1 9b bf 58 79 9e 3f 6b 68 b5 3f 91 5a 62 c0
       -1.2178127 1.2380781 1.4172491 -3.5367777
000150 e4 1a 9b 3f 84 e9 9a 3e 8e 67 5d bf 83 83 d4 be
       1.2117581 0.30256283 -0.86486137 -0.41506585
000160 21 a5 ae 3f e2 99 49 bf 64 ef a6 3e d4 75 86 3f
       1.3644143 -0.7875043 0.32604516 1.0504708
000170 98 0e 20 40 c7 45 8d bf 14 1c 51 c0 af a1 87 bf
       2.5008907 -1.1036919 -3.2673388 -1.0596217
000180 7a 39 71 3f 2c ef 58 3f a5 4b e5 bf 1a ea 4a be
       0.9422833 0.8473995 -1.791371 -0.19815865
000190 64 65 03 40 31 06 02 40 89 33 ce bf 67 c4 36 bf
       2.0530634 2.031628 -1.6109477 -0.71393436
0001a0 48 78 e2 bc a4 3a 90 bf 2e e4 d3 bf 7f 32 3e bf
       -0.027645245 -1.1267896 -1.655401 -0.742958
0001b0 16 b5 31 be 19 f5 89 be c0 53 be 3e a5 ee f8 3f
       -0.17354235 -0.26944807 0.3717327 1.9447829
0001c0 d8 e3 b2 c0 40 f3 73 40 b5 e3 82 40 c6 f7 86 c0
       -5.590313 3.8117218 4.0902963 -4.217746
0001d0 39 0f 20 bd 97 53 47 3f 1e 84 26 3f 57 d5 db be
       -0.039077017 0.7786192 0.65045345 -0.42936203
0001e0 d4 28 cb 3f 65 f3 92 3e 0a bb cf bf 93 d9 ab 3f
       1.5871835 0.2870132 -1.6228955 1.3425773
0001f0 6f cf 03 c0 73 7b 41 bf 4d 76 9b be 85 96 ad bf
       -2.0595357 -0.75578994 -0.30363694 -1.356156
000200 0f 0e 9e be 11 bf 97 bf 57 17 04 bf a0 b0 a6 3f
       -0.308701 -1.1855184 -0.51598114 1.3022652
000210 e0 50 f1 bf 7c 15 ed 3d 8e ba 07 40 a8 d2 9f be
       -1.8852806 0.115763634 2.1207614 -0.31215405
000220 a7 80 f6 bf af bc 1a c0 14 dc d0 3f 8b 23 a2 3f
       -1.9258012 -2.4177663 1.6317163 1.2667097
000230 11 90 47 3f 91 c1 86 3e d9 1b 99 3f 83 29 cc 3e
       0.779542 0.26319554 1.1961623 0.3987542

bias f4 [16]
000000 bc 0c e1 bc 6d 03 a2 3e 00 54 4d 3b 5e 44 72 3f
       -0.027471893 0.3164324 0.0031330585 0.9463557
000010 c0 0a d2 bc 88 0b fe 3c e5 1b 9f 3e 3b b2 dc bd
       -0.025639892 0.031011358 0.3107597 -0.10776182
000020 90 75 95 bb 31 40 33 bd cc 34 ef 3d 85 7f bc 3e
       -0.0045611337 -0.04376239 0.11679992 0.3681604
000030 76 5c ab bd 9e 2b ae bc fd 94 bd 3e 92 1b de 3d
       -0.08367245 -0.021261033 0.37027732 0.10845102

weight f4 [32, 16, 3, 3]
000000 ae 61 64 bd 8b b1 a6 bd b3 09 b9 bd 70 41 8f bd
       -0.055757217 -0.081393324 -0.09035053 -0.06994903
000010 87 22 6e bd 87 df 0b bd 36 82 73 bd ef 81 98 bc
       -0.058138397 -0.03414872 -0.05945035 -0.018616645
000020 01 54 a9 3c 65 da 82 3c 0d 70 e5 3c 5f a3 14 3c
       0.020669939 0.01597328 0.028007532 0.009072154
000030 4a b8 28 3d 9d e3 d4 bc 99 70 69 bd a6 19 68 bc
       0.041191377 -0.02598744 -0.056992147 -0.014166271
000040 02 b5 33 bd 5d d0 9f bc d6 53 0d 3d b6 1c 09 bb
       -0.043873794 -0.019508535 0.03450378 -0.0020921654
000050 1f c0 41 bc 43 50 25 3d d2 e2 31 3d 91 85 08 bd
       -0.01182559 0.040359747 0.043429203 -0.033330504
000060 01 b2 71 3d 12 f7 b5 3c 44 41 cd bd cf 36 1e 3d
       0.05900765 0.022212539 -0.10022214 0.03862649
000070 b1 42 ba bb 37 b9 35 3d 76 3a 95 3d 81 26 c0 bb
       -0.0056842198 0.044366088 0.07286541 -0.005863965
000080 e5 42 42 3c 39 0a 17 3d 3e 77 1d bd 0c e9 4a 3d
       0.011856769 0.036874983 -0.038443796 0.049538657
000090 29 48 8e bc b6 e3 99 3b 66 e3 d1 3b 80 5a 38 bd
       -0.017368393 0.0046963347 0.006405282 -0.045008183
0000a0 fc ac bd bc e1 77 d9 3c a0 60 7c bd a7 8f bb bd
       -0.023153774 0.02654642 -0.061615586 -0.09158259
0000b0 50 41 af bc 73 db 22 3d b4 94 c7 3c 30 ab 1e 3d
       -0.021393448 0.039760064 0.0243629 0.038737476
0000c0 3d 43 81 3d b5 7b b0 3c b8 db 43 3b c1 0f 39 3d
       0.06311653 0.021543363 0.0029885601 0.04518104
0000d0 73 1a 02 3d 62 f1 01 bd 55 2f a3 bd 5e 9f f7 bd
       0.031763505 -0.03172434 -0.07968012 -0.12090944
0000e0 32 bc 9b bd bc d5 ee bc 8b f1 b3 bd ec f6 84 bc
       -0.07604255 -0.02915465 -0.08786305 -0.016231023
0000f0 30 74 b3 ba cc 54 da bc a5 7d 25 3d a9 73 3f bd
       -0.0013691243 -0.026651762 0.040403027 -0.04674116
000100 91 c6 39 bd 34 a2 ea 3c 62 ac f0 bd 30 5d 0b 3c
       -0.045355383 0.028641798 -0.117516294 0.008506104
000110 27 a5 d5 3b 9e 12 d2 bd 31 c1 1f bc 64 47 2d 3d
       0.006519932 -0.10257457 -0.00975065 0.04230441
000120 88 0e 3a 3c 8b f3 12 3d 17 ed 87 3d 32 86 4b bd
       0.011356004 0.035876792 0.06637018 -0.049688525
000130 8a 08 fd 3b 40 b1 95 3c a3 fc 92 bd a2 c2 bb bc
       0.007721965 0.018272996 -0.07177093 -0.022919957
000140 56 35 2b 3d 46 c7 3b bc 25 db 48 bd 8f ba 14 3b
       0.041798912 -0.011461085 -0.049037118 0.0022694205
000150 85 32 3b 3b e3 46 bf bc 6e d0 f0 3d 80 ac 4c 3d
       0.0028564048 -0.023349231 0.11758505 0.049969196
000160 6f 19 d5 3c b2 34 f1 3d 34 bc 64 bd ca 34 34 bd
       0.026013104 0.11777629 -0.055843547 -0.043995656
000170 9e f2 2f 3d 73 cf 31 bd 23 28 97 bd 73 83 0c 3d
       0.042955987 -0.04341073 -0.07380702 0.034305047
000180 be d2 20 bd 22 e5 8a 3c dd c4 8a 3b 1e 58 ba bc
       -0.03926348 0.016954962 0.0042348937 -0.022747096
000190 2a 2c be bd 13 18 49 bd 44 5c 62 bc 35 10 b4 bd
       -0.092857674 -0.049095225 -0.013815943 -0.08792154
0001a0 6f a7 86 bd 4d 75 7e bd 2e 21 23 bd 52 c0 a7 bb
       -0.06574904 -0.062123585 -0.039826564 -0.005119362
0001b0 c3 e2 0e bd 3c ef ad bd 30 54 8a bd 5b cf 9e bc
       -0.034884226 -0.08492896 -0.06754339 -0.019385984
0001c0 e9 4b 99 bc 3c df 45 bd ea 69 14 bd 0a ba 1f 3d
       -0.018712955 -0.048308596 -0.03623382 0.03899578
0001d0 f0 94 7c 3c bc 8d 8a 3b 65 53 0d 3d e3 e1 29 3d
       0.015416369 0.004228322 0.03450336 0.041475188
0001e0 2a 14 b8 bb d4 29 b3 3c d6 f2 09 3d c8 a0 41 3d
       -0.005617638 0.021870531 0.033678852 0.047272474
0001f0 f8 bd 61 ba 79 c5 a2 3d e1 39 94 3d 49 44 b0 3d
       -0.00086113764 0.07947821 0.07237602 0.08606774
000200 cb 03 14 3d 9b 56 13 3e 24 93 40 3d 99 8e ba bc
       0.03613643 0.14388506 0.047015324 -0.022773074
000210 bf bb c6 3d 4e ba 82 3d 1b 24 9a bd 3f 76 96 bd
       0.097037785 0.06383191 -0.07526418 -0.073467724
000220 2f a2 fa bb b7 eb 71 bd 26 99 5f bd 15 e4 71 bd
       -0.0076487283 -0.059062686 -0.054589413 -0.059055407
000230 bd ec 4d bd 3a da 0c bd 16 95 1f bd 30 da cb 3b
       -0.0502746 -0.034387805 -0.03896054 0.0062210783
000240 f8 d0 81 3d 2c eb 94 bd b0 88 0d be 15 26 04 3d
       0.06338686 -0.07271418 -0.13821673 0.03226288
000250 0e 41 19 3d 58 b8 32 bd f3 d7 84 3d cb 6a b9 3d
       0.037415557 -0.043632835 0.064865015 0.09053572
000260 5b a1 26 bc 97 fb 57 bd 52 12 83 bd 96 58 62 3c
       -0.010170306 -0.05273017 -0.06399979 0.013815066
000270 8e 32 94 bd 6e 20 ea 3d c8 2e 05 3e be 2e a0 3d
       -0.07236205 0.11431967 0.13006127 0.07821415
000280 d9 2c 50 3e de d9 36 3d 1b 89 00 3c db f4 f0 3b
       0.20329608 0.044641368 0.0078451885 0.007353408
000290 5e 80 3a 3d 2b 3b 88 3d a9 65 cb 3c 13 1b d9 bd
       0.045532577 0.066519104 0.024828749 -0.10600867
0002a0 d0 1a 90 bd 99 8b af bd d6 52 ce bd 1d e6 52 bd
       -0.07036364 -0.08571548 -0.100743935 -0.051488984
0002b0 ae e7 61 3d 31 d3 53 3d ee cf ac bd a9 4b f8 3d
       0.055152588 0.05171508 -0.08438097 0.12123806
0002c0 84 dd 57 3d be e8 c4 3d 1f d8 38 3e 53 b5 0e 3d
       0.052701488 0.096147045 0.18051194 0.034840893
0002d0 01 3e de bd e0 c6 77 bd 5c 95 fe 3c ac 22 44 bd
       -0.1085167 -0.060492396 0.03107708 -0.04788463
0002e0 67 12 8b 3d 4c 81 ed 3d 4d ae 22 bd bb 23 cf 3d
       0.06790619 0.11596927 -0.039717007 0.10114237
0002f0 43 14 80 3c f6 a5 85 3d 01 f2 5a 3d 2c 36 d1 3d
       0.015634662 0.06525795 0.05345345 0.102154106
000300 42 2a c4 bd 61 31 dc 3c 54 bb 2a 3a 54 b4 df bd
       -0.095783725 0.026879014 0.00065128994 -0.10923067
000310 9f d6 f1 bd 3b 6d f8 bc 85 0d ce 3d 73 46 0c bd
       -0.11808514 -0.030325523 0.100611724 -0.034246873
000320 49 6f 3b be 79 38 fa 3d 47 f2 5a 3d 45 7d 79 bd
       -0.1830417 0.122178026 0.05345371 -0.060910482
000330 e9 1d ba 3d 86 fd 0d 3a 4d a3 c0 bc 33 5a b4 bd
       0.09087736 0.0005416501 -0.023515368 -0.08806267
000340 c1 26 43 b9 a1 34 44 3d 8f 23 8b bd 7b 84 b1 3d
       -0.00018611086 0.047901753 -0.06793892 0.08667847
000350 37 70 68 bd f7 44 c5 bd 2e 4b d3 bd fb 8d 73 bd
       -0.05674764 -0.096322946 -0.10317074 -0.059461575
000360 fe 9e 28 bd 36 ca b0 bc 6f bc ad 3d 49 fe 85 3c
       -0.04116725 -0.021580797 0.084832065 0.016356604
000370 3b be f9 3d 27 7a 9d 3d d2 04 50 3c 70 cf 30 3e
       0.12194487 0.07689314 0.012696462 0.17266631
000380 20 cb 46 3b 29 20 d5 3d 11 28 ba 3d cd 36 30 bc
       0.0030333474 0.10406525 0.09089673 -0.010755253
000390 e1 d2 25 bb a9 17 2b 3d 93 e5 32 bc 6a 3f 47 be
       -0.0025302696 0.04177061 -0.010918993 -0.19457784
0003a0 80 93 2a be 4e 93 9f bd 67 2d c4 bd b3 0e 11 3c
       -0.1665783 -0.07791768 -0.09578972 0.008853602
0003b0 21 83 27 3d 83 66 89 bc b1 a6 6c bd 18 55 11 bd
       0.04089654 -0.016772514 -0.057776157 -0.035481542
0003c0 fd 11 f3 3d 30 bb 68 3d 09 42 9e bd 38 e7 9b bc
       0.11868665 0.05681914 -0.07727439 -0.019031152
0003d0 d9 0d 4f 3c e8 db 07 be f7 fd 64 3e 6c 00 1a 3e
       0.012637579 -0.13267481 0.22362505 0.15039223
0003e0 e5 c8 b3 bd 76 4b 1c 3e 83 51 dd bc 3a fb 10 be
       -0.08778552 0.15263161 -0.027016407 -0.14158335
0003f0 80 cc 44 3e 0e 34 1b 3e fc 15 9c 3d dc 31 28 3d
       0.19218636 0.15156576 0.07621381 0.041063175

bias f4 [32]
000000 7a 35 a3 3e 07 6c 15 bf 9c 16 13 bd 00 72 c4 b9
       0.31876737 -0.5836796 -0.035910234 -0.0003746897
000010 b6 13 f7 be 3a f5 30 bf ec ce 51 be 44 5c 80 bf
       -0.48257226 -0.69124186 -0.2048909 -1.0028157
000020 e6 7b ff bd 0a 9b ca bd 43 81 99 3e c2 62 15 be
       -0.124748036 -0.098928526 0.2998143 -0.14588454
000030 d2 fb a7 3e 5a 40 c9 be c6 c0 b5 bd 48 56 7f be
       0.3280931 -0.3930691 -0.08874659 -0.24935257
000040 49 23 38 3e 1c 38 58 be ea 8e 7e be 1e dd b4 3e
       0.1798221 -0.21115154 -0.24859205 0.3532495
000050 e4 94 02 bf d2 bd f0 3d b0 da 0e 3f 6a 4e 60 be
       -0.5100844 0.11754955 0.5580244 -0.21904913
000060 ef ec ca be ec 48 24 3e 30 d6 0b 3d 44 fd dd be
       -0.3963389 0.16043442 0.034139812 -0.4335729
000070 72 98 b7 3e b9 92 14 be 4c 92 e2 be b0 5f 64 bd
       0.35858494 -0.14509095 -0.4425224 -0.055755317

weight f4 [32, 1568]
000000 d1 40 9a 3c 55 dd 95 b9 5d 40 a4 3b b3 b9 80 bc
       0.018829735 -0.000285844 0.0050125555 -0.015713548
000010 60 13 da bc 34 d5 7f bc 2e 54 aa bb a1 49 8f bc
       -0.026620567 -0.015614796 -0.0051980233 -0.017491164
000020 20 c0 8a 3c 0c 2a b2 bc 7b 2b bf bc ce 2b 7c bc
       0.016937315 -0.021748565 -0.023336163 -0.015391303
000030 6f 0b 6d 3c 6d b7 8c bc 7a f7 8d 3c a0 1f df 3b
       0.014468058 -0.017177308 0.01732992 0.00680919
000040 34 7c 1d bc 5e 23 e6 3b ff 5a ca 3b e0 3d 9a bc
       -0.009612132 0.007023259 0.0061753984 -0.018828332
000050 0f c8 3e bc c0 b8 97 3c c3 f0 0b 3c b8 97 97 bc
       -0.011644377 0.018520713 0.008541289 -0.018504962
000060 3e 9a 56 bc a8 3f 04 3c 17 78 e3 3b 94 8d 7d bb
       -0.013098298 0.008071817 0.006941806 -0.0038689123
000070 63 e1 b4 bc 2b 04 c8 bc 3a 5f 3f bc 94 72 5a 3b
       -0.022080129 -0.02441605 -0.011680419 0.0033332454
000080 3b c4 0e bc 46 20 dd bc c0 5e 49 bc e4 28 9d 3c
       -0.008713777 -0.026992928 -0.012290657 0.019184537
000090 97 75 de bc 41 64 d0 bc 15 e7 27 3c bc 16 9a 3c
       -0.02715568 -0.02543843 0.010247965 0.018809669
0000a0 8a 0b fb bc 5a b4 ea bc ea 4c 63 bc 8f 9d 9c 3c
       -0.03064515 -0.028650451 -0.013873318 0.019118099
0000b0 7d c6 a4 bc f7 b2 7a bb b9 d3 71 3c f3 a9 75 bc
       -0.020114178 -0.0038253644 0.014759951 -0.014994132
0000c0 f1 4d 62 bc 12 cf bc bc 77 a1 a7 bb 1f 69 88 3c
       -0.013812528 -0.023047958 -0.0051156837 0.016651688
0000d0 a2 9e 80 3b d3 49 54 3c 3c 88 f7 bb 74 33 35 bc
       0.0039251605 0.012957054 -0.007554082 -0.011059631
0000e0 c1 84 2a bc 00 1a 04 3c 39 7e 2e bc 61 8a cd bc
       -0.010407628 0.0080628395 -0.010650211 -0.025090398
0000f0 61 c3 59 bc 3b 59 74 3b 4b 4d 9a 3c 36 d2 2e bc
       -0.013291211 0.003728463 0.018835684 -0.010670235
000100 3c 4a e1 bc 09 0c c8 bc 95 c0 de bc f6 5c 94 3b
       -0.027501218 -0.024419801 -0.02719144 0.0045276834
000110 cf 0c 55 3c 38 d8 c5 3a 2f 2d 39 3b 0e 95 27 3c
       0.013003542 0.0015094345 0.0028255691 0.0102284085
000120 57 9d 38 3c 4c fb 19 3c b3 e2 09 3c c8 1e 84 3a
       0.0112679815 0.009398293 0.008415866 0.0010079974
000130 b3 37 ea 3b ed ac be bc d4 fd b4 bc 3a b0 9c 39
       0.007147753 -0.023275817 -0.022093691 0.00029885938
000140 57 dd de ba 18 e7 e4 bc 36 07 c8 bc f9 33 d6 bc
       -0.001700322 -0.027942225 -0.024417501 -0.02614783
000150 7f 8c 66 3c a4 c8 29 3c 7c eb a1 bc 06 67 fd ba
       0.014071583 0.010362778 -0.019765608 -0.0019333072
000160 43 b4 40 bc e6 7b 82 3c 88 42 ee bc ab c5 c5 bc
       -0.011761728 0.01592822 -0.029084459 -0.024142107
000170 cc af df bc fc aa 0f 3c bc 5f 97 bc a7 d0 17 3c
       -0.027305506 0.008768793 -0.018478267 0.009266055
000180 71 2d 34 3b 56 55 98 bc 51 36 54 bc 50 aa 24 bc
       0.0027492906 -0.018595379 -0.012952403 -0.010050371
000190 58 5f 3d 3b 36 50 84 bc fd 0d 26 3b df 93 87 bb
       0.002889594 -0.016151529 0.0025337928 -0.0041375007
0001a0 bf 36 7d bc 29 07 b3 bc 0b 73 be bc 89 f1 f6 3b
       -0.015454947 -0.021854 -0.023248216 0.0075361175
0001b0 21 e6 40 b9 11 f2 d0 bb 3b 48 aa bc c7 b1 02 bd
       -0.00018396277 -0.006376513 -0.020786395 -0.031907823
0001c0 dc c8 73 bc 2e ab ce bc 32 7e fd bc 38 e6 f1 bc
       -0.014879432 -0.02522811 -0.030943964 -0.029528722
0001d0 b0 db b7 bc 1a 91 fb bc b6 74 f4 3a 57 e2 62 3b
       -0.022443622 -0.030708838 0.0018650505 0.0034619772
0001e0 ca df 87 3b d5 58 fc bc 19 26 20 3c 1f c5 87 ba
       0.004146551 -0.030804077 0.009774708 -0.0010358429
0001f0 b5 4a e6 3b bb bc 47 bc d5 99 c3 3b b4 da f8 bc
       0.0070279487 -0.012190993 0.005969266 -0.030377723
000200 da f5 2b 3b cf 5e 60 3c 04 66 a1 3b 28 b8 f3 bc
       0.0026239068 0.013694479 0.0049254913 -0.029750898
000210 d1 d4 58 bc c8 df 16 bc 10 9d ec 3b 45 5c 7e bc
       -0.013234333 -0.009208627 0.0072208717 -0.015524928
000220 1b a6 25 bb 43 82 6b bc ba 75 23 bc 77 a5 00 bc
       -0.0025276009 -0.0143743185 -0.009976799 -0.00785195
000230 1c 0a a9 bc a6 62 c5 bc d8 df 70 3c c2 0b 7a 3c
       -0.020634703 -0.02409489 0.014701806 0.015261592
000240 d3 a2 c9 bb 0a 08 82 3c d0 34 5a 3c 8f a4 28 bc
       -0.0061534434 0.015872974 0.013318256 -0.01029314
000250 b6 11 93 bb 6e c0 c3 bc 41 1c 21 3b db 97 ab bb
       -0.0044881953 -0.023895469 0.002458349 -0.0052366084
000260 84 16 1c bc cd 6b cb 3c 54 fe 82 bc 5d 29 a0 bc
       -0.0095268525 0.024831677 -0.015990414 -0.019550974
000270 b2 c6 c2 bc 65 0c 9a bc 5d 13 95 3c 1d 94 96 bc
       -0.023776386 -0.018804738 0.01819771 -0.018381173
000280 bd 27 5c bc 81 82 ac 3b a4 96 ce bc 83 c0 ab bc
       -0.013437209 0.0052645807 -0.025218315 -0.02096582
000290 93 da 49 3c 1c 8f 80 bc 1d 34 d3 bb bf 4b 9c 3b
       0.012320179 -0.01569324 -0.0064454214 0.004769772
0002a0 bc fc 1c bc 00 66 a1 ba 25 da 41 3b fc 59 cf bc
       -0.009581741 -0.0012313724 0.0029579487 -0.025311463
0002b0 6e 87 8c 3c 54 a3 ef bc 07 87 6e 3c a0 26 57 bc
       0.017154422 -0.029252686 0.01455856 -0.0131317675
0002c0 28 8d 8a bc ac b8 91 3c c4 17 f8 bc a2 70 86 bb
       -0.016913012 0.017788254 -0.03028477 -0.0041027823
0002d0 7b ed 27 3c f1 3a e0 3c 10 00 e0 bc 09 ba 56 bb
       0.010249491 0.027371855 -0.02734378 -0.0032764694
0002e0 a5 3e a0 3c f0 ad f9 bc 80 3e da 39 26 66 aa bc
       0.019561121 -0.030478448 0.00041626766 -0.020800661
0002f0 b8 8f 25 3c d1 92 e5 bc f0 b4 bf 3b 90 45 37 bc
       0.010105066 -0.02802411 0.005850427 -0.011186019
000300 e3 f7 14 3c 4f f8 88 bb 74 fd 35 3b f8 e3 13 b9
       0.009092304 -0.0041799913 0.0027769478 -0.00014103937
000310 43 3b e0 bc 73 20 94 bc cd c4 63 bb aa 1d cd bc
       -0.027372008 -0.01808188 -0.0034754754 -0.025038559
000320 26 d1 89 3c f0 21 b8 bc e7 7f 85 bc a1 87 14 bc
       0.016823363 -0.02247712 -0.01629634 -0.00906554
000330 8e 3d d9 bc 67 84 cb bb 73 2d 94 bc 44 5e df bc
       -0.02651861 -0.006210852 -0.018088078 -0.027266629
000340 ff d3 a8 bb b0 0e 85 3c bb a5 46 39 e4 46 5e 3c
       -0.005152225 0.016242355 0.00018944491 0.013566706
000350 d6 88 be bb 86 ee 58 bc 4f 5a 67 3c 8e 1e 9e bc
       -0.005814652 -0.013240462 0.014120652 -0.019301679
000360 18 5a ef bc eb bc e3 3a ca fe 82 3c 55 78 ac bc
       -0.029217765 0.0017375028 0.015990634 -0.021053473
000370 82 88 3a 3b 1d 4d 76 bc fc cd 11 bc 08 59 3d bc
       0.0028462713 -0.015033034 -0.008899208 -0.011556871
000380 ec 1e 37 bc 53 6c d4 bc 6f 0d c6 39 02 58 4c bc
       -0.011176806 -0.02593056 0.00037775512 -0.012472155
000390 f7 4b 5c 3c 33 cd d8 ba ea d7 da bc 20 36 d7 bc
       0.013445846 -0.0016540646 -0.026714284 -0.026270926
0003a0 7f 23 9d bc 46 b2 c7 3b 2f bc b6 bc 75 c9 8e bc
       -0.019181965 0.00609425 -0.02230653 -0.017430047
0003b0 56 c5 b0 ba 21 ff c0 bc 28 6f 89 bc db 58 84 3c
       -0.0013486545 -0.023559155 -0.016776636 0.01615565
0003c0 33 25 a4 bc e0 c0 6a bc 56 27 50 3c ca 2f 5c 3a
       -0.02003727 -0.014328212 0.012704691 0.0008399455
0003d0 6a 33 5e 3c 6f a8 e6 bc 45 88 b8 3b 21 bc 41 bc
       0.013562063 -0.028156487 0.005631479 -0.011824639
0003e0 b4 71 ba bc eb 62 98 bb eb 56 95 bc 65 88 3b 3c
       -0.022759296 -0.004650464 -0.018229922 0.011446093
0003f0 3f b4 9f 3a 7e 35 01 bd 1f 07 82 3c 3c 22 30 3c
       0.0012184455 -0.031545155 0.015872536 0.01075035

bias f4 [32]
000000 1c 06 3d 3c ee 89 30 bc 76 eb db bb 26 76 9c bc
       0.011537101 -0.0107750725 -0.0067114187 -0.019099306
000010 44 45 ad bc 4a 92 d4 3d d3 e3 72 bd a6 a7 17 3d
       -0.021151192 0.10379465 -0.0592993 0.037025116
000020 9f 04 ee bb 7c 3d 20 bd 26 55 ae 3a 8c 48 c7 bc
       -0.0072637345 -0.039121136 0.0013300523 -0.024326585
000030 8f 9a 2b 3d 8f 33 68 3b 84 9e 15 3d 21 cc fb ba
       0.041895445 0.0035431122 0.036528125 -0.0019210615
000040 29 17 7c bb a7 2d 09 3d b4 a2 79 bc 5f 14 4e 3d
       -0.0038465953 0.033490803 -0.015236545 0.050312396
000050 4d 1b 2f bc 7a cd 54 b9 c3 0b 03 bc fe 67 c2 bc
       -0.010687661 -0.00020294441 -0.00799841 -0.023731228
000060 a6 26 7d bc d8 a6 da bb e6 25 07 3c 5a a1 8e bc
       -0.015451109 -0.0066727214 0.008248782 -0.017410923
000070 45 56 08 3b 49 8c 90 bc b0 a6 da 3d 4b d2 7f bc
       0.0020803374 -0.017645018 0.10676324 -0.015614103

weight f4 [10, 32]
000000 6f 6b 1f be df d8 a3 bd 1e 3d 9d 3c bc ab 6b bc
       -0.15568326 -0.08000349 0.019194182 -0.014384206
000010 df 51 b9 be 67 5e 82 3e ab 79 dc bd e4 6b ea bd
       -0.36195275 0.25462648 -0.10765394 -0.1144636
000020 7b bd 80 be 91 65 1b 3e ac 92 dc be f5 64 55 be
       -0.25144562 0.15175463 -0.43080652 -0.20839293
000030 33 97 92 be f1 b9 7c be 34 25 6a 3d 73 83 ea bd
       -0.2863098 -0.24680306 0.057164386 -0.11450853
000040 fd 3c 58 be 85 4c 6c be 43 bc 02 3e 10 52 9b be
       -0.21117015 -0.23076065 0.12767129 -0.30336046
000050 4a cf 98 3c e5 64 a5 be 49 78 4a 3e 51 81 1d bd
       0.01865353 -0.3230354 0.19772448 -0.038453404
000060 83 6b bb bd 98 77 de 3d 9f 51 21 3e 87 23 22 3e
       -0.091513656 0.108626544 0.15753792 0.15833865
000070 8b 03 74 bd 86 84 34 3e ca f2 83 3e c7 c2 74 3c
       -0.05957369 0.17628679 0.2577117 0.014939017
000080 08 6b cb bd 7c d0 6e 3d 00 2a 10 3d 8b 15 b8 bd
       -0.09932524 0.058304295 0.035196304 -0.08988484
000090 30 79 21 3e 9f a8 2a 3e 90 43 25 bd ce 8a fc bd
       0.15768886 0.16665886 -0.040347636 -0.123311624
0000a0 65 8e c2 3d 28 c7 6f be 4e 5b 46 3e 1a c6 bd be
       0.09499816 -0.23415816 0.19370767 -0.37065202
0000b0 01 5b 18 3e 1b 84 3a be 73 62 8a be 1b 25 12 3d
       0.14878465 -0.18214457 -0.27028236 0.035679918
0000c0 ff 12 a7 3c 3d a2 5d 3e 41 ae 75 bd 46 81 27 3e
       0.0203948 0.2164392 -0.059980635 0.16357908
0000d0 ee 71 13 bb 45 9c 43 3e 2f da 3f be 87 5a ef 3d
       -0.0022498327 0.19102581 -0.18735574 0.116871886
0000e0 be 70 1d be 38 6f 86 be ef 8a 23 3e 6d 8a 14 bd
       -0.15375039 -0.26256728 0.15970968 -0.036264826
0000f0 8f b8 86 bd 76 2e c1 be 1a 83 6c 3e 82 f9 47 bd
       -0.065781705 -0.3773076 0.23096886 -0.048821934
000100 93 d5 d9 bc 0d be c2 3d f4 f3 b6 bd 10 2f a6 bd
       -0.026591098 0.095089056 -0.08933249 -0.08114445
000110 f2 f8 4b be 41 d8 39 be f9 57 79 be 9f c1 98 3d
       -0.19919184 -0.181489 -0.24349965 0.07458805
000120 6f 09 0e 3e 14 a1 e0 3c 7e d4 47 be 00 e7 4f be
       0.13870786 0.027420558 -0.19514653 -0.20302963
000130 5a 98 34 3e ec 69 59 3e d8 77 07 be 4a 19 f7 bc
       0.17636243 0.21231812 -0.1322931 -0.030163426
000140 31 d5 ac 3d e7 8f 80 be cd 24 92 3d 0c 12 0a 3e
       0.084391005 -0.2510979 0.071359254 0.13483447
000150 b2 d0 e8 bd f5 59 a0 bd 48 c0 ee 3d 35 c7 b0 3c
       -0.113679305 -0.07829658 0.116577685 0.021579364
000160 cf 03 c9 3c b8 08 87 be 08 ca 01 bd e0 9d 01 be
       0.024537949 -0.2637384 -0.031686813 -0.12657881
000170 f3 6b 94 3d 5b 4b ba 3d 33 f7 7b 3e 0a 05 55 3d
       0.07247152 0.09096404 0.24606018 0.05200676
000180 3f f2 fc 3d ce 70 e5 bc 37 f4 d2 3d 08 ef 06 3e
       0.12350892 -0.028007891 0.103004865 0.1317712
000190 c7 a6 4c be 25 91 5c bd 30 05 aa bd 72 a1 04 3e
       -0.19985496 -0.053849358 -0.08301771 0.12952211
0001a0 a1 b8 69 be ca 0e 53 be 0e c0 6c 3e 5c 77 ae bd
       -0.22824337 -0.2061111 0.23120138 -0.0851886
0001b0 dd be 57 3e c6 14 88 3e d0 a2 da 3d ab 5f 8f 3d
       0.21068902 0.2657835 0.10675585 0.07000669
0001c0 00 80 b8 3d e3 c3 61 be 12 05 76 bb 01 d5 32 be
       0.09008789 -0.22047381 -0.0037539643 -0.17464067
0001d0 98 74 bc 3d 86 d0 32 be 7c ed 9d be a3 fd 1f 3d
       0.09201926 -0.17462358 -0.3084525 0.039060246
0001e0 8f 3c ac 3b 49 95 68 3d 08 68 76 3d 50 ec 2c 3e
       0.0052562426 0.056782994 0.060157806 0.16887021
0001f0 02 bb c7 bd 53 82 3b be 88 2f 18 be 65 56 0c be
       -0.09752466 -0.18311433 -0.14861882 -0.13704832
000200 82 84 48 bd 68 0e a3 bd 18 8d 9a 3d 6a 3a e0 3c
       -0.048954494 -0.07961732 0.07546443 0.027371604
000210 09 73 5e 3e fe 54 30 be f6 82 82 be f0 26 ea be
       0.2172357 -0.17219922 -0.2549054 -0.45732832
000220 b2 9e 0e 3e b0 62 29 3e 47 77 71 3e 6c dd f5 3d
       0.13927725 0.16541553 0.23580657 0.120051235
000230 5e 1b a1 be 10 d0 37 bb d5 d5 95 be 03 27 9e bd
       -0.31466192 -0.00280476 -0.29264703 -0.07722285
000240 59 26 83 be d7 65 90 bd e3 a4 11 be db 3e 08 3e
       -0.25615194 -0.070506744 -0.14223056 0.13305227
000250 38 c7 81 bc 65 4e 78 3e 6a 1b 28 3e b9 1a ca 3c
       -0.015842065 0.24248655 0.16416708 0.024670945
000260 8f 6b 04 bd 70 21 7f 3c 64 44 20 3e 35 0e 0b 3e
       -0.03232914 0.015571937 0.15651089 0.13579638
000270 58 54 2b be ef a6 87 be 93 00 dc bd c1 20 c2 3d
       -0.16731393 -0.26494548 -0.10742297 0.094789036
000280 ae 5a 0e 3e a3 ee 25 3e d5 72 80 bd 1f 7a 0a 3d
       0.13901779 0.16204314 -0.062719025 0.03380787
000290 bf aa ef 3d 2b c9 38 3e 28 85 18 3e 16 3a df 3d
       0.11702489 0.1804549 0.14894545 0.10899751
0002a0 7c 44 25 be b0 6c 45 be e5 2e 40 be a7 b7 3a 3e
       -0.16139406 -0.19279742 -0.18767889 0.1823412
0002b0 72 f1 3e 3e b3 83 8d 3b 0b de af 3d 1a 9e 6e bd
       0.18646792 0.0043186783 0.08587273 -0.058256246
0002c0 d7 25 aa be 1f f1 61 be 8a b3 b8 bb d9 1f 8b be
       -0.33231995 -0.22064637 -0.005636637 -0.27172735
0002d0 31 55 0d be 43 d3 75 3e ef e6 65 be f3 9d d7 bb
       -0.13802029 0.24006371 -0.22451375 -0.0065801083
0002e0 65 c9 29 3e d8 47 ae 3d 18 0f ef bb bc 0a 10 3e
       0.16580732 0.08509797 -0.0072955005 0.14066595
0002f0 4f f9 ce 3d 19 0a 19 be ca b1 21 be 3a fe 34 be
       0.101061456 -0.14945258 -0.15790477 -0.17675105
000300 cc 24 e8 3d d6 b1 da 3d 59 d0 10 3d 5a ba 3a bc
       0.113351434 0.10678451 0.035354946 -0.011396969
000310 67 d5 90 be 96 b6 5c 3e c2 94 2c 3e 27 6b d0 be
       -0.28287813 0.21554026 0.16853622 -0.4070675
000320 f3 87 79 3d 87 66 8a be 95 81 8c be 5b f4 37 3e
       0.060920667 -0.27031347 -0.27442613 0.17964308
000330 18 9a 1f bd ea 3f 54 3e d6 b7 71 be 9a 7e 0c 3e
       -0.038965315 0.20727506 -0.23605284 0.1372017
000340 6a f8 fb be 67 ad 55 3e bb 08 a0 bc be 21 98 3d
       -0.49212962 0.20866929 -0.019535413 0.07428311
000350 f1 ed af bd 99 e6 8f be 60 18 28 3e b6 39 54 bd
       -0.085903056 -0.2810562 0.16415548 -0.05181285
000360 d8 07 0d be 14 be c6 3d c0 4d 43 3d 87 a1 4b bd
       -0.13772523 0.09704223 0.04768157 -0.04971459
000370 48 99 c0 bd c3 6f 47 bd 7d 17 7c bc e7 49 19 3e
       -0.09404236 -0.04869057 -0.015386459 0.14969598
000380 1a f8 e7 bc 6e f6 1a be d3 69 df bd 9c 09 28 be
       -0.028316546 -0.15133068 -0.10908856 -0.16409916
000390 d7 e4 79 bd 22 8a 88 be 2c 64 c8 be ed 29 a4 3d
       -0.061009254 -0.26667887 -0.39138925 0.08015809
0003a0 61 df 07 bd 93 e1 1c 3e 04 47 35 3e 02 e3 3f be
       -0.033172015 0.15320425 0.17702872 -0.1873894
0003b0 9c 65 14 be 2c f8 4d 3d db 35 a7 3d 78 83 c3 bc
       -0.14491886 0.050285503 0.08164569 -0.0238664
0003c0 7e dc b8 3d ba 28 37 3e 75 d3 e4 3c 4d f0 30 3e
       0.090264305 0.1788663 0.027932862 0.17279167
0003d0 e4 52 14 be c0 09 86 3e 6a ba 58 be 56 f6 ab 3d
       -0.14484745 0.26179314 -0.21164861 0.08396594
0003e0 9a 3b 8a bc 0b 38 bf be 92 94 a4 3d d4 d2 29 be
       -0.016874123 -0.37347445 0.0803615 -0.16584331
0003f0 1b 0b ed 3d 35 08 fe 3d 2b 1b 1f be f6 c1 62 bd
       0.11574384 0.12403909 -0.15537708 -0.055360757

bias f4 [10]
000000 55 08 85 3e 6d 31 41 3c c7 3f 8c be 67 a1 22 3e
       0.2598292 0.011791569 -0.27392408 0.15881883
000010 8e 8b f3 bd a2 a4 66 be 73 cd 68 be 2d 82 e0 be
       -0.11891852 -0.2252374 -0.22734623 -0.43849316
000020 68 37 2d 3e 1b 21 3f 3f
       0.16915667 0.7465989
