net/torch/LeNet.pth (torch_old, 249634 bytes, 8 tensors)

weight f4 [16, 1, 3, 3]
00000000: dbba c5be 1317 c2bc 41db 8e3e 8ce7 2abe
00000010: c839 3fbf e0ef 00bf b36d 193f a62c 9f3e
00000020: eb73 b6bd 16b0 a8bc 358e f13d f2c2 85be
00000030: c886 d43d 15a7 9fbb 60bc 5b3e ab46 48be
00000040: 350d b03e 3163 8b3e 0648 83be cf79 a1be
00000050: 23d1 a7be 6a22 85be 0d20 99be 3135 31bd
00000060: e529 78bd 405b 813d de85 12bf 8758 1c3c
00000070: 308a ac3e afe4 ab3e 371b c6be ce38 60be
00000080: 0375 9cbe b91f a3be 6cd6 6cbe b7a2 a8be
00000090: b8e3 903d e68c 153e e715 c7be 7154 c13d
000000a0: 2a91 5e3d 46d8 29bc ea69 823d eca9 993e
000000b0: 4c7a 073e 5512 0b3e 879d cc3e 97f7 f63d
000000c0: f3f5 903e 2d7f 123e 8bd9 c2be 309a a33d
000000d0: f6b5 9bbe a97f edbe c2d4 343e cecc 18be
000000e0: 9d10 b4be 467f 1dbe 802c 313c 93a5 6fbe
000000f0: bf2f 26bf d7fb cabd 5e9e b8bd d5fc 863d
00000100: 742d 8e3e 76b0 65be 88c2 bebe f6d1 cd3e
00000110: f471 ba3e 6fba 01bf 7fdc 623e a844 ad3c
00000120: ee2c fabe 8b8b 10bf 5e15 52be fc68 453e
00000130: 043f 3e3c 9a6e 1cbf 4f48 f73e 7c98 4f3e
00000140: 9b56 74be e025 1fbe a7e7 fcbe 155a ecbd
00000150: 6c41 e5be 4c32 1a3e c29b 6b3e c4f7 7e3c
00000160: 0475 e03e 1b56 973e bec2 04bf 051d ffbe
00000170: 3030 4e3e 39d9 45bd 2540 a83e 6f10 fb3e
00000180: e4fd 3e3d 4d20 403e c7e0 dabd 832a 4dbe
00000190: 89e7 5a3e e392 21bf c0bc 68bc b00b a93e
000001a0: c39e 78bd ad10 dd3e 6c88 a63e 7824 4dbe
000001b0: adf8 6b3e 090f b8bd 9a79 573e 3f3a bdbd
000001c0: 1a76 d93d 47cc 2f3e 89f9 173e 2a2e ad3d
000001d0: 74a4 0a3c a681 a63e 5383 f53e 1e81 203e
000001e0: 578c 6ebe 4ba2 783d 7b2e 883c d242 afbe
000001f0: 54a2 1fbf c675 4ebe 56e1 edbe 91a3 553e
00000200: a26b 71bd e381 8e3e 22d6 b23e 4a76 bd3d
00000210: 1ad8 953e eb99 9fbd 80ea 1cbe f278 dd3d
00000220: 9a73 5a3e a1e3 e23e ad29 d9be f991 41be
00000230: 08a6 a93e f6e1 38be d499 afbe a276 eb3d
-0.38619122 -0.023692643 0.27901652 -0.1668989 -0.7469754 -0.5036602 0.5993301 0.31088752
-0.08908828 -0.020591777 0.11794702 -0.26125294 0.1037727 -0.0048722127 0.21458578 -0.19558208
0.34385076 0.27224115 -0.25640887 -0.31538245 -0.32776746 -0.26002818 -0.29907265 -0.043263618
-0.06058683 0.06316233 -0.57235515 0.009542591 0.3369918 0.3357291 -0.38692638 -0.2189667
-0.30558023 -0.3186014 -0.2312867 -0.32936642 0.07074684 0.1460453 -0.38883898 0.09439934
0.054337658 -0.010366505 0.06367858 0.30012453 0.13230246 0.13581212 0.39963934 0.12058943
0.28312644 0.14306326 -0.38056597 0.07988393 -0.30412263 -0.4638646 0.17659286 -0.14921877
-0.35168925 -0.15380582 0.010813832 -0.23403005 -0.64916605 -0.09911316 -0.09014581 0.06591193
0.27769053 -0.22430596 -0.3725779 0.4019925 0.36415064 -0.506751 0.22154425 0.021150902
-0.48862404 -0.56462926 -0.20515963 0.1927833 0.011611704 -0.61106265 0.48297355 0.20273012
-0.23861162 -0.15541792 -0.49395487 -0.11540619 -0.44776475 0.15058249 0.23008636 0.015562002
0.43839276 0.2955788 -0.51859653 -0.49826828 0.2013557 -0.048302863 0.32861438 0.49035975
0.046628848 0.18762322 -0.10687404 -0.20035748 0.21377386 -0.63114756 -0.014205158 0.3301673
-0.060698282 0.43176785 0.32525957 -0.20033443 0.23044081 -0.08987243 0.21042481 -0.09239625
0.10618229 0.1716777 0.14841284 0.08456071 0.00846206 0.3252079 0.47951755 0.15674254
-0.23295723 0.06070165 0.016623726 -0.34230667 -0.6235707 -0.20162115 -0.4646098 0.20863177
-0.058940537 0.2783347 0.34928995 0.092510775 0.29266435 -0.077930294 -0.1532383 0.10814084
0.21333161 0.44314292 -0.4241461 -0.1890334 0.33134484 -0.18054947 -0.3429705 0.11497237

bias f4 [16]
00000000: 0be5 43bd b70f debe 24f6 13be 3ad4 92bd
00000010: 1421 90be 4b56 83bd 687a 733e cec1 82be
00000020: 63ed 90bd 8aa9 253e bdac 53be 20ef 303e
00000030: 75e4 91bd 7897 d43a eb22 d7be d5aa 7ebc
-0.047825854 -0.43371364 -0.14449364 -0.07169385 -0.28150237 -0.064129435 0.23777163 -0.25538486
-0.07076528 0.16177955 -0.20671363 0.17278719 -0.07123653 0.0016219458 -0.42018828 -0.015543659

weight f4 [32, 16, 3, 3]
00000000: 700b 033e 51a6 143c ac74 8fbe 633b 4cbd
00000010: ebd9 723d efdb 5fbe 8444 5b3e 8235 ac3d
00000020: ba12 483c e2ab f43b 1209 1bbc 0622 1e3d
00000030: 6cfd 663d aa36 d63c 2477 3ebe ffdb fdbe
00000040: fa16 7ebe 0a09 b63d a495 30be 2330 44bd
00000050: 2d6d 0bbc 95e4 f8bc f2c5 3a3c ff9d 853c
00000060: 908a f43d 2951 96bc e7b8 283d cf38 0dbe
00000070: 2555 29be 6fc9 50bd 2aad 623d bb9b 41bc
00000080: 4b42 023d f96b 673e 67f7 073e 9b8b 87bd
00000090: 35ad 88bc 8d49 dd3d 12c2 5f3d 5441 623d
000000a0: 6282 9d3c e232 4fbe f8f5 fcbe 9d88 afbe
000000b0: 1af1 b5bc fd8f bfbc b350 06bd c348 f0bd
000000c0: 2ff7 313d ac41 6a3d 0d86 6c3e 4e95 72be
000000d0: ad72 ce3d f516 0abe 9a12 33be 6fbb 50bd
000000e0: 60ec abbc 43bb 07bd fae4 b2bb a7bc 0fbd
000000f0: c86a 873d 898b 013d 2935 8c3d 119c cf3b
00000100: d611 783d 4cf9 0f3e 386d 2fbc 20f5 343d
00000110: 142c 06be 7a52 b8bd 6616 75be 362a 2cbd
00000120: 0492 e93d b4a2 27bd dc03 40be dfda abbd
00000130: 3264 dd3b 5352 12be 0c27 373e d840 36bc
00000140: 8244 a4bd 4f9e 8e3c dcd9 ea3d 7c76 783d
00000150: 3b16 87be ad99 a63c be3d adbe bd97 06be
00000160: 5465 8bbd 3309 5c3e 8522 6a3d 98c2 bebc
00000170: 9d02 993e 409b 9ebd 758b fc3d 049e 48be
00000180: 2495 debe 47a2 07bf 009e b33d f576 ca3d
00000190: 8250 343d 1009 a23c e99f 33be df4d 0a3d
000001a0: e7f2 83be a2af 5ebe 3b08 b8be 74ba b2bc
000001b0: 6240 5bbc 268c 69bd f8e4 a13d 20a3 91bc
000001c0: 3979 8b3d 325c 7f3d 228b 09be cb17 1cbe
000001d0: c444 b9bd cf27 19be 5683 e5bd c666 bdbd
000001e0: bdcc 083e 375c 46bc ff6d 2b3e 5f25 38bd
000001f0: 83e8 453d d0c5 a4bd 26b0 813d 12c9 453d
00000200: 1500 483e ad42 01be f247 543d 4e31 223e
00000210: 659d 96be 1a26 11bf 00a6 99bd 8a41 05be
00000220: 8191 983c c23e 51bd 1655 093e 82c6 d23d
00000230: e773 15bd fdc7 133e 0b81 07be 21df f8bd
00000240: f04b 1d3e b96d 503d 36ce 8abd fc06 7d3d
00000250: 1b58 99be 41bc 3bbe 9456 edbd bf77 d1be
00000260: 52f0 b33e a858 b23c 7cb5 123d 9f02 0e3e
00000270: e7fc f93d 1cc5 cc3d 4605 e4bd 82ef 8c3d
00000280: 9e98 5dbd 6341 853d 6a7c 603d a88b b63c
00000290: cb1a 02be 4879 c7bc 5b82 93be 554d e7be
000002a0: ffd0 3cbe d5b7 18bf 06f1 d03d 1853 e23d
000002b0: ea7c 263e f67f 67be 65f8 063e 441b 9dbe
000002c0: d158 62be b438 9abe ce00 a0bd bdc2 923d
000002d0: fb1e fbbc 34f5 743d 5dec 023d 5824 9d3b
000002e0: cede 3ebd 3d46 d8bc a05c 093e 1615 1e3d
000002f0: 31d3 533d d5b4 67bd 6c76 82bd 4d11 96be
00000300: f739 80be 2db3 0fbe 920f 083e 11de 2dbd
00000310: 3e0f f03d 434d 603c 197c cc3d f797 57bd
00000320: 8d96 6dbe 19c9 9bbb 7fb0 0fbe 8e6c 44be
00000330: 689a 42be 9736 92be bcd6 973d 1aee 093e
00000340: b19b 8d3d 3856 543e 89d3 233c 59ad 1a3d
00000350: f09f 7fbc 7cb3 01bc 2fec fdbd 0e16 03be
00000360: e48a 843d afd5 0a3e 9775 8a3c 9dc9 d73d
00000370: 37da f7be f249 86be 4135 78be 504e c7be
00000380: 09e0 c23e af6e 72be 3d32 16be 9b4e 0f3d
00000390: 2c6d f03b b231 3a3e f62a f6bc 89ce a23d
000003a0: 4216 efbc 8125 06be 1280 86be fa08 91be
000003b0: 2451 1cbd 5402 653d 92fc dc3d 5536 013d
000003c0: e5b5 a5bc baa4 023d 40eb 21be 87d1 23be
000003d0: d981 81bd 03d6 37bd 99ee cb3c 0a26 b0bc
000003e0: 7e60 bd3d aca1 903d 8056 a93c 614c 0e3e
000003f0: fb11 38bd 0be7 8cbd 9c7b f83d 2be3 06be
0.12797332 0.009072856 -0.280187 -0.049861323 0.059289854 -0.21861242 0.21412855 0.08408643
0.012211496 0.007466779 -0.009462612 0.038606666 0.056394026 0.026149113 -0.18600136 -0.49581906
-0.24813452 0.08888443 -0.17244583 -0.04789747 -0.008509916 -0.030382434 0.011399733 0.01631069
0.11940491 -0.018349247 0.04119196 -0.13791202 -0.16536386 -0.050973352 0.055340923 -0.011816914
0.031801503 0.22599782 0.1327797 -0.066184245 -0.016684154 0.10805044 0.05462844 0.055238083
0.01922721 -0.20234254 -0.4940641 -0.34283915 -0.022209693 -0.023384089 -0.032791805 -0.11732628
0.043448623 0.057191536 0.23098011 -0.23689768 0.100804664 -0.1348532 -0.17487565 -0.05096
-0.020986736 -0.03313757 -0.005459425 -0.035092022 0.06612164 0.03162721 0.06846077 0.0063357432
0.060563885 0.14059943 -0.010707192 0.044179082 -0.13102752 -0.09000106 -0.23934326 -0.042032443
0.114048034 -0.04092665 -0.18751472 -0.08391356 0.006756329 -0.14289217 0.17885989 -0.011123858
-0.08020879 0.017409472 0.11467335 0.06065987 -0.26384148 0.02033695 -0.33836168 -0.13143821
-0.06806436 0.21487884 0.057161827 -0.023286149 0.29884806 -0.07744455 0.12331287 -0.19591528
-0.4347316 -0.5298199 0.087703705 0.098859705 0.04402209 0.019779712 -0.1754147 0.03376567
-0.25771257 -0.21746686 -0.3594378 -0.021817423 -0.013382049 -0.05701842 0.079050004 -0.01777798
0.06810231 0.062343784 -0.13431981 -0.15243451 -0.09046319 -0.14956592 -0.11206691 -0.09248118
0.13359351 -0.012106947 0.16741179 -0.044957515 0.048317444 -0.08045542 0.06332426 0.04828746
0.19531281 -0.12623091 0.051826425 0.15839121 -0.29416957 -0.56698763 -0.07502365 -0.13013282
0.01862407 -0.05108524 0.13411364 0.102917686 -0.036487486 0.14431758 -0.1323282 -0.121519335
0.15360999 0.05088589 -0.06777613 0.06177424 -0.29950032 -0.18333532 -0.11588779 -0.40911672
0.35144287 0.02177079 0.03581761 0.13868187 0.122064404 0.09998533 -0.11133818 0.0688162
-0.054100625 0.06506612 0.05480615 0.02228339 -0.12705533 -0.024349824 -0.2881039 -0.45176187
-0.184391 -0.59655505 0.102022216 0.11051005 0.16258588 -0.22607407 0.13180692 -0.30684865
-0.22104193 -0.30121386 -0.078126535 0.0716605 -0.030654421 0.059804156 0.031963695 0.0047955923
-0.0465992 -0.02640068 0.1341424 0.038594328 0.05171508 -0.05656894 -0.063702434 -0.29310074
-0.25044224 -0.14033194 0.1328719 -0.042448107 0.11721657 0.013690296 0.09984607 -0.05263516
-0.23201962 -0.0047541973 -0.14032172 -0.19182035 -0.19004214 -0.28557274 0.07414004 0.13469735
0.069144614 0.20736015 0.009999164 0.037762973 -0.015602097 -0.007916328 -0.12398564 -0.12801382
0.06471804 0.13558076 0.016901774 0.105365016 -0.48408672 -0.2622829 -0.24239065 -0.38926935
0.3806155 -0.23675035 -0.14667602 0.034987073 0.007337233 0.1818302 -0.030049782 0.0794955
-0.029185418 -0.13100244 -0.26269585 -0.2832716 -0.03816332 0.055910423 0.107903615 0.031545956
-0.020228336 0.031895377 -0.15812397 -0.15997897 -0.063235946 -0.04488183 0.024894046 -0.021502513
0.0924692 0.070620865 0.02067113 0.13896324 -0.044939023 -0.068800054 0.121329516 -0.13172595

bias f4 [32]
00000000: caca 073d 704f b3bd 8d8d 123e d3ab 023d
00000010: 8e35 d1bd 40bb f83d 1bc6 973c 4681 38bd
00000020: 3f2b 0abe 8f44 0b3d c749 0ebd 021c 9cbc
00000030: 2c96 49bd 1665 353d a4c7 e5bd 02b0 b3bb
00000040: 0b8c c8bc bf07 cf3d 4987 ba3d 8431 23be
00000050: 797e d43d 8aa6 393e 235d 80bc 4b34 2c3d
00000060: 617f d6bd 5080 a7bd 115a 593d 39c8 26bd
00000070: 6369 bdbd b479 4c3e 2579 38be 6c3f 743c
0.03315238 -0.08755386 0.1431181 0.031902146 -0.10215293 0.1214509 0.018527081 -0.04504516
-0.1349306 0.03400093 -0.03473833 -0.019056324 -0.04921548 0.044285856 -0.11219719 -0.0054836283
-0.02448084 0.10108899 0.09107835 -0.15936857 0.10375685 0.18129936 -0.015669411 0.042042058
-0.10473514 -0.081787705 0.05306441 -0.04071829 -0.092486165 0.19968301 -0.18014963 0.014907699

weight f4 [32, 1568]
00000000: 6936 00be 29b7 98bd a17d f5bd 1b2e 0abe
00000010: 3771 61be 82ea 93bd ea1c efbd 322f f73d
00000020: 17bb 313e b447 593e da67 c93d c040 573e
00000030: 0c2c 2d3e a9cc 70bd e1ad 1bbc a66c 423e
00000040: fb91 7c3e 9fa0 cfbd 57c4 193e a38a f63d
00000050: 1df8 403c 012c aabd 92c2 303e 08ec 0d3e
00000060: 738e 573c 4fc0 72bc df0c 5fbd 6221 793c
00000070: 09d1 1bbd 230f 523e 1ecf 183d 5429 603c
00000080: 9da7 dabc bfed 1fbb e220 42bd bd39 1dbd
00000090: 1730 1b3d 17d6 fd38 9b40 74bd 2bd9 ccbd
000000a0: 6d9e 79bd 9b27 123e bb11 853d 2931 9bbd
000000b0: 66d4 eebb b7c8 18bc 44b0 52bd 2959 01be
000000c0: 7996 123d 3b16 c13a 3521 e03b 9154 b4bd
000000d0: c889 d1bc e50c 023e 730b 463c 1b91 2c3d
000000e0: cf80 2a3e d5d4 2abe 9c7f 15be b6e6 03be
000000f0: ddf7 4fbe 4e04 a33d 1486 b63c b41b 3d3d
00000100: d59b 3cbe 9a30 223c 0a4c 393d 2177 913d
00000110: 2c02 2b3d cdb9 273e 06f3 16bd 9746 283c
00000120: f6ef b9bc 830e 0dbd ca44 d63c 5dfb dabd
00000130: 77a1 803e a731 003d 31be d7bd 2cc3 aabd
00000140: 335f 853d b526 ca3c f45c b03c e5cd 0a3e
00000150: 400c d03d aba8 b4bd 1a41 5a3c 326c c13d
00000160: 5ac3 453d a634 d2bc ec3a 3d3d c652 1cbd
00000170: 85eb abbd 7c15 34be 16ba aebc 9d99 f33d
00000180: 2010 923d 64bd 5abd 71ce 9e3c 671a 9dbb
00000190: dc8d 70be 7245 5cbe d576 5bbe 2d5d e3bd
000001a0: 07fa 41ba 5a1c 483d 036a 5b3d e3f4 343e
000001b0: 9f66 893d ee74 c13d 29d4 15bd 31f6 18bd
000001c0: 7a7a 0c3e 7ed4 553e 3b62 803e 9bf4 ce3d
000001d0: 4f54 8f3d 044f d3bc 7f45 b6bd 9ecf f03d
000001e0: 68a9 82be b008 07bd 4bab b5bd 5db0 13be
000001f0: bc69 c63c 3d19 f6bd d53d 973c 2a75 94bd
00000200: 41f1 0bbe 53ee 2bbe 6ec0 86bc dd6d 1b3d
00000210: 34a7 64bd 0b5c 9c3d 5022 233e 5cfe f0bd
00000220: 11ad ffbb 458b 733d 1b65 56bd ce14 a73c
00000230: b938 183d 9bd9 09be 2415 2fbe 7016 efbd
00000240: f6d7 afbd 4712 3ebe 195f e73d 2f8b 443d
00000250: 240a b93d a6d1 7f3d 1329 9c3d 698e 4d3e
00000260: 43c7 a53d 4fb8 1e3d c986 58bb afcc fdbd
00000270: b6ef b3bd 1820 b33b a8da 493d 1f52 033e
00000280: 5090 033e ffbd b13c 9baf 55be 637b e6bd
00000290: ae43 85bc 2a77 623e 8988 f13d 2f72 453d
000002a0: 8732 8bbd d1e5 7ebd 9729 12bd 3a17 5e3d
000002b0: 9ef6 513e 07cc cf3d 3206 d43d 4a46 43bd
000002c0: ca4c 45be 692b f9bd b4e6 fdbc 2c2b a6bd
000002d0: f692 233e 8420 503e ce63 a23d 9a6d 9b3c
000002e0: c6c2 30be ca5c 8cbd 54c8 3bbe 6678 773d
000002f0: d3ab 4dbc 9aad 60bc 646a 4ebd 86c9 213b
00000300: 2179 52be 8520 98bd c6e0 833c 92f9 9cbb
00000310: 618a ddbd 8038 d23d 0651 3e3e 382f cd3c
00000320: c9ee 063e 8f13 323b 8398 fabd 20c2 df3d
00000330: 5068 953b c411 a53c 7ea6 9ebd c0f2 4dbd
00000340: f557 d73d 2735 e83c 99da 73bd c1ba 613c
00000350: e9e5 98bc b2e5 cdbd 9982 21be b87b 9c3c
00000360: 7bf1 50bc 9ab7 92bd ec2c 443e c9b3 c63d
00000370: 554d 963d f4cc 2bbe 8c95 dc3d 91e7 263e
00000380: 057f 3d3e 00c4 e03d 902b 0abe ecfe 26bd
00000390: f21d d03d cac7 a63d 6e5f b93d 3bfa 383c
000003a0: a437 723c 7e5a 8b3c c8ce caba bca3 1c3d
000003b0: 077b bb3c 15d1 4d3e 3a1a 28be 5b23 dbbd
000003c0: 880d 943d b51a 003e b1e4 f83d a4e9 38bd
000003d0: 7f1a c43c bc56 a13d 8b50 22bc e8b7 dc3d
000003e0: 34d6 18bd 661b 58bd fd2b c23d 09fc 5bbb
000003f0: a61b 693e 7b0e 283d 1c26 1cbd 766c 99bd
-0.12520756 -0.0745681 -0.119868524 -0.1349415 -0.22015844 -0.07222463 -0.11675437 0.12069549
0.17356525 0.21218759 0.09834261 0.21020794 0.16911334 -0.05878893 -0.009501905 0.18986759
0.24665062 -0.10138058 0.15016304 0.120381616 0.011777905 -0.08309174 0.17261723 0.1385957
0.013156521 -0.014816358 -0.054455634 0.015205713 -0.03804115 0.20513587 0.037306897 0.013681728
-0.026691252 -0.0024403182 -0.04739464 -0.03838514 0.03788766 0.000121038574 -0.059631925 -0.10002359
-0.060942102 0.14272921 0.064975224 -0.07577736 -0.0072885035 -0.009325198 -0.05143763 -0.12631668
0.035788033 0.0014731357 0.006839896 -0.08805192 -0.025578395 0.12700231 0.012087691 0.04213057
0.16650699 -0.16682751 -0.1459946 -0.12880978 -0.20309396 0.079598054 0.02228073 0.046168998
-0.1841882 0.009899283 0.045238532 0.071028 0.041750118 0.16379471 -0.03685286 0.010270736
-0.02269743 -0.034437668 0.026155848 -0.10692475 0.25123188 0.031297352 -0.10534323 -0.08338007
0.065122984 0.02467666 0.021528699 0.13555105 0.101585865 -0.08821233 0.0133211855 0.09444465
0.048282005 -0.02565987 0.04619877 -0.038164876 -0.08394531 -0.1758632 -0.021328967 0.11894534
0.07131982 -0.053403273 0.019385548 -0.004794407 -0.23491615 -0.21510866 -0.2143205 -0.11101756
-0.00073996227 0.048855163 0.053567898 0.17671542 0.067090265 0.09446131 -0.036579285 -0.03734416
0.13718596 0.2088184 0.25074944 0.101052485 0.069985025 -0.025794514 -0.08899974 0.1175835
-0.25519872 -0.03296727 -0.08870562 -0.14422746 0.02422034 -0.120165326 0.018462101 -0.0724891
-0.1366625 -0.16790132 -0.01644918 0.03794657 -0.05582352 0.07634743 0.15931058 -0.11767265
-0.0078026135 0.05945899 -0.052342515 0.020395663 0.03716347 -0.13461916 -0.17097908 -0.116742015
-0.08586113 -0.1856166 0.11297435 0.0479843 0.09035137 0.062455796 0.07625022 0.20073856
0.08094647 0.03874999 -0.0033039323 -0.12392556 -0.087859556 0.0054664724 0.049280792 0.12824295
0.1284802 0.021697043 -0.2086777 -0.11254003 -0.016267624 0.2211577 0.1179362 0.048204597
-0.06796747 -0.06223089 -0.035684194 0.05422137 0.20504233 0.10146337 0.10352744 -0.047674455
-0.19267574 -0.12166483 -0.030993797 -0.08113703 0.1597403 0.20324904 0.079291925 0.01897316
-0.172618 -0.068536356 -0.18338138 0.060417555 -0.012553173 -0.013713265 -0.05039443 0.0024686768
-0.2055402 -0.074280776 0.016098391 -0.0047904933 -0.10817409 0.10264683 0.18585595 0.02504693
0.13177027 0.0027172302 -0.122361206 0.10925698 0.004559554 0.020150073 -0.077465996 -0.050280333
0.10514823 0.028345658 -0.059534643 0.013777436 -0.018664317 -0.100535765 -0.15772475 0.019101962
-0.012752886 -0.071639255 0.19157761 0.0970226 0.07338969 -0.16777402 0.10770711 0.16299273
0.18505485 0.10974884 -0.1349318 -0.040770456 0.101619616 0.081435755 0.09051405 0.011290128
0.014783774 0.017010923 -0.0015473003 0.038242087 0.022885812 0.2009929 -0.16416255 -0.10700103
0.072291434 0.12510188 0.121529944 -0.045144692 0.023938416 0.078778714 -0.009906898 0.10777265
-0.037313655 -0.052760504 0.09481046 -0.0033566973 0.22764453 0.041029435 -0.03812228 -0.074913904

bias f4 [32]
00000000: b454 9f3d f432 9c3d 281a dd3d cc3e 113e
00000010: 76da 2abd 324b 5dbb becf 9dbc 9fd2 98bb
00000020: 92bf 9e3c 143c 583d 9f3d eb3d f724 823d
00000030: 2021 8e3e 0e69 0e3c fd1f 273e 4dca db3c
00000040: 682e 843d bcd4 56bc 7251 0c3e b15c 123e
00000050: f91c 0bbd 4f71 bb3d ad74 823d 220d 473e
00000060: 1fde 553e 8e04 19bb 89c5 1b3e 947d 8a3e
00000070: 339b 57bc bba1 d73d 407c 393e 1fc7 57bc
0.07779828 0.07626906 0.107960045 0.14184111 -0.041712247 -0.0033766744 -0.019264098 -0.00466378
0.019378457 0.05279167 0.11486363 0.06354707 0.27759647 0.008692039 0.16320796 0.026829863
0.06454164 -0.013112243 0.13702944 0.14293171 -0.033963177 0.09152471 0.063699104 0.19438604
0.20885514 -0.0023348662 0.15212072 0.27048934 -0.013159561 0.105288945 0.18113804 -0.013170033

weight f4 [10, 32]
00000000: fcca debe d7e3 263e 62e0 103e 8a65 763e
00000010: f770 06be 80b9 b2be 0944 bfbd b99e 15be
00000020: 0388 99be 237c 4abe cca2 8abe 1e7e 273e
00000030: befa 953e e389 ac3d 6e8e 3bbe 5f4b 97be
00000040: 5fe9 93be b3e3 86bd 7efc dabe 09ce 143e
00000050: 34a3 963d e912 2cbe c2ad 0dbe 755b 433e
00000060: b3c4 8abe 6c8f 50be 64c0 12be 86b3 96be
00000070: 62a9 0bbe e0ff 46be ef0d 8fbe 114c e13d
00000080: a5f3 b6bd bbac bbbe 3df3 5cbe 1a52 a9be
00000090: ed6f 20be 7a76 8fbe 7e1f 01bd 9779 0abe
000000a0: 21db 77be d194 5ebe 2916 d03d 7c43 2dbe
000000b0: 5ad3 743e 6d59 e6bd 6ea4 113e 558e 35be
000000c0: d8fc 0b3e 099f f0bd 140b 513d 3748 90be
000000d0: e7d9 4dbd 569d 86be cfe6 64bd 8e05 86be
000000e0: b58f 803e f102 263e af61 a13d 5abc f13d
000000f0: 708c cbbc fa93 4a3e 0095 213e c827 b5bc
00000100: 3d28 e13d e2fc cfbd a465 8cbe 4c8e 4abe
00000110: b5b9 47bd 7c81 41be 054b f1bd 3701 1fbd
00000120: f06e 4fbe 9f6c 9bbe 089a 78be aca9 0e3e
00000130: 1363 a5bd c50c 0cbe 75c3 01be ef64 5cbe
00000140: 6958 063e 5a7d b23d b322 87be 33af d03d
00000150: 4c1b 14be 2141 74be 8667 3b3e 8adb 0a3e
00000160: 5590 e03b 65b8 31be e7b6 ad3d 587f 093e
00000170: 5f09 9fbc 8c7e 74be c29b 2a3e 448f 6f3d
00000180: 3257 213e e5a1 2f3e 1cf3 1bbe 2ca6 87be
00000190: 1c26 fabd f81c 58be 8721 2bbe 49fe 103e
000001a0: 3a82 453e d5ee b2be 6815 1c3e 745f 5cbe
000001b0: 6f85 8ebe 9a7a fabd 0372 09bf 298f 1ebe
000001c0: 87e3 c8bd 36cc c2bc aca2 2dbe ed76 8abe
000001d0: e93d 013d 661a 193e 0a67 483e d010 48be
000001e0: 680f edbd f55b b7be f629 09be e4ef 4fbe
000001f0: 5db0 2b3e 6eac 13be 937a 3f3e 4ce1 44be
00000200: 1e72 f33d e43c 00be cbf7 9ebe bf2c 07be
00000210: 2eea 06bd 3671 b93d 8048 ad3d bf5a f9bd
00000220: 73ce aabe b3ff 083e dba3 adbe f44b 193e
00000230: 870f 58be 0dd2 79bd 50a9 1e3e 1aaa 113e
00000240: 0bc2 003e 8285 81bd b32d 803d ec75 d4bd
00000250: 338b aa3d df8e 9abe d5ba 45be 9dfa 5dbe
00000260: 441d 94bd a5dc 4d3e b0df 3fbe fc3b 26be
00000270: b04f cc3d e894 19be 2463 88be f240 35be
00000280: eb11 fd3d 96b9 d3bd e3a7 103e d320 32bd
00000290: b0a2 c9bd 0968 e1bd b39a dcbd 4f30 0ebe
000002a0: 7b47 4f3e 5931 3bbe dded 333e 75c1 abbe
000002b0: 804b 0abe bca1 63bd c5f9 5dbd c3c9 083e
000002c0: 12f2 b1be 7a23 f03d 68f0 8b3d fec2 84be
000002d0: 8ed1 de3d 5aa0 303e 1a56 d1bd 32e1 063e
000002e0: 94c7 21be cc05 85bd 3e0b c8be 2ada 5fbe
000002f0: e254 87bd 7266 5f3e 9551 4cbe 7ac3 0f3e
00000300: 6d71 45be e2d3 cbbe bbcc 223e 3d84 6a3e
00000310: fbee 373e a3e7 8cbe 6f02 c6bd 41b3 1e3e
00000320: 80ea 76be 59f0 0f3e b5b9 033e bf9d 12be
00000330: 53df 8ebd 9f8e 34bb 3ab5 1f3e 53a8 68be
00000340: cda3 95be 6fdd 3cbd 3b06 313d a970 de3d
00000350: 2541 0e3e 2fc8 273e 4a45 a1be b9f8 283e
00000360: 11a0 bfbe 4ac9 383e 93b7 a8be 0c07 cc3d
00000370: ad85 0f3e 13cf 253d 3dfe a2be cf31 33be
00000380: 284c b1ba b124 093e 4643 42be 3d1b 97be
00000390: a797 e5bd 58b0 913d 22ab 523d 18d6 be3d
000003a0: 34b4 29be c1ff f03d 6219 b7be 30b7 ebbd
000003b0: 7db6 663e be03 72bd 2dff 91be 9f08 143e
000003c0: 9477 093e 843d 083e 5610 81be 1f71 97be
000003d0: 7cf6 bfbc edf5 043e 3f7c 413e e40f 54be
000003e0: 99c4 8e3e be44 5fbe c93b a53d 8b45 16be
000003f0: b89c adbd 15f0 17be 62d1 1a3e b81f 4dbe
-0.4351424 0.16297852 0.14148095 0.24062172 -0.1312903 -0.3490715 -0.093391486 -0.14611329
-0.2998658 -0.19773917 -0.2707733 0.16356704 0.29292864 0.08424737 -0.18316051 -0.2954969
-0.28888986 -0.06586399 -0.4277076 0.14531721 0.07355347 -0.16804089 -0.13835815 0.19077857
-0.27103195 -0.20367211 -0.14331204 -0.2943384 -0.13638833 -0.19433546 -0.27940318 0.11000837
-0.0893319 -0.3665522 -0.21577163 -0.3307045 -0.15667696 -0.28020078 -0.031524174 -0.13522945
-0.24204685 -0.21736456 0.10160477 -0.16920274 0.23908749 -0.11247525 0.14222881 -0.17730077
0.13670671 -0.117490835 0.051035956 -0.28180096 -0.050256636 -0.26291913 -0.05588418 -0.26176113
0.2510964 0.1621206 0.0787996 0.11803503 -0.02484724 0.19783011 0.15779495 -0.022113696
0.10994003 -0.101556554 -0.27421296 -0.19780844 -0.04876109 -0.1889705 -0.11781887 -0.038819518
-0.20257163 -0.3035631 -0.24277508 0.13931912 -0.080755375 -0.13676746 -0.12672217 -0.21522878
0.13119663 0.08715315 -0.2639366 0.101896666 -0.14463538 -0.2385297 0.1830121 0.1356031
0.006853143 -0.17355497 0.084821515 0.13427484 -0.019413648 -0.23876399 0.1666098 0.058486238
0.15755919 0.17151602 -0.15229458 -0.26493967 -0.122143 -0.211048 -0.16712008 0.14159502
0.19287959 -0.3494784 0.15242541 -0.21520787 -0.27836177 -0.12230416 -0.53689593 -0.15484299
-0.098090224 -0.023779016 -0.16956586 -0.27043858 0.031553183 0.14951476 0.19570556 -0.19537663
-0.11575204 -0.35812345 -0.13394913 -0.20306355 0.16766496 -0.14421245 0.18699102 -0.19226569
0.118870005 -0.12523228 -0.31048426 -0.13200663 -0.032938175 0.090547964 0.08461094 -0.121755116
-0.33360633 0.13378792 -0.33914074 0.1497038 -0.21099673 -0.060991336 0.15494275 0.14225045
0.12574022 -0.06324293 0.062587164 -0.10374054 0.083273314 -0.30187127 -0.19309552 -0.21677633
-0.072321445 0.201037 -0.18737674 -0.1623382 0.09976137 -0.1499821 -0.26638138 -0.17700556
0.12356933 -0.10338132 0.14126544 -0.043488335 -0.09845483 -0.11006171 -0.10771694 -0.13885616
0.20242111 -0.18280543 0.17571206 -0.33546034 -0.13505363 -0.055574164 -0.054193277 0.13358216
-0.34754997 0.117255166 0.06832963 -0.25930017 0.10879813 0.1724867 -0.10221501 0.13171843
-0.1579879 -0.06495246 -0.39071077 -0.21860567 -0.06607987 0.21816424 -0.19952996 0.14039412
-0.1928155 -0.3981009 0.15898411 0.22902007 0.17962258 -0.27520475 -0.09668433 0.15498067
-0.24112892 0.14056529 0.1286381 -0.14317988 -0.069761895 -0.002755083 0.15596476 -0.2272046
-0.29226533 -0.046109613 0.043218832 0.10861332 0.13892038 0.16384958 -0.31498176 0.1650113
-0.37426808 0.18045536 -0.32952556 0.099622816 0.14015837 0.040480684 -0.31834593 -0.17499469
-0.0013526725 0.13392903 -0.18970975 -0.2951297 -0.11210566 0.07113713 0.051432736 0.09318179
-0.16572648 0.11767531 -0.35761553 -0.115095496 0.22530551 -0.0590856 -0.28514996 0.14456414
0.13424522 0.13304716 -0.25207776 -0.29578492 -0.023432963 0.12984438 0.18895052 -0.20709187
0.27884367 -0.21803567 0.08068044 -0.14674966 -0.08477157 -0.14837678 0.15118936 -0.20031631

bias f4 [10]
00000000: fc95 923e ea36 babe 3090 31be a50b bc3e
00000010: bed2 5ebe d8a4 5cbf 7a18 93bf f5d3 07bf
00000020: af19 583f 8ffc af3f
0.28630054 -0.3637002 -0.1734016 0.36727634 -0.2176008 -0.8618903 -1.1491845 -0.53057796
0.8441419 1.374895
