net/torch/LeNet.pth (torch_old, 246158 bytes, 8 tensors)

weight f4 [16, 1, 3, 3]
0	0x3e82939c	0.25503242
1	0xbe47f13d	-0.19525619
2	0xc04841ae	-3.1290088
3	0xbf8f647b	-1.1202539
4	0xbf9f6bca	-1.245477
5	0x3f71dd1c	0.9447801
6	0x3f88595e	1.0652273
7	0x4003e8a3	2.061074
8	0x3f18595a	0.5951134
9	0x3ffc15b8	1.9694128
10	0x3dcc8e37	0.09988063
11	0xbf98aaf9	-1.1927177
12	0xc04d202a	-3.2050881
13	0xc017c1b9	-2.371199
14	0xbf8134ef	-1.0094279
15	0x3dd82885	0.105546035
16	0x3fb1af69	1.3881656
17	0x4008e3fb	2.1389148
18	0xbeec2680	-0.46123123
19	0x3e5c3683	0.2150517
20	0x3f02c266	0.5107788
21	0x3fa8f6b5	1.3200289
22	0x3f389238	0.7209811
23	0x3feab0b7	1.8335179
24	0xc00e87a1	-2.2270281
25	0xbfc3c6b0	-1.529501
26	0x3f98cd37	1.1937627
27	0xbe2ba62e	-0.16762611
28	0xbdadb0e0	-0.08481002
29	0xbe092e6d	-0.13396616
30	0xbec0a58e	-0.37626308
31	0x3d897990	0.06712639
32	0xbf12b9c7	-0.57314724
33	0xbf0599b4	-0.5218766
34	0xbf00d144	-0.50319314
35	0xbe9928bf	-0.299139
36	0xc04288c5	-3.0395977
37	0x3fce237e	1.6104581
38	0x400d7729	2.210398
39	0x40231077	2.54788
40	0x3f74c1f7	0.95608467
41	0xbfcf7a8e	-1.6209276
42	0xbe40997b	-0.18808548
43	0xc0136fa6	-2.3036895
44	0xbf9d558e	-1.2291734
45	0xbffdbe3b	-1.9823679
46	0x3f7dd154	0.99147534
47	0x3f3173c2	0.6931726
48	0xbfe05f02	-1.7528994
49	0x3f814a34	1.010077
50	0x3f3a0da0	0.7267704
51	0x3e670d5a	0.22563687
52	0x3f88421d	1.0645176
53	0x3cc0b625	0.023524353
54	0x3e95de15	0.29270998
55	0xbeba2326	-0.3635494
56	0x3fda6484	1.7061925
57	0xc0273a0e	-2.6129184
58	0xc01fb687	-2.4955156
59	0xc0351e4d	-2.8299744
60	0x4029a569	2.6507208
61	0x4003aeef	2.057552
62	0xbf2abfbf	-0.6669883
63	0xbf8b0bae	-1.0862939
64	0xbe2f9244	-0.1714564
65	0xbe892143	-0.2678319
66	0x3f4534d5	0.7703374
67	0x3fbb9951	1.4656163
68	0x3faa7870	1.3318005
69	0x40043c69	2.0661871
70	0xbfc9c31f	-1.5762671
71	0xbf986b10	-1.1907673
72	0x3f6d2150	0.92628956
73	0x3fabfdb8	1.3436804
74	0x3f702fe2	0.93823063
75	0x3f89fc18	1.0780058
76	0x3f003228	0.5007653
77	0xbfc52004	-1.5400395
78	0xbf2215c1	-0.63314444
79	0xbfa51af7	-1.2898854
80	0xbfb7d691	-1.4362355
81	0x3fb11a09	1.383607
82	0x3f90c440	1.1309891
83	0xc04ac373	-3.1681793
84	0x3f937dbf	1.152275
85	0x3ca5ad8c	0.020224355
86	0xbf4c27ed	-0.7974842
87	0xbe05ddf9	-0.13072957
88	0x3f9ef035	1.2417055
89	0xbf717342	-0.94316494
90	0x3ba4683f	0.00501731
91	0x3f497787	0.7869801
92	0x402735c7	2.6126573
93	0xbf5f8b26	-0.873217
94	0xc060cfb4	-3.5126772
95	0xbf93836c	-1.1524482
96	0x3fa450d4	1.2837167
97	0x3f910705	1.1330267
98	0xbff72838	-1.9309149
99	0xbe5898e7	-0.21152078
100	0x400f6452	2.240498
101	0x400d9c9e	2.2126842
102	0xbfd5450b	-1.6661695
103	0xbf44c8d3	-0.76868933
104	0xbedbd0d6	-0.42932767
105	0xbf7ee7df	-0.9957256
106	0xbfb4bf88	-1.4120951
107	0xbf8abd71	-1.0839063
108	0xbed15a48	-0.40889192
109	0x3e1d0ffd	0.1533813
110	0x3f16d2b3	0.5891525
111	0x3fb71187	1.4302224
112	0xc0bb5ddb	-5.855207
113	0x406e0d9d	3.719581
114	0x4083209e	4.0977316
115	0xc081ca1b	-4.055921
116	0xbd09dbc8	-0.033656865
117	0x3f35ffab	0.71093243
118	0x3f123bb3	0.57122344
119	0xbf026238	-0.5093112
120	0x3fbf6593	1.4952873
121	0x3e6d78f7	0.23190676
122	0xbfd4dd76	-1.6630085
123	0x3f8b51d5	1.0884348
124	0xbff59316	-1.9185512
125	0xbf637f17	-0.888658
126	0xbe7c6737	-0.24648748
127	0xbfb9b70e	-1.4508989
128	0xbe8ba1b0	-0.27271795
129	0xbf8454a1	-1.0338327
130	0xbf52d825	-0.8236106
131	0x3f9f6138	1.2451544
132	0xbfeb3618	-1.8375883
133	0x3e2391ef	0.15973638
134	0x3ffd3ba2	1.9783823
135	0x3ca42fbe	0.020042296
136	0xbfe9c445	-1.8263022
137	0xc012d185	-2.294038
138	0x3fb38747	1.4025658
139	0x3f4afabf	0.7928886
140	0x3f2eedec	0.6833179
141	0x3e4cfe3e	0.2001886
142	0x3fc3ca1f	1.5296057
143	0x3e5e9b9c	0.21739048

bias f4 [16]
0	0xbd2f5336	-0.042803966
1	0x3e8b2b07	0.27181265
2	0xbc5cb6b0	-0.0134712905
3	0x3f64858e	0.8926629
4	0xbd2f5934	-0.04280968
5	0xbd2a79cc	-0.04162006
6	0x3eba4d76	0.36387223
7	0xbd81d080	-0.06338596
8	0x3da8a75c	0.08235046
9	0xbba6aebc	-0.005086748
10	0x3e51da36	0.20493397
11	0x3ea3def3	0.32006034
12	0x3dcfdd1d	0.10149596
13	0x3e293fa8	0.16528189
14	0x3ef0081d	0.4688119
15	0x3dcafee4	0.09911898

weight f4 [32, 16, 3, 3]
0	0xbd20e26c	-0.039278433
1	0xbcd62ecb	-0.02614536
2	0xbdee3157	-0.116305046
3	0xbcc384ae	-0.023866978
4	0xbc4d8cf8	-0.012545817
5	0xbcfe53db	-0.031045845
6	0xbd858371	-0.06519211
7	0xbd28502e	-0.04109209
8	0xbd1b34d4	-0.037892178
9	0xbc98294d	-0.018574381
10	0xbcd9d776	-0.026591998
11	0xbd9a3daa	-0.07531293
12	0x3ce89203	0.028389936
13	0xbb80ea73	-0.0039341985
14	0xbd8dc890	-0.0692302
15	0xbac52b81	-0.0015042872
16	0x3cc5cb1b	0.0241447
17	0xbafdae38	-0.0019354289
18	0x3dc60e4f	0.09670698
19	0xbc0fa619	-0.008767628
20	0xbd811400	-0.06302643
21	0x3d0e06f0	0.034674585
22	0x3d45dcc1	0.04830623
23	0xbdb4b946	-0.088244006
24	0x3d56a4d8	0.0524033
25	0x3c98c2bd	0.018647546
26	0xbdc07bd6	-0.0939862
27	0x3cf29c8b	0.029615661
28	0xbd89a433	-0.06720772
29	0x3d879051	0.06619323
30	0x3d8c7457	0.068581276
31	0xbd1a11a0	-0.037614465
32	0xbbe71d48	-0.007053051
33	0x3cf46b92	0.02983645
34	0xbd3298c6	-0.043602727
35	0x3d824344	0.06360486
36	0xbd992ea8	-0.07479602
37	0xbd2f20bd	-0.04275583
38	0xbe1b86e9	-0.15188183
39	0xbd841b0e	-0.06450473
40	0xbd9c3a49	-0.076283045
41	0xbd6fe5eb	-0.058568876
42	0xbdae6267	-0.085148625
43	0xbe00e5bd	-0.12587638
44	0xbc873b13	-0.016507661
45	0x3e001a41	0.12510015
46	0xbc9e9e86	-0.0193627
47	0xbd140500	-0.03613758
48	0x3e0c33bc	0.1369161
49	0x3bd5d0d0	0.0065251365
50	0xbd127ebd	-0.0357654
51	0x3d66d3ad	0.056354214
52	0x3c79b4ce	0.015240861
53	0xbd249ae6	-0.040186785
54	0xbe173e64	-0.14769894
55	0xbd0421d1	-0.032258812
56	0x3c504cdc	0.012713637
57	0xbdb79b15	-0.089651264
58	0x3c99e5f2	0.018786404
59	0x3c785f4b	0.015159438
60	0xbcd690a3	-0.026192015
61	0xbb6091dc	-0.0034266626
62	0xbcd2450d	-0.025667692
63	0xbd82a864	-0.06379774
64	0x3ba78f3e	0.0051135113
65	0x3cc93886	0.024563085
66	0xbdaf1cd0	-0.085504174
67	0x3d0ace9e	0.03388845
68	0xbc182d94	-0.00928821
69	0xbd897121	-0.06711031
70	0x3cc407dd	0.02392953
71	0x3d88a0cb	0.06671294
72	0xbc1c8db4	-0.009555269
73	0x3d828f9c	0.063750476
74	0x3bc0cbc2	0.005883665
75	0xbddad991	-0.10686029
76	0x3b70d315	0.0036746908
77	0xbbc0c78c	-0.005883163
78	0xbdd19398	-0.102332294
79	0x3b96ceaa	0.004602273
80	0x3dcfef13	0.10153022
81	0x3c857fc0	0.016296268
82	0xbc166dd3	-0.009181458
83	0x3d4cc2ab	0.049990337
84	0x3b900e52	0.0043962384
85	0xbada7764	-0.0016667661
86	0x3e0f4740	0.13992023
87	0xbcd6c361	-0.02621621
88	0x3d081c4b	0.033230107
89	0x3dcdb74c	0.10044727
90	0xbe0bb53d	-0.13643356
91	0xbbf874fd	-0.0075823055
92	0x3dbcd117	0.09219568
93	0xbe01bc3a	-0.12669459
94	0xbda19cfb	-0.0789127
95	0xbcec3dfd	-0.028838152
96	0xbda1cd25	-0.07900456
97	0x3c2432c1	0.010021866
98	0xbbe1a2e1	-0.0068858718
99	0xbd2ea15f	-0.042634364
100	0xbcd0ad68	-0.025473312
101	0xbbde9fd2	-0.0067939544
102	0xbcee53d7	-0.029092712
103	0xbcaa44c2	-0.02078474
104	0xbc33ebf3	-0.010981548
105	0xbd4daa97	-0.050211515
106	0xbd068921	-0.03284562
107	0xbc9efd6c	-0.01940795
108	0x3d11e121	0.03561509
109	0xbc02fd3d	-0.007994947
110	0xbc8b241f	-0.016984997
111	0xbd41412b	-0.04718129
112	0xbd85985e	-0.06523202
113	0x3d2924ce	0.041294865
114	0xbd3e461a	-0.046453573
115	0xbcbbcd20	-0.02292496
116	0x3cde2b03	0.027120119
117	0xbc656da8	-0.014003195
118	0x3cd7e0ec	0.026352368
119	0x3c2b5c74	0.010459054
120	0xbcea3266	-0.028588485
121	0xbcfaabe0	-0.030599535
122	0x3d29713c	0.041367754
123	0xbd31cc84	-0.043407932
124	0x3cf02af3	0.029317355
125	0x3e2553f3	0.16145305
126	0x3de36be8	0.11104566
127	0xbd510935	-0.05103417
128	0xbdcbe677	-0.09956067
129	0x3dcbdea2	0.09954573
130	0xbd5ad7c5	-0.05342843
131	0xbdaa59ad	-0.083178855
132	0x3d8f33e4	0.06992319
133	0x3c2bf756	0.010495981
134	0xbce72221	-0.028214516
135	0xbd917a93	-0.07103457
136	0x3d04c02b	0.03240983
137	0xbd077f78	-0.033080548
138	0xbc953e50	-0.01821819
139	0xbae155bb	-0.0017191687
140	0xbd1673f8	-0.03673169
141	0x3c14b8a9	0.00907723
142	0xb959c597	-0.0002076834
143	0xba33c702	-0.00068579626
144	0xb9c856da	-0.00038211682
145	0xbdcd9610	-0.10038388
146	0xbe32caa5	-0.17460115
147	0x3dca5544	0.098795444
148	0x3d2248fb	0.03962038
149	0xbd3eff4e	-0.046630196
150	0x3ca9ab9c	0.020711713
151	0x3d990abd	0.07472751
152	0xbc725f56	-0.014793238
153	0xbced529c	-0.028970055
154	0xbd4f688b	-0.05063681
155	0x3d870f7d	0.06594751
156	0x3daffc3f	0.08593034
157	0x3e438239	0.19092645
158	0x3e3aa204	0.18225867
159	0x3df5831a	0.11987896
160	0x3e28d787	0.16488467
161	0x3de67e9a	0.11254616
162	0x39c3d8f4	0.0003735494
163	0x3bd025f9	0.006352183
164	0x3d19fc84	0.037594333
165	0x3d82dffe	0.06390379
166	0x3c1b15c7	0.009465641
167	0xbe1e4ae7	-0.1545826
168	0xbd3d6c13	-0.046245646
169	0xbdf710e5	-0.12063769
170	0xbe03cea4	-0.12871796
171	0xbd914d54	-0.07094827
172	0x3d486989	0.04892877
173	0x3d6a19b9	0.057153437
174	0xbbb1bc52	-0.005424061
175	0x3dfed575	0.124430574
176	0x3dd90bbc	0.10597941
177	0x3e21f578	0.15816295
178	0x3e6cd23c	0.23127073
179	0x3df26186	0.11835007
180	0xbdb1be49	-0.08678872
181	0xbd80a443	-0.062813304
182	0x3d0d5239	0.03450224
183	0x3de0dcba	0.109796
184	0x3ddf0482	0.10889532
185	0x3dc5f558	0.09665936
186	0xbd950ebc	-0.07278201
187	0x3cc9f054	0.02465073
188	0xbcc71925	-0.024303982
189	0x3da25308	0.07925993
190	0x3d5035e9	0.050832663
191	0x3dfaecf0	0.122522235
192	0xbd3e2725	-0.04642405
193	0x3d8a0c44	0.06740621
194	0x3d4b8c33	0.04969425
195	0xbdef18c7	-0.11674648
196	0xbe14167a	-0.14461699
197	0xbd115ac6	-0.03548696
198	0x3dbc2f63	0.09188726
199	0x3d482c9d	0.04887067
200	0xbe653b0d	-0.22385807
201	0x3e45a469	0.19300999
202	0xbc991d2c	-0.018690668
203	0xbdbe17aa	-0.09281857
204	0x3dcd5641	0.10026217
205	0xbca56b3d	-0.020192737
206	0x3d19f995	0.037591536
207	0xbdacc8a8	-0.0843671
208	0xbcffe3bf	-0.031236527
209	0xbc1db867	-0.0096264845
210	0x3b7a42c5	0.003818677
211	0x3d74e57a	0.05978916
212	0xbda42add	-0.08015988
213	0xbe0ccc47	-0.137498
214	0xbd8936cc	-0.06699905
215	0xbe1052ee	-0.14094135
216	0xbd14c941	-0.036324743
217	0x3d81b2a2	0.063329
218	0x3de78c76	0.11306088
219	0x3debb4ac	0.1150907
220	0x3e47908f	0.19488738
221	0x3d8f8c1a	0.07009144
222	0x3dd89cde	0.10576795
223	0x3e16f4db	0.14741842
224	0x3d01b0ad	0.03166263
225	0x3a266a50	0.0006348239
226	0x3e422484	0.18959242
227	0x3dbd03ca	0.09229238
228	0xbcda5a1d	-0.026654297
229	0x3de6fd76	0.112788126
230	0x3ccbd945	0.024883876
231	0xbe148783	-0.14504819
232	0xbda948e3	-0.08265855
233	0xbd3524d8	-0.04422459
234	0xbd6a0b56	-0.057139717
235	0x3c7b095a	0.015322054
236	0x3d29a8c4	0.041420713
237	0x3d2d62e9	0.042330656
238	0xbd2eac76	-0.04264494
239	0xbe0a48fa	-0.13504401
240	0x3d8e9725	0.06962422
241	0xbcdf23e3	-0.027238792
242	0xbdc5c239	-0.09656186
243	0x3d20da0f	0.039270457
244	0xbd05dd95	-0.03268202
245	0xbe05a532	-0.13051298
246	0x3e3f1ca4	0.1866327
247	0x3df094a0	0.11747098
248	0xbe196e15	-0.14983399
249	0x3e579ca5	0.21055849
250	0xbdbef76e	-0.09324537
251	0xbe007341	-0.12543966
252	0x3e33eccc	0.175708
253	0x3dbd8871	0.0925454
254	0x3d695822	0.056968816
255	0x3d047519	0.032338236

bias f4 [32]
0	0x3f2466ed	0.6421955
1	0xbf8abdff	-1.0839232
2	0x3d373a32	0.044733234
3	0xbe22611c	-0.15857357
4	0xbf5b7a71	-0.85733706
5	0xbe97d525	-0.29654804
6	0xbea4529a	-0.3209427
7	0xbf799a86	-0.9750141
8	0xbf79065f	-0.97275347
9	0xbe725de3	-0.23668627
10	0xbf499a19	-0.7875076
11	0xbf3e1734	-0.74254155
12	0x3e3e81b3	0.18604164
13	0xbf5fe898	-0.87464285
14	0xbf47a4d6	-0.77985895
15	0xbcba0fb8	-0.022712573
16	0xbea1fdd1	-0.3163896
17	0xbe06f105	-0.13177879
18	0xbe37b7e3	-0.17941241
19	0xbe14d708	-0.14535153
20	0xbe3b9a48	-0.18320572
21	0xbea73412	-0.32656914
22	0x3d8cc834	0.06874123
23	0xbf116e68	-0.5680909
24	0xbd1e58ca	-0.038658895
25	0x3e6b40a6	0.2297388
26	0x3b46f780	0.0030359924
27	0xbd3f5cfc	-0.046719536
28	0x3d8a53f5	0.06754295
29	0xbf100e3d	-0.56271726
30	0xbe12eae5	-0.14347418
31	0xbea6e0e2	-0.32593447

weight f4 [32, 1568]
0	0xbd5316fb	-0.051535588
1	0xbd58bb5b	-0.05291305
2	0x3cd26dd1	0.02568713
3	0xbcc8dd6f	-0.02451965
4	0xbc74c079	-0.014938467
5	0xbde581cb	-0.11206397
6	0xbda070ce	-0.07834016
7	0xbdc3a062	-0.09552075
8	0xbdabdcbf	-0.08391713
9	0xbdee98af	-0.11650216
10	0xbe010893	-0.12600927
11	0xbe007ffe	-0.12548825
12	0xbd9cfa8d	-0.07664976
13	0xbd0022c5	-0.03128316
14	0xbd84ad61	-0.06478382
15	0xbd3eb986	-0.046563648
16	0xbe155074	-0.14581472
17	0xbe013720	-0.12618685
18	0xbd2ca4a5	-0.042149205
19	0xbd89573a	-0.0670609
20	0x3c4a00c9	0.012329289
21	0xbd677a03	-0.056512844
22	0xbde67501	-0.112527855
23	0xbdc7b1c6	-0.097507045
24	0x3a6e8aec	0.00090996805
25	0xbdd2bcbf	-0.10289907
26	0xbe2c3162	-0.16815713
27	0xbd8639b2	-0.06553973
28	0xbd66f5fb	-0.05638693
29	0xbe21901d	-0.15777631
30	0xbe052211	-0.13001277
31	0xbd313e26	-0.04327216
32	0xba0cac74	-0.00053662737
33	0xbe01c2ed	-0.12672015
34	0xbdb39479	-0.08768553
35	0xbd6898e8	-0.056786448
36	0xbda99e90	-0.082821965
37	0xbe1fee1f	-0.1561818
38	0xbd9d1379	-0.0766973
39	0x3d300c5f	0.042980548
40	0x3dd04b25	0.10170583
41	0xbda0fce5	-0.07860736
42	0xbd9055fa	-0.07047649
43	0xbd83f2fd	-0.06442831
44	0xbd8b689b	-0.06807061
45	0xbd89ec9a	-0.06734581
46	0xbd40b5e6	-0.047048472
47	0xbd7a0b06	-0.06104567
48	0xbd966ca3	-0.073449396
49	0x3aa68e4f	0.0012707206
50	0xbd5b1aae	-0.05349224
51	0xbd3dab1e	-0.04630577
52	0x3d804ba9	0.06264431
53	0x3d6eb7e3	0.058280837
54	0xbb28a614	-0.0025733756
55	0x3d3cd3d1	0.04610044
56	0xbd622f75	-0.05522104
57	0x3b1b1321	0.0023662525
58	0x3da494e9	0.08036215
59	0x3d272a10	0.0408116
60	0x3de35df2	0.11101903
61	0x3e3e1319	0.18561973
62	0x3dab6aeb	0.08370002
63	0x3c8db4a1	0.017298045
64	0xbd50adc4	-0.050946966
65	0xbdfc9de7	-0.12334805
66	0xbb3a177d	-0.0028395348
67	0x3e201650	0.15633512
68	0x3e0f0515	0.13966782
69	0x3d9bd5cc	0.07609138
70	0x3dc81f40	0.097715855
71	0x3c2aa8a2	0.010416182
72	0xbde211b7	-0.11038535
73	0x3dd47a5c	0.10374901
74	0x3cb2fc2d	0.021848762
75	0xbe0a90b5	-0.13531764
76	0xbca3471d	-0.01993137
77	0xbd140b0f	-0.03614336
78	0xbe0b62f7	-0.13611971
79	0xbc353c57	-0.011061749
80	0x3d4b4739	0.04962847
81	0xbd0e3048	-0.034714013
82	0xbe2ba2cc	-0.16761321
83	0xbddd57b4	-0.10807744
84	0xbd6055c7	-0.054769304
85	0xbdb41216	-0.08792512
86	0xbc27eb69	-0.010248997
87	0x3d693c1f	0.0569421
88	0x3cd4b6b6	0.02596603
89	0x3b7f2ae7	0.0038935484
90	0xbd54ecd2	-0.051983662
91	0xbda2c485	-0.079476394
92	0xbdb8ba76	-0.090199396
93	0x3c33a195	0.010963817
94	0x3c974fe0	0.018470705
95	0x3caaefd6	0.020866316
96	0x3e0b8c28	0.13627684
97	0x3d32e437	0.043674674
98	0x3de6c454	0.11267915
99	0x3e01ee97	0.12688671
100	0x3d7a9fef	0.06118768
101	0x3d83a2d6	0.06427543
102	0x3e060edd	0.13091607
103	0x3de67658	0.11253041
104	0x3da45d39	0.08025593
105	0xbc872b75	-0.016500214
106	0xbcf33db2	-0.029692505
107	0x3d4480a1	0.047974233
108	0x3df207fd	0.1181793
109	0x3dbca596	0.092112705
110	0x3cbfc310	0.023408443
111	0x3bf674a2	0.007521228
112	0xbda2063e	-0.07911347
113	0xbe25744a	-0.16157642
114	0x3cd84027	0.026397778
115	0x3dcfb962	0.10142781
116	0x3d093673	0.033499192
117	0x3d066114	0.032807425
118	0xbc1536cd	-0.009107304
119	0x3cf667cb	0.03007879
120	0xbd89d7a0	-0.0673058
121	0xbdbb9fc2	-0.09161331
122	0x3d82c736	0.06385653
123	0x3e1f49d9	0.15555514
124	0x3d701b06	0.05861952
125	0xbd19667c	-0.037451252
126	0x3e421af4	0.18955594
127	0x3d6a3381	0.057178024
128	0x3cc7b5dd	0.024378711
129	0x3dc2cc6b	0.09511646
130	0xbc7673e4	-0.015042279
131	0xbe5c532b	-0.21516101
132	0xbd1ce6c3	-0.03830601
133	0x3c8282b2	0.015931461
134	0x3e166372	0.14686373
135	0x3dc444cc	0.095834345
136	0x3c08305a	0.008312309
137	0xbdbd6d08	-0.09249312
138	0xbdda141c	-0.10648367
139	0xbc32b199	-0.0109066
140	0x3d553b26	0.05205836
141	0x3d47e1f0	0.048799455
142	0x3df6c5d9	0.12049455
143	0x3ddb5454	0.10709444
144	0x3d1702b1	0.0368678
145	0xbcefb892	-0.029262815
146	0x3dbde750	0.09272635
147	0xbde2f8ac	-0.11082587
148	0x3df5589d	0.11979792
149	0x3da8a9b3	0.082354926
150	0x3d819a36	0.063282415
151	0x3d8b3539	0.06797261
152	0x3b83224d	0.0040018917
153	0xbd4bcffb	-0.049758893
154	0xbc8e8b53	-0.01740042
155	0xbd2de4b1	-0.042454425
156	0xbc48eb04	-0.012263063
157	0xbdb6f0c3	-0.089326404
158	0xbdfd913e	-0.123812184
159	0xbe21c0a2	-0.1579614
160	0xbd2eda0d	-0.04268842
161	0xbc59d637	-0.013295702
162	0xbc06d2ad	-0.00822894
163	0x3d8bba04	0.06822589
164	0xbcb9f63f	-0.022700427
165	0xbe1aaec0	-0.15105724
166	0xbdef288d	-0.11677656
167	0xbd61370b	-0.054984134
168	0xbe12432d	-0.14283438
169	0xbd4714c1	-0.048603777
170	0x3d060960	0.032723784
171	0xbd85a6e4	-0.065259725
172	0xbe35b1ec	-0.17743653
173	0xbdf58405	-0.11988071
174	0x3b4c7a92	0.0031200987
175	0xbe05b1fb	-0.13056175
176	0xbd91096a	-0.07081874
177	0xbce2c8a3	-0.027683562
178	0xbdd0bb6c	-0.10191998
179	0xbdea4fbb	-0.11440989
180	0xbdb47e79	-0.08813185
181	0xbe148160	-0.14502478
182	0xbda752a7	-0.081700616
183	0xbd389cb2	-0.04507131
184	0xbc56c007	-0.013107306
185	0xbd4db214	-0.050218657
186	0x3d503181	0.05082846
187	0xbd8da0dc	-0.06915447
188	0xbdbaeb50	-0.091269135
189	0xbdeb23fc	-0.11481473
190	0xbd84982c	-0.06474337
191	0xbd0a53ce	-0.03377133
192	0x3c799751	0.015233831
193	0xbd58574f	-0.05281764
194	0xbde1a53d	-0.11017845
195	0xbd81da28	-0.06340438
196	0x3d539b6d	0.051661897
197	0x3d21fdbf	0.03954863
198	0x3d7b0761	0.061286334
199	0x3c80c1a0	0.015717328
200	0x3dbd2734	0.09235993
201	0x3d3764ec	0.04477398
202	0xbadee068	-0.0017004134
203	0xbddaab47	-0.106772
204	0xbd7ad89b	-0.061241727
205	0xbdd0926b	-0.10184177
206	0xbcb9e630	-0.02269277
207	0xbcf7f93d	-0.030270213
208	0x3bed9c2f	0.0072512846
209	0xbd028946	-0.031869195
210	0x3c8f7533	0.01751194
211	0xbe32096d	-0.17386408
212	0xbdd25938	-0.102709234
213	0x3c7ebeac	0.015548389
214	0x3d2c7dd0	0.04211217
215	0xbd97d618	-0.07413882
216	0xbe080b8c	-0.13285655
217	0x3dbdbcab	0.09264501
218	0x3dde4c47	0.108543925
219	0xbdbc42ee	-0.09192453
220	0xbc0e9cbf	-0.008704363
221	0x3c6abfbc	0.01432794
222	0x3be8ad9c	0.007100774
223	0xbdb9a48f	-0.0906459
224	0x3df2a145	0.11847166
225	0x3d564af5	0.05231758
226	0xbd8040ad	-0.06262336
227	0xbd29cbf5	-0.041454274
228	0x3db96f68	0.09054452
229	0x3d3ed3c8	0.04658869
230	0xbcea318d	-0.02858808
231	0xbda7187b	-0.08158966
232	0x3d1af2a2	0.03782905
233	0x3c2bb5fc	0.0104804
234	0xbd832013	-0.06402602
235	0x3bff8b37	0.007798578
236	0x3d06dcd5	0.032925446
237	0x3da3be40	0.07995272
238	0xbcac36d9	-0.021022247
239	0xbd728a32	-0.059213825
240	0xbe251cbb	-0.16124241
241	0xbcb0ea11	-0.021595987
242	0x3dd3dfac	0.103453964
243	0x3e3efaa6	0.18650302
244	0x3dac0d7e	0.08401011
245	0xbda8b507	-0.08237653
246	0xbc0278a9	-0.007963338
247	0xbca82b47	-0.020528449
248	0x3d5fa975	0.054604966
249	0x3e12df39	0.14342965
250	0x3e328df2	0.1743696
251	0x3d9633ac	0.073340744
252	0x3bf81d4b	0.0075718514
253	0x3cb9862f	0.022646992
254	0x3c74244d	0.014901233
255	0x3ccae602	0.02476788

bias f4 [32]
0	0xbd760a8f	-0.060068663
1	0x3d20f6ca	0.039297856
2	0xbc8a1c29	-0.016859131
3	0xbc9c75b1	-0.019099088
4	0x3c1a91cb	0.009434174
5	0x3dab033f	0.083502285
6	0xbdae0452	-0.08496918
7	0x3dbaeeca	0.09127577
8	0x3b0ae647	0.0021194385
9	0xbc9e260f	-0.019305257
10	0x3b809b07	0.0039247307
11	0xbd085d5f	-0.03329217
12	0x3c5f786b	0.01363955
13	0xbd62ef48	-0.055403978
14	0x3cd8fb79	0.026487099
15	0xbb49e400	-0.0030806065
16	0xbc154a94	-0.009112019
17	0x3ce8cfc1	0.028419377
18	0xbcc68448	-0.024232998
19	0x3d4107bf	0.047126528
20	0xbc2f199c	-0.010687258
21	0x3d2bac83	0.041912567
22	0xbd1f1fd7	-0.038848724
23	0xbce31725	-0.027720997
24	0xbc55fbce	-0.013060523
25	0x3c5a2c8f	0.013316288
26	0x3c4cd74e	0.0125025045
27	0xbc8ea0cb	-0.017410656
28	0x3bed6386	0.00724453
29	0xbcc20fea	-0.023689229
30	0x3dbcfd1a	0.09227963
31	0xbc7fd101	-0.015613795

weight f4 [10, 32]
0	0xbe859222	-0.26088053
1	0x3dc921ae	0.09820877
2	0xbdac9577	-0.08426946
3	0xbc0946f0	-0.008378729
4	0xbe2d4e56	-0.16924414
5	0xbe19fa13	-0.15036802
6	0xbed61370	-0.41811705
7	0x3e1378e7	0.1440159
8	0xbe40c4d0	-0.18825078
9	0x3d9524b7	0.072823934
10	0xbe09e918	-0.13467824
11	0xbe8b3588	-0.2718928
12	0x3d9150a3	0.07095458
13	0xbe9a1d02	-0.30100256
14	0x3de7d70a	0.11320312
15	0xbdef2423	-0.116768144
16	0xbea806ef	-0.3281779
17	0xbeb3bfdc	-0.35107315
18	0x3e48c6a9	0.19607033
19	0xbee035f4	-0.43791163
20	0x3cca0198	0.024658963
21	0xbe9ca144	-0.30591786
22	0x3e8b2ab5	0.2718102
23	0xbd3e0edc	-0.04640089
24	0xbf030811	-0.51184183
25	0x3e2fdee1	0.17174865
26	0x3e21808d	0.15771694
27	0x3e2223af	0.15833925
28	0xbe1bb640	-0.15206242
29	0x3e70c196	0.23511347
30	0x3e0bb580	0.13643456
31	0x3b40165a	0.0029310198
32	0xbec072b5	-0.37587515
33	0x3e4d0eca	0.20025173
34	0x3e1ca968	0.15298998
35	0xbdb8143f	-0.08988237
36	0x3e9ebde3	0.31004247
37	0x3eaa9fb3	0.33324966
38	0xbe91ea33	-0.28498992
39	0x3daf36f5	0.08555404
40	0x3e3a97e7	0.18222009
41	0xbe1e97b1	-0.15487553
42	0x3dfa76c4	0.12229684
43	0xbe9b0bd8	-0.30282474
44	0x3df3b461	0.11899639
45	0xbe97bb8a	-0.29635268
46	0xbe6054fa	-0.21907416
47	0x3d122541	0.03568006
48	0x3d66e319	0.05636892
49	0x3e591c7d	0.21202274
50	0xbe5180b7	-0.20459257
51	0x3e09a45b	0.13441603
52	0xbb137560	-0.002250038
53	0x3e3a613b	0.18201153
54	0xbe42aa27	-0.1901022
55	0x3df4ec61	0.11959148
56	0xbe30e9a5	-0.17276628
57	0xbe1a370a	-0.15060058
58	0x3e247400	0.16059875
59	0xbd148a4d	-0.036264706
60	0xbe8b806d	-0.2724642
61	0xbed241ec	-0.4106592
62	0x3e97a2fd	0.29616538
63	0xbd16c956	-0.036813103
64	0xbe35d3be	-0.17756554
65	0x3d8e8955	0.06959788
66	0xbeaa7ca2	-0.33298212
67	0xbdbec7f6	-0.09315483
68	0xbe683dd0	-0.2267983
69	0xbdeb4025	-0.11486844
70	0xbe959fc0	-0.29223442
71	0x3da18e15	0.07888428
72	0x3e2f4942	0.1711779
73	0x3db99954	0.09062448
74	0xbe0ccd55	-0.13750203
75	0xbca33a8d	-0.01992538
76	0x3e05cb66	0.13065872
77	0x3e87dee6	0.26537246
78	0xbe96999c	-0.2941407
79	0xbcf719da	-0.030163694
80	0x3de8fd4b	0.11376437
81	0xbe62acf8	-0.22136295
82	0x3e025a44	0.12729746
83	0x3e3eeb9a	0.18644562
84	0xbe00b477	-0.12568842
85	0xbe854b8e	-0.26034206
86	0x3e2dc8d6	0.16971144
87	0x3cdf8dd9	0.027289318
88	0x3e378fb2	0.17925909
89	0xbe3ff1d4	-0.18744594
90	0xbd172c52	-0.0369075
91	0xbe019ded	-0.126579
92	0xbe331f82	-0.17492488
93	0x3c1e1338	0.009648137
94	0x3ea93e1f	0.33055207
95	0x3d550542	0.052006967
96	0x3e612677	0.2198733
97	0xbe8e1328	-0.2774899
98	0x3e1e9fb8	0.15490615
99	0x3e06ef18	0.13177145
100	0xbe5d2704	-0.21596915
101	0x3e913362	0.28359514
102	0xbe693850	-0.22775388
103	0x3ddccfac	0.10781798
104	0xbe15d661	-0.1463256
105	0xbe0d7dff	-0.13817595
106	0x3e006553	0.12538652
107	0xbe0b2a64	-0.1359039
108	0x3e23c8f4	0.15994626
109	0x3e56af64	0.20965344
110	0xbd329f86	-0.043609165
111	0x3d8f5f98	0.07000655
112	0x3dc2cef6	0.09512131
113	0xbeef85cc	-0.46781766
114	0x3dc01f70	0.09380996
115	0x3db37a0b	0.08763512
116	0x3dbc74ad	0.09201942
117	0x3e705f87	0.23473941
118	0xbeb067ed	-0.3445429
119	0x3d22f2b0	0.039782226
120	0x3e49fb0b	0.19724672
121	0x3d61b7bf	0.055106875
122	0x3d770ef1	0.060316984
123	0x3e2cec7a	0.16887084
124	0xbdc738a6	-0.09727602
125	0xbeb09490	-0.34488344
126	0xbe0a42b5	-0.13502009
127	0xbe0c565c	-0.13704818
128	0xbe7d684d	-0.24746819
129	0xbe39a6aa	-0.18129984
130	0x3e974369	0.29543617
131	0x3c7bad74	0.015361179
132	0x3e0ccbe0	0.13749647
133	0xbe9a0577	-0.30082294
134	0x3e9f912b	0.31165442
135	0xbf285057	-0.6574759
136	0x3de4e0ea	0.111757115
137	0x3dac3a04	0.08409503
138	0x3df010a2	0.117219225
139	0x3b8a00c7	0.0042115184
140	0x3de7e974	0.113238245
141	0xbe960433	-0.2930008
142	0x3e4f13ff	0.20222472
143	0xbd9e26e3	-0.07722261
144	0xbe3a2598	-0.18178403
145	0x3ea02b6f	0.31283137
146	0xbeb0911a	-0.34485704
147	0x3e8ca5cc	0.27470243
148	0xbc81c602	-0.015841488
149	0xbe686824	-0.22695976
150	0x3e5dbccc	0.21654052
151	0x3c7fde91	0.015617029
152	0xbee43510	-0.44571733
153	0xbee99f99	-0.45629576
154	0x3e1794f2	0.14802912
155	0x3dfd8426	0.12378721
156	0xbe0ab8f3	-0.13547115
157	0xbe98d8f9	-0.29853037
158	0xbe40eb27	-0.18839704
159	0x3dc220e1	0.094789274
160	0x3e76b983	0.24094205
161	0x3e3dbfdb	0.18530218
162	0xbe0647f2	-0.13113382
163	0x3d0a7a3a	0.03380797
164	0x3e47c904	0.19510275
165	0x3de65320	0.112463236
166	0x3e3dd70b	0.18539064
167	0x3d5b4c8a	0.05353979
168	0xbea06b1d	-0.3133172
169	0x3d9d65d1	0.076854356
170	0xbe101a93	-0.14072637
171	0x3e6762b2	0.22596243
172	0x3dcb0794	0.09913555
173	0xbe54f04a	-0.20794788
174	0xbe08f7c4	-0.13375765
175	0xbd3d6ee6	-0.04624834
176	0xbeaac0b9	-0.3335016
177	0xbe721d0e	-0.23643896
178	0xbe6b1f57	-0.22961174
179	0xbe17756f	-0.14790891
180	0xbe0d5519	-0.13801993
181	0x3e89f0c7	0.2694151
182	0xbe7dd34b	-0.24787633
183	0xbbb4e177	-0.0055200416
184	0x3e407524	0.18794686
185	0x3dea93a8	0.114539444
186	0xbbea6f60	-0.00715439
187	0x3e100ac9	0.14066614
188	0x3e4d9af9	0.20078649
189	0xbdaeeb7a	-0.08541007
190	0xbdc811ca	-0.09769018
191	0xbe34fe20	-0.17675066
192	0x3e489ba9	0.1959063
193	0x3e748de8	0.23882258
194	0xbe89e77c	-0.2693442
195	0xbcbfbeec	-0.023406468
196	0xbe321de4	-0.17394215
197	0x3eb304c8	0.34964585
198	0xbe5cba5e	-0.21555468
199	0xbea18e18	-0.3155372
200	0xbea65c46	-0.32492274
201	0xbdc6333e	-0.096777424
202	0x3ddf2543	0.10895779
203	0x3e7ed636	0.24886402
204	0xbd8c5d93	-0.06853785
205	0x3e262c13	0.1622775
206	0x3c65c746	0.014024561
207	0x3e0c5164	0.13702923
208	0xbf254764	-0.6456206
209	0x3e4d8b07	0.20072566
210	0xbe95e5ed	-0.29276982
211	0x3e2a1c4f	0.16612361
212	0xbdafee07	-0.08590322
213	0xbee99386	-0.45620364
214	0x3e29f2d1	0.16596533
215	0xbd5c33d5	-0.05376037
216	0xbe9e85c8	-0.30961442
217	0x3e1b3b39	0.1515931
218	0x3d4781b7	0.04870769
219	0xbd4ba1ab	-0.049714725
220	0xbf032926	-0.5123466
221	0x3e0f5112	0.1399577
222	0xbd960671	-0.07325447
223	0x3e1949e4	0.14969593
224	0xbebfb593	-0.37443218
225	0xbf0365a9	-0.51326996
226	0xbe8164b6	-0.2527215
227	0xbe345582	-0.17610744
228	0xbdd71e9c	-0.10503885
229	0xbdce0c91	-0.100609906
230	0xbe9b44b9	-0.3032587
231	0x3cc0b2cc	0.023522757
232	0x3e340e32	0.1758354
233	0x3de43dd3	0.111446045
234	0x3e2a6073	0.16638355
235	0xbeb69da4	-0.35667145
236	0xbde2c9de	-0.11073659
237	0x3e1ce06e	0.15319988
238	0x3e0c10d8	0.136783
239	0xbcc48532	-0.023989294
240	0x3e26545a	0.16243115
241	0x3e5339d4	0.20627528
242	0x3e093bde	0.13401744
243	0x3e14e213	0.14539365
244	0xbe1451cf	-0.14484333
245	0x3e9265ee	0.2859339
246	0xbeb6b3a8	-0.35683942
247	0x3db01a44	0.0859876
248	0xbe2f11e5	-0.1709667
249	0xbeefc1e9	-0.4682763
250	0x3db66d5e	0.08907579
251	0xbe361d03	-0.17784505
252	0x3e77e8ad	0.24209853
253	0x3e1ff308	0.15620053
254	0xbe855672	-0.26042515
255	0xbd89f9c8	-0.06737095

bias f4 [10]
0	0x3edb669a	0.42851716
1	0x3e9f0e5b	0.3106564
2	0xbe93acf4	-0.2884289
3	0xbe51c6c8	-0.20485985
4	0x3f3c02a2	0.7344152
5	0xbdcb5827	-0.09928923
6	0xbe3a12fe	-0.18171307
7	0xbea2b5b9	-0.31779268
8	0xbe064d85	-0.13115509
9	0x3f1c25f9	0.6099544
