net/torch/LeNet.pth (torch_old, 249631 bytes, 8 tensors)

weight f4 [16, 1, 3, 3]
-0.028749153 0.3977067 0.18989351 -0.2868845 -0.20403895 0.34703672 -0.26892295 -0.21038833
-0.4226003 0.14794452 -0.03216141 -0.20251484 -0.3865564 -0.22194035 -0.015471891 -0.43639526
-0.17172658 -0.44603577 0.32056445 0.18377456 0.23439558 0.0024639086 -0.09671194 0.1655572
0.24147783 0.17876866 -0.16134834 0.17109394 -0.11907603 -0.09160169 0.20429073 0.20311043
0.41424862 -0.2425581 0.28170174 0.23434305 0.38105208 -0.017702142 -0.3251828 0.06652162
0.35887128 -0.6474093 0.16927254 0.40002045 -0.33360544 0.33161214 0.24815871 -0.33827785
0.19650987 0.13472514 0.035827037 -0.21357428 0.08717764 0.04878935 0.02639743 0.37238142
0.16958535 0.15023075 0.38615274 0.3056664 -0.2065739 -0.09632943 0.24696332 0.18328537
-0.0776659 -0.31013966 0.012581867 0.4802516 -0.045634788 0.32561305 -0.03124993 -0.30886197
-0.7200411 -0.48339188 0.27131456 -0.3912968 0.107702754 0.42650697 0.3743854 0.45052484
-0.0062949453 -0.63053 0.12337102 0.30016255 -0.064237304 -0.17845728 -0.26434153 0.4074053
0.2687763 -0.49376193 0.4720371 0.48836005 -0.043182265 0.01905009 0.10302313 -0.5271435
-0.32917055 -0.7012679 -0.2978459 0.09193288 0.14273158 0.27040893 0.26202312 -0.048100904
0.3055823 0.17751192 -0.13754946 -0.55640894 0.28032228 0.3342082 0.2578803 -0.11546425
0.2037972 -0.2876309 -0.5104573 -0.5528663 -0.22222622 -0.16504058 0.19627945 -0.31202042
0.069503754 0.29918733 -0.04882449 0.22913878 0.22588223 0.05977792 -0.12592651 -0.0022593804
-0.20394675 0.021927895 0.19894072 -0.44810572 0.56538 0.3137259 -0.010924347 -0.47263625
0.108802095 0.05787546 -0.10676597 0.024691481 0.42813176 0.24308895 0.3881251 -0.15041395
00000000: 5883 ebbc 36a0 cb3e 7273 423e 86e2 92be
00000010: 96ef 50be ccae b13e 45b0 89be 0a70 57be
00000020: 115f d8be c57e 173e afbb 03bd 0d60 4fbe
00000030: b8ea c5be 5544 63be d07d 7dbc 336f dfbe
00000040: 18d9 2fbe cd5e e4be 0621 a43e 662f 3c3e
00000050: 6505 703e 8779 213b e910 c6bd d487 293e
00000060: f745 773e 220f 373e 8038 25be 4033 2f3e
00000070: 22de f3bd ab99 bbbd 9731 513e 2efc 4f3e
00000080: 6518 d43e 2761 78be 363b 903e a0f7 6f3e
00000090: 4219 c33e 1504 91bc 5c7e a6be 7d3c 883d
000000a0: fabd b73e 9ebc 25bf c855 2d3e 7bcf cc3e
000000b0: 55ce aabe 11c9 a93e 511d 7e3e c132 adbe
000000c0: e239 493e 63f5 093e 5fbf 123d 37b3 5abe
000000d0: 318a b23d 57d7 473d 6c3f d83c c7a8 be3e
000000e0: c8a7 2d3e 17d6 193e d0b5 c53e 4e80 9c3e
000000f0: 1c88 53be 5d48 c5bd f4e3 7c3e 29af 3b3e
00000100: 4d0f 9fbd a0ca 9ebe 2d24 4e3c 8ae3 f53e
00000110: 8beb 3abd c1b6 a63e daff ffbc 2823 9ebe
00000120: 9d54 38bf 247f f7be bee9 8a3e 0e58 c8be
00000130: 4393 dc3d 1f5f da3e 71af bf3e 31ab e63e
00000140: d445 cebb 6a6a 21bf f2a9 fc3d e8ae 993e
00000150: d98e 83bd 81bd 36be c657 87be 6d97 d03e
00000160: 0c9d 893e 5dce fcbe d9ae f13e 540a fa3e
00000170: e3df 30bd ef0e 9c3c cafd d23d e0f2 06bf
00000180: 0b89 a8be 4b86 33bf 427f 98be 4e47 bc3d
00000190: 3a28 123e 0a73 8a3e e527 863e 7405 45bd
000001a0: 4975 9c3e afc5 353e c4d9 0cbe d170 0ebf
000001b0: 6786 8f3e 561d ab3e e308 843e 8578 ecbd
000001c0: 37b0 503e 5b44 93be 54ad 02bf a588 0dbf
000001d0: 458f 63be 6600 29be 7bfd 483e 24c1 9fbe
000001e0: fc57 8e3d 152f 993e 30fc 47bd 5ba3 6a3e
000001f0: ac4d 673e b1d9 743d e1f2 00be 1d12 14bb
00000200: 6bd7 50be 21a2 b33c 1eb7 4b3e 1d6e e5be
00000210: bebc 103f aea0 a03e 08fc 32bc 61fd f1be
00000220: a2d3 de3d d10e 6d3d 1ea8 dabd ca45 ca3c
00000230: 1634 db3e 4fec 783e 55b8 c63e 1d06 1abe

bias f4 [16]
-0.25845176 -0.072262205 -0.04438528 0.039407846 -0.22970994 0.16208228 -0.21913531 -0.101844236
0.0762604 -0.0017219489 0.08805483 0.21593963 -0.3427549 0.08578717 0.23859812 0.1646318
00000000: ca53 84be 35fe 93bd 57cd 35bd 1f6a 213d
00000010: 1539 6bbe e6f8 253e 0265 60be b693 d0bd
00000020: 6a2e 9c3d 04b3 e1ba 1756 b43d 471f 5d3e
00000030: 927d afbe 2fb1 af3d 1153 743e 3d95 283e

weight f4 [32, 16, 3, 3]
0.075102516 0.20249845 0.027815701 -0.020092444 -0.08116317 -0.011328065 -0.24392983 -0.007380091
-0.03735562 -0.08875651 -0.14357728 -0.17264608 -0.0049306676 -0.09270128 -0.16438062 0.08575428
0.021304453 -0.06541621 0.027610382 0.035954274 -0.039427973 -0.17982616 0.0058335043 0.06909105
-0.14922085 -0.065437354 0.034801297 -0.03753508 0.079236425 0.0387099 -0.030672325 0.020308387
0.017884597 -0.05252769 -0.012744059 -0.07134053 -0.055872504 -0.020243563 0.1179443 -0.16791
-0.12634152 0.06380824 -0.14259024 -0.16836058 -0.019504953 0.083934166 0.08010002 0.077738546
-0.16451278 0.02284798 0.07645584 -0.14617367 -0.06534366 0.04453364 0.022092648 0.073598325
-0.051296923 -0.08244109 -0.015494682 0.059538007 -0.08800865 -0.004515469 -0.002559572 -0.07775154
0.11842533 0.14687172 -0.06129666 -0.10023142 0.087744184 -0.2314542 -0.089087196 0.03690738
-0.23970947 -0.1135015 -0.100198686 -0.104164146 0.07687016 -0.15683033 -0.042829543 0.14319108
0.05707865 -0.08892909 -0.060630374 0.05955032 -0.121179804 -0.19667831 0.03184945 -0.08296839
-0.1080494 0.03064421 -0.003680408 -0.043367036 -0.14850481 0.0905306 -0.09096284 -0.13729276
0.1133609 -0.10508639 -0.12550756 0.022219313 0.056344185 -0.08951754 -0.12646155 0.04081097
-0.08564462 -0.24971856 -0.02712236 0.0053694835 0.12396316 0.04120583 -0.14056519 -0.03955681
-0.06739483 -0.17205006 -0.06314102 -0.20683673 -0.12128243 -0.05861 0.07477436 0.036628164
-0.16273776 -0.012332385 0.06538514 -0.13128187 -0.14325671 0.110032536 -0.09631024 -0.026110338
0.14606978 -0.15115863 -0.009241032 0.11094298 -0.17261489 -0.04319491 0.008816764 -0.053533986
0.03534637 0.0063217105 -0.08108624 0.039044444 0.022065246 -0.07420918 -0.01621011 0.0053699217
-0.5139149 -0.24454726 0.026720958 -0.192951 0.1661887 0.13177237 0.166843 0.20979044
0.21178938 0.052634783 -0.009874066 0.21357226 -0.08748514 -0.09172939 -0.10243545 0.0037554114
0.052605677 -0.07364745 -0.037491813 -0.16976441 -0.32783353 -0.03799584 -0.0012281105 0.07828231
0.0013659296 0.059088804 -0.03158244 -0.11291581 -0.13037719 -0.32632223 -0.011758463 0.037232228
0.08039042 0.03067683 -0.082693726 0.028912233 0.019952947 -0.004646291 0.12222208 0.026812807
0.04478916 0.07581336 -0.12879424 -0.08174489 -0.03834669 0.023733616 -0.13005212 -0.54438204
-0.08854987 -0.065413885 0.14548922 0.03526439 0.008117889 0.12204573 -0.0438514 -0.28297547
-0.37751633 -0.0820956 0.04187251 0.034405667 0.06707792 0.020363487 0.047950853 -0.010624593
-0.12786412 -0.18253432 0.02365224 0.033775184 0.13986821 -0.037968066 -0.038074188 -0.12992224
-0.16242911 0.052522708 -0.16575508 0.0060080406 0.12458054 0.05803411 -0.06352091 -0.09239385
-0.07842867 -0.14539064 0.004316881 0.26542878 -0.08126926 -0.016631281 -0.073402904 -0.005394725
-0.002692068 -0.09545154 0.0961981 -0.07634654 -0.082561575 -0.031584475 0.014776004 -0.1875491
0.23647375 0.08653563 0.06438521 0.048507307 -0.32144186 -0.3652266 0.057367913 0.028683288
-0.1711871 0.08678781 0.11063152 -0.07011118 -0.071156144 -0.020448469 -0.07523122 -0.03696006
00000000: 59cf 993d c15b 4f3e c1dd e33c e998 a4bc
00000010: e038 a6bd 5999 39bc bec8 79be b1d4 f1bb
00000020: 3502 19bd f9c5 b5bd ec05 13be 22ca 30be
00000030: 7091 a1bb 2bda bdbd 6553 28be f19f af3d
00000040: ad86 ae3c eff8 85bd 2b2f e23c ca44 133d
00000050: 3a7f 21bd 5924 38be fb26 bf3b 9c7f 8d3d
00000060: 5acd 18be 0504 86bd ce8b 0e3d 62be 19bd
00000070: b546 a23d 468e 1e3d 8744 fbbc c65d a63c
00000080: b882 923c 4627 57bd 75cc 50bc fc1a 92bd
00000090: 91da 64bd d4d5 a5bc c88c f13d 99f0 2bbe
000000a0: ac5f 01be e5ad 823d 2d03 12be b766 2cbe
000000b0: dac8 9fbc ade5 ab3d 7b0b a43d 6335 9f3d
000000c0: 0a76 28be b02b bb3c e194 9c3d 8dae 15be
000000d0: e6d2 85bd e868 363d a4fb b43c b8ba 963d
000000e0: b91c 52bd e0d6 a8bd 68dd 7dbc 20de 733d
000000f0: e13d b4bd 80f6 93bb 7ebe 27bb 333c 9fbd
00000100: fb88 f23d 8a65 163e 3512 7bbd 2146 cdbd
00000110: 39b3 b33d 5402 6dbe 5973 b6bd 312c 173d
00000120: 6676 75be 7973 e8bd f834 cdbd 0354 d5bd
00000130: 1a6e 9d3d 2198 20be 086e 2fbd afa0 123e
00000140: 4dcb 693d 7420 b6bd 8e57 78bd 09eb 733d
00000150: 1e2d f8bd 0a66 49be 9274 023d 55eb a9bd
00000160: 0149 ddbd 9109 fb3c 0033 71bb a2a1 31bd
00000170: a511 18be 1b68 b93d ba4a babd 7996 0cbe
00000180: c229 e83d 8937 d7bd 0e85 00be 4705 b63c
00000190: 29c9 663d f954 b7bd 237f 01be 6729 273d
000001a0: 7266 afbd 39b6 7fbe b62f debc 7ef2 af3b
000001b0: 66e0 fd3d 72c7 283d 52f0 0fbe 5206 22bd
000001c0: 4d06 8abd e42d 30be 1450 81bd 02cd 53be
000001d0: ec62 f8bd 0a11 70bd 4d23 993d 6a07 163d
000001e0: baa4 26be c60d 4abc a5e8 853d c16e 06be
000001f0: e3b1 12be bd58 e13d 4e3e c5bd 59e5 d5bc
00000200: 5193 153e 54c9 1abe b367 17bc 1336 e33d
00000210: f5c1 30be 25ed 30bd 3074 103c 7446 5bbd
00000220: 5bc7 103d 5a26 cf3b 8b10 a6bd 11ed 1f3d
00000230: 2dc2 b43c fcfa 97bd 11cb 84bc 2bf6 af3b
00000240: ed8f 03bf 996a 7abe e9e5 da3c f294 45be
00000250: 5f2d 2a3e 56ef 063e e4d8 2a3e 4ed3 563e
00000260: 51df 583e 9297 573d d6c6 21bc b0b2 5a3e
00000270: 692b b3bd 9edc bbbd adc9 d1bd 591d 763b
00000280: 0d79 573d 79d4 96bd 0491 19bd b9d6 2dbe
00000290: ccd9 a7be 87a1 1bbd 8df8 a0ba 7a52 a03d
000002a0: fe08 b33a 1a07 723d 975c 01bd 6740 e7bd
000002b0: 9981 05be b513 a7be 92a6 40bc d280 183d
000002c0: bca3 a43d fa4d fb3c 545b a9bd 59d9 ec3c
000002d0: 5d74 a33c ea3f 98bb 924f fa3d 88a6 db3c
000002e0: d774 373d 0944 9b3d a3e2 03be dd69 a7bd
000002f0: 6b11 1dbd 006d c23c 622c 05be 9f5c 0bbf
00000300: a259 b5bd b7f7 85bd 20fb 143e 6571 103d
00000310: e500 053c 1df3 f93d 879d 33bd 29e2 90be
00000320: d249 c1be bd21 a8bd 8282 2b3d f5ec 0c3d
00000330: 2660 893d 54d1 a63c 1d68 443d c612 2ebc
00000340: d0ee 02be 47ea 3abe 58c2 c13c d957 0a3d
00000350: 9d39 0f3e 6784 1bbd aef3 1bbd 560a 05be
00000360: d153 26be 0d22 573d b3bb 29be 19df c43b
00000370: 1524 ff3d 2db5 6d3d 4017 82bd fd38 bdbd
00000380: 369f a0bd 49e1 14be 9f74 8d3b 48e6 873e
00000390: 7f70 a6bd 533e 88bc 4354 96bd 3cc6 b0bb
000003a0: 686d 30bb 197c c3bd 8203 c53d 935b 9cbd
000003b0: 0b16 a9bd b95e 01bd 0d17 723c df0c 40be
000003c0: 2d26 723e 9839 b13d 65dc 833d 99af 463d
000003d0: 0794 a4be fbfe babe 9efa 6a3d 37f9 ea3c
000003e0: ac4b 2fbe cfbd b13d c792 e23d 7396 8fbd
000003f0: 50ba 91bd 8c83 a7bc d312 9abd 6f63 17bd

bias f4 [32]
-0.184348 -0.17041695 -0.17224126 -0.0834858 -0.1900092 -0.19355258 -0.01105811 -0.09305531
-0.033244908 -0.08426445 0.023105571 -0.052281164 0.0024055138 -0.14581642 0.00014791364 -0.092176974
-0.0031321656 0.018832967 -0.05964184 -0.009588688 0.011744771 0.048636362 -0.20059316 -0.11787512
0.115777925 -0.10402791 -0.05936124 0.010061249 -0.045223292 -0.0923309 -0.01869181 -0.018300438
00000000: b9c5 3cbe c881 2ebe 0360 30be 9afa aabd
00000010: c691 42be a632 46be 132d 35bc c893 bebd
00000020: d02b 08bd d792 acbd e547 bd3c c624 56bd
00000030: d3a5 1d3b e650 15be 4419 1b39 48c7 bcbd
00000040: 0545 4dbb 9847 9a3c 014b 74bd df19 1dbc
00000050: 246d 403c ec36 473d 4b68 4dbe 8368 f1bd
00000060: fa1c ed3d 960c d5bd c624 73bd f0d7 243c
00000070: 0f3c 39bd fc17 bdbd 911f 99bc cdea 95bc

weight f4 [32, 1568]
-0.0041177254 -0.029575368 0.057652872 -0.019168139 -0.022292959 -0.0035404204 -0.012659445 -0.04004201
0.034418095 0.028994933 -0.12958436 -0.15302715 -0.091538176 0.008974102 0.01369688 0.077381656
0.019149875 0.057290543 0.07396021 -0.015297933 0.05079861 0.027063025 0.031573616 -0.038681865
0.066308774 0.08138333 0.087124124 0.119283184 -0.06261191 -0.0098257605 -0.14939722 -0.0036254004
0.0380882 -0.05261825 -0.046160303 -0.096565306 -0.02260186 -0.04483526 -0.004551186 -0.056394037
-0.0834282 -0.019408002 -0.038823888 -0.01881534 0.0050792177 0.018163364 -0.038808104 0.032396697
0.12420967 -0.02305816 0.013681905 -0.0071336445 -0.11937754 -0.14874232 0.033565015 0.0324536
-0.03918653 -0.0052207476 0.0126692 0.003559533 0.03772967 0.031501565 0.040312663 0.046322994
-0.037164718 0.027507262 0.0700827 0.10732142 0.063730516 0.082060635 -0.061665233 -0.078226775
0.0031475383 -0.027294923 -0.075334385 -0.11690639 -0.14417745 -0.15723611 -0.040780205 -0.00751437
-0.03644773 -0.017246673 -0.15700762 -0.1412148 -0.068635434 0.011220852 0.06551998 0.020646017
-0.03624563 -0.11661771 -0.017049238 -0.0751716 -0.120600596 -0.21222012 0.015576221 0.08890841
0.054192208 -0.07555674 0.045855816 -0.005518499 -0.14523347 -0.032395113 0.065251015 0.029559845
0.10641362 0.03859041 -0.07987251 -0.17983915 -0.16824694 -0.11552047 0.0088224895 0.044109605
-0.01797884 -0.035452414 0.026599655 -0.028501602 -0.08134298 -0.07876174 0.037554037 0.0050056707
0.060194347 0.11750621 0.04954385 0.0054150852 -0.043672178 -0.023691999 -0.010569886 0.117750384
0.10475112 0.05955913 0.0386079 0.08981547 0.110041626 -0.008334563 0.23675981 0.097482145
0.042649563 -0.037239254 0.035755478 0.14536373 -0.00745538 0.20119067 0.10880747 0.0084629385
0.048136327 0.07955645 0.15204291 0.06611196 -0.039114222 -0.009955954 0.0026716325 -0.043682534
-0.12320227 0.06299261 0.05574311 0.013001206 0.0029800413 -0.010590987 0.02177922 -0.01977295
0.010048001 0.12220033 0.05083318 -0.058207482 0.020472601 0.033310376 -0.051375885 0.03451714
-0.098716624 0.06711143 0.06316654 -0.028926885 0.0034247234 -0.06330384 0.06144496 -0.1615188
0.07367056 0.16530202 0.020408439 -0.030686239 -0.084182575 -0.07780202 0.01759786 -0.04584539
0.10638808 0.06520411 -0.053214 -0.08775505 -0.058841087 -0.044474803 0.01228255 0.08444022
0.08562928 0.065227315 0.0756358 0.070989184 -0.073682815 -0.08604141 -0.023549633 -0.017730912
0.013955565 -0.030386014 -0.05677941 0.06688824 -0.027144961 -0.1290074 -0.073362485 -0.017583376
0.08996002 0.049566764 -0.022950055 -0.09012042 -0.049018126 0.03515135 0.040262148 -0.02575687
0.022167139 -0.031621613 -0.061057545 -0.075663075 0.006639894 -0.16881348 -0.17668112 -0.16980323
-0.045666795 -0.018764969 0.011535209 0.08403006 -0.037039883 -0.04286864 -0.1900441 -0.047735192
0.01791096 0.048262123 0.06150741 0.017706847 -0.04285739 -0.0148301665 -0.0014021465 0.015785057
0.039547537 -0.05706337 -0.0044758692 0.070574835 0.050331853 0.11567343 0.028327629 -0.044164017
0.048083328 0.02620263 0.08241381 0.09993312 -0.031645082 0.03177562 -0.10978656 -0.047578122
00000000: fced 86bb 0b48 f2bc 6b25 6c3d 8006 9dbc
00000010: b99f b6bc 6606 68bb 9069 4fbc 1703 24bd
00000020: fdf9 0c3d c886 ed3c c3b1 04be 26b3 1cbe
00000030: 5e78 bbbd 1d08 133c e168 603c 467a 9e3d
00000040: 33e0 9c3c 7da9 6a3d 7378 973d 2ea4 7abc
00000050: 3412 503d 47b3 dd3c 5653 013d e070 1ebd
00000060: e5cc 873d 4eac a63d 226e b23d be4a f43d
00000070: ac3a 80bd 3afc 20bc 96fb 18be 2098 6dbb
00000080: 5f02 1c3d 3c86 57bd 9612 3dbd 08c4 c5bd
00000090: 8927 b9bc 2da5 37bd 1e22 95bb 6ffd 66bd
000000a0: 67dc aabd 88fd 9ebc cc05 1fbd a122 9abc
000000b0: 916f a63b 56cb 943c 3ff5 1ebd 66b2 043d
000000c0: a461 fe3d 77e4 bcbc 122a 603c 59c1 e9bb
000000d0: 367c f4bd e84f 18be 787b 093d 11ee 043d
000000e0: 0e82 20bd ce12 abbb 7a92 4f3c 0e47 693b
000000f0: 6d8a 1a3d c907 013d e41e 253d 2ebd 3d3d
00000100: 083a 18bd e956 e13c 8587 8f3d 55cb db3d
00000110: 2585 823d 680f a83d af94 7cbd 5c35 a0bd
00000120: ee46 4e3b 9a99 dfbc ea48 9abd 9e6c efbd
00000130: 41a3 13be 8102 21be 2509 27bd 1b3b f6bb
00000140: 374a 15bd e548 8dbc 9bc6 20be 9d9a 10be
00000150: bc90 8cbd aad7 373c 572f 863d d621 a93c
00000160: 4c76 14bd 44d5 eebd d8aa 8bbc 91f3 99bd
00000170: 72fd f6bd 3b50 59be 6833 7f3c 9d15 b63d
00000180: a6f8 5d3d 7ebd 9abd 4fd3 3b3d 86d4 b4bb
00000190: 15b8 14be bdb0 04bd 53a2 853d 7d27 f23c
000001a0: 62ef d93d fa10 1e3d 3394 a3bd c127 38be
000001b0: ed48 2cbe ff95 ecbd 348c 103c 46ac 343d
000001c0: 5c48 93bc 8d36 11bd 85e7 d93c 317c e9bc
000001d0: 2697 a6bd d64d a1bd 43d2 193d 9c06 a43b
000001e0: 598e 763d 19a7 f03d 7eee 4a3d 0771 b13b
000001f0: 99e1 32bd b915 c2bc 512d 2dbc 1d27 f13d
00000200: c187 d63d 46f4 733d 5123 1e3d 2cf1 b73d
00000210: 815d e13d b18d 08bc 2a71 723e b8a4 c73d
00000220: 4fb1 2e3d 3088 18bd 5674 123d 3bda 143e
00000230: 434c f4bb ed04 4e3e 73d6 de3d 23a8 0a3c
00000240: 992a 453d 7eee a23d 23b1 1b3e b565 873d
00000250: 3c36 20bd 4c1e 23bc 8e16 2f3b 75ec 32bd
00000260: 7951 fcbd 4502 813d e352 643d 0303 553c
00000270: cc4c 433b d285 2dbc 566a b23c e2fa a1bc
00000280: 5fa0 243c 2b44 fa3d 7436 503d f86a 6ebd
00000290: 28b6 a73c 7670 083d 856f 52bd d861 0d3d
000002a0: f12b cabd b871 893d 755d 813d 13f8 ecbc
000002b0: 5371 603b 72a5 81bd b6ad 7b3d 2f65 25be
000002c0: 97e0 963d ef44 293e 992f a73c b561 fbbc
000002d0: ea67 acbd aa56 9fbd 6329 903c 60c8 3bbd
000002e0: fee1 d93d bc89 853d ecf6 59bd ebb8 b3bd
000002f0: 5a03 71bd 362b 36bd c03c 493c feee ac3d
00000300: 675e af3d e695 853d f1e6 9a3d c762 913d
00000310: 04e7 96bd 7b36 b0bd 29eb c0bc 6b40 91bc
00000320: e2a5 643c 17ec f8bc 8791 68bd b4fc 883d
00000330: 1c5f debc 841a 04be 123f 96bd 030b 90bc
00000340: f53c b83d 8506 4b3d c101 bcbc 0e91 b8bd
00000350: 3bc7 48bd ddfa 0f3d ece9 243d 1200 d3bc
00000360: dc97 b53c aa85 01bd 7a17 7abd 3ef5 9abd
00000370: 7893 d93b 71dd 2cbe e5eb 34be e6e0 2dbe
00000380: 1b0d 3bbd feb8 99bc 2cfe 3c3c f417 ac3d
00000390: 22b7 17bd 0797 2fbd ec9a 42be fa85 43bd
000003a0: 01ba 923c 81ae 453d 32ef 7b3d f30d 913c
000003b0: 3b8b 2fbd 3afa 72bc 3bc8 b7ba aa4f 813c
000003c0: 99fc 213d 48bb 69bd 50aa 92bb 8a89 903d
000003d0: c628 4e3d 31e6 ec3d 580f e83c 54e5 34bd
000003e0: 06f3 443d e6a6 d63c 92c8 a83d bca9 cc3d
000003f0: 469e 01bd 2727 023d c7d7 e0bd 47e1 42bd

bias f4 [32]
0.027136851 -0.014323797 -0.04986857 0.08665018 0.012563785 -0.030114597 0.10533536 0.06954645
0.016976299 0.05384475 0.05625947 0.079168476 -0.030486505 0.08592812 0.026125183 0.044947933
0.05035937 0.05451954 -0.030430691 0.00036583617 0.090037435 0.047237385 0.07568034 0.06917671
0.091433026 0.12806992 0.07903037 0.13375798 0.0009652044 -0.035710316 0.069652274 0.0590414
00000000: 1a4e de3c 5cae 6abc fc42 4cbd a675 b13d
00000010: 55d8 4d3c e3b2 f6bc 11ba d73d 5f6e 8e3d
00000020: e111 8b3c 508c 5c3d 5470 663d 1523 a23d
00000030: d6be f9bc 15fb af3d 7b04 d63c 531b 383d
00000040: a045 4e3d e24f 5f3d c949 f9bc b3cd bf39
00000050: 8c65 b83d fd7b 413d 4bfe 9a3d 85ac 8d3d
00000060: 3d41 bb3d c324 033e adda a13d daf7 083e
00000070: c505 7d3a fb44 12bd daa5 8e3d 65d5 713d

weight f4 [10, 32]
0.12587778 -0.030191256 -0.32426855 0.099354886 0.039070938 0.066439666 0.20505354 0.08088553
-0.27094278 -0.40681824 -0.24632338 -0.12687264 0.043515276 -0.29534543 -0.24380815 0.098939344
-0.24780706 0.23237911 -0.08595139 -0.07734588 0.17326537 0.015383736 -0.3964128 -0.29719222
0.124007024 -0.23316772 -0.09171026 0.18680193 0.13936311 0.01835057 -0.20222037 -0.2187239
-0.2691064 -0.07218515 -0.1057871 -0.06612789 0.07451863 -0.014883472 0.16370836 -0.194317
-0.27635464 0.02200465 0.16081184 -0.2382289 0.07551301 0.091764435 -0.32838872 -0.27849528
-0.117222354 -0.1597993 0.12545145 0.03804046 0.1542501 -0.28791407 0.1500403 0.1876511
-0.20988944 0.090601414 0.1222055 0.15922183 -0.1769121 -0.11397847 0.08206653 -0.097206876
-0.13084784 0.16347033 0.05143223 0.120779775 0.11644995 0.1074989 -0.048909754 -0.22021408
-0.18558393 0.011444224 0.05135814 -0.20230433 -0.039174434 -0.24125892 -0.17507689 -0.30249727
0.07494695 0.2388319 0.050553124 -0.08325618 0.14914493 -0.2828865 -0.08603818 -0.20247282
0.13405138 0.108582936 0.14192757 -0.21585652 0.09380593 -0.10256545 0.10419683 0.12454711
0.0032918092 -0.17690848 0.1509559 0.097905666 -0.10361811 -0.0791735 0.1732786 -0.35009766
-0.16898541 0.013596588 0.17850071 -0.11602469 -0.12144063 0.097272836 0.19036391 -0.06261695
0.12311855 -0.048746675 -0.036959976 0.05198882 -0.25906035 -0.07409003 -0.18947306 -0.03359236
-0.03698843 -0.06819869 -0.3587086 -0.35935396 -0.1867497 -0.0047077863 0.095272735 0.14400375
-0.19589902 0.09576461 0.14758599 -0.29008457 0.07515225 -0.085209325 -0.34655637 0.11228803
0.09863499 0.053365685 -0.22770734 -0.08651124 0.14351152 0.13262945 -0.41833028 -0.16321342
-0.29157802 -0.009666912 0.16542211 0.081954315 -0.0023410167 -0.10707157 0.15380797 -0.16673227
-0.11604952 -0.17345622 0.16617832 -0.109856896 0.13020326 0.046124604 -0.24677603 -0.26262504
0.16808252 -0.13686402 0.15083785 -0.10576211 0.0018831166 0.0012134416 -0.013626215 -0.11292312
0.002972739 -0.282514 -0.0777969 -0.18844207 0.020870721 -0.12343262 0.20686051 0.120584026
0.11933876 -0.15476106 0.046221606 0.032710996 -0.16883898 0.19696002 -0.1660085 0.21360637
-0.273727 -0.20542172 -0.048888214 -0.018768698 -0.2249458 0.09606026 -0.11562056 -0.10539374
-0.16704205 -0.0696048 -0.18918018 -0.3320426 0.012980464 -0.012131364 -0.21764183 0.13228676
-0.38415915 -0.36035463 -0.36367828 -0.5144499 -0.07525123 -0.26380527 -0.039695423 0.13281068
0.1077216 -0.12036904 -0.07020862 -0.06273176 0.18154566 0.16221797 -0.20489955 -0.016577931
-0.27584994 -0.43224785 0.19042857 0.2148473 -0.16150978 0.032233443 0.10698145 -0.55106735
0.13059098 0.07710577 -0.13374504 0.09643451 0.010610582 -0.13740341 -0.25131798 0.04079184
0.06405405 0.05116758 0.15516493 0.040232807 -0.1486485 -0.13082103 -0.118935995 -0.31210974
-0.20574728 -0.09667758 -0.10309142 -0.07638894 -0.2048674 -0.25088507 0.13372795 -0.031390067
0.14849566 0.09192166 -0.12984948 -0.35944366 -0.20293017 -0.02394237 -0.09821716 0.13324235
00000000: 1be6 003e a753 f7bc 8706 a6be 937a cb3d
00000010: d908 203d 8511 883d 8ef9 513e 50a7 a53d
00000020: 03b9 8abe 7b4a d0be 323c 7cbe e7ea 01be
00000030: 133d 323d 8437 97be d8a8 79be b6a0 ca3d
00000040: 22c1 7dbe caf4 6d3e 4807 b0bd 8467 9ebd
00000050: 7a6c 313e 110c 7c3c 9ef6 cabe 9429 98be
00000060: 65f7 fd3d 85c3 6ebe 97d2 bbbd 0149 3f3e
00000070: 34b5 0e3e ef53 963c db12 4fbe 28f9 5fbe
00000080: 50c8 89be cfd5 93bd e8a6 d8bd 0f6e 87bd
00000090: 399d 983d ced9 73bc 2aa3 273e 09fb 46be
000000a0: 5b7e 8dbe 1943 b43c dcab 243e 47f2 73be
000000b0: 91a6 9a3d feee bb3d 9122 a8be ef96 8ebe
000000c0: 4612 f0bd 6da2 23be 5876 003e 50d0 1b3d
000000d0: bdf3 1d3e 7969 93be 2aa4 193e 9c27 403e
000000e0: 42ed 56be 3c8d b93d e146 fa3d 0c0b 233e
000000f0: 7228 35be 8b6d e9bd 7f12 a83d 6614 c7bd
00000100: fafc 05be c464 273e 9aaa 523d 635b f73d
00000110: 507d ee3d 6228 dc3d 9855 48bd cd7f 61be
00000120: b709 3ebe 8e80 3b3c ea5c 523d de28 4fbe
00000130: 5f75 20bd 940c 77be 5b47 33be ece0 9abe
00000140: c97d 993d 5990 743e cb10 4f3d 3782 aabd
00000150: 73b9 183e 80d6 90be c934 b0bd 0955 4fbe
00000160: c444 093e bb60 de3d 7655 113e 7e09 5dbe
00000170: 531d c03d d60d d2bd 2665 d53d 8e12 ff3d
00000180: 65bb 573b 7f27 35be 2f94 1a3e c482 c83d
00000190: bb35 d4bd b725 a2bd f26f 313e 0040 b3be
000001a0: 830a 2dbe 39c4 5e3c e4c8 363e 5a9e edbd
000001b0: ddb5 f8bd fb36 c73d c2ee 423e 513d 80bd
000001c0: 9425 fc3d 98aa 47bd 5863 17bd 3bf2 543d
000001d0: 8fa3 84be 83bc 97bd 3a05 42be 2498 09bd
000001e0: 2e81 17bd c1ab 8bbd a7a8 b7be 3efd b7be
000001f0: 503b 3fbe c643 9abb 5a1e c33d b875 133e
00000200: c199 48be 3c20 c43d c820 173e f785 94be
00000210: 6ce9 993d 3a82 aebd d66f b1be 44f7 e53d
00000220: 2401 ca3d fa95 5a3d 1d2c 69be ce2c b1bd
00000230: aff4 123e 04d0 073e 632f d6be 6b21 27be
00000240: b749 95be f861 1ebc 6a64 293e aad7 a73d
00000250: be6b 19bb 5748 dbbd d67f 1d3e ddbb 2abe
00000260: 5fab edbd 829e 31be a62a 2a3e a7fc e0bd
00000270: 0154 053e 27ed 3c3d dbb2 7cbe ca76 86be
00000280: d31d 2c3e 1526 0cbe 3d75 1a3e ce99 d8bd
00000290: e8d2 f63a 580c 9f3a 7d40 5fbc 3d44 e7bd
000002a0: 49d2 423b ada5 90be fb53 9fbd f5f6 40be
000002b0: 13f9 aa3c 3eca fcbd 3ed3 533e c2f4 f63d
000002c0: e167 f43d af79 1ebe de52 3d3d f7fb 053d
000002d0: 20e4 2cbe e3af 493e 22fe 29be a1bb 5a3e
000002e0: f225 8cbe 125a 52be 023f 48bd d0c0 99bc
000002f0: 3158 66be 3ebb c43d 79ca ecbd acd8 d7bd
00000300: 120d 2bbe f68c 8ebd 73b8 41be 7d01 aabe
00000310: 03ac 543c a1c2 46bc 80dd 5ebe 2e76 073e
00000320: 82b0 c4be 6780 b8be 0a34 babe fdb2 03bf
00000330: 511d 9abd 7c11 87be ab97 22bd 86ff 073e
00000340: 249d dc3d 0b84 f6bd 89c9 8fbd 8279 80bd
00000350: 1be7 393e 781c 263e 30d1 51be 71ce 87bc
00000360: 343c 8dbe 974f ddbe b5ff 423e ee00 5c3e
00000370: d262 25be 3707 043d 1719 db3d c012 0dbf
00000380: a4b9 053e a1e9 9d3d 76f4 08be 757f c53d
00000390: 02d8 2d3c 7bb3 0cbe c0ac 80be 5815 273d
000003a0: c52e 833d 1995 513d 8ee3 1e3e 28cb 243d
000003b0: 5037 18be f3f5 05be b794 f3bd d9cc 9fbe
000003c0: 6aaf 52be e5fe c5bd 9821 d3bd ce71 9cbd
000003d0: c2c8 51be 0274 80be fbef 083e df92 00bd
000003e0: 3f0f 183e 6c41 bc3d 43f7 04be 0009 b8be
000003f0: edcc 4fbe ca22 c4bc 1426 c9bd af70 083e

bias f4 [10]
0.09396917 0.07673738 -0.41609216 -0.22635232 0.23056588 0.21514869 0.32495862 -0.12620327
-0.39154434 0.6195952
00000000: e872 c03d 7d28 9d3d 080a d5be e7c8 67be
00000010: 7619 6c3e f04f 5c3e fa60 a63e 6e3b 01be
00000020: 8078 c8be cb9d 1e3f
