net/np/k_cn2.weight.npy (npy, 13952 bytes, 1 tensors)

array f4 [3, 3, 16, 24]
00000000: d3b6 06be 2c85 8b3e 8c69 823e 170b 8e3d
00000010: 3086 c73e 85ef b53e 4db9 9dbe 87a8 55b8
00000020: 66fc 88be bb98 0bbf 81ec b8bd 59e5 85bc
00000030: 21d1 e6be 3daa 6dbd ad01 0bbe 6187 873d
00000040: c712 423e 5851 95bc ed57 f8be f058 8f3d
00000050: e2fc 53bd 7d38 71be 5286 55be 915a cebe
00000060: fd31 25be 1ba2 83be fcf0 11be 13d3 f03d
00000070: cb31 03be c091 6c3d a0b7 d63d 215a 803c
00000080: b0c5 b3bd 6d7f 64bd 2b8f 0f3e ad27 2a3b
00000090: 505f fbbb 6156 0b3e 12d8 ac3d aa5e 5ebd
000000a0: c0f6 da3b dca0 26be 00e7 463d b3b1 053d
000000b0: f009 65bd 26fa a1bd fb3c 69ba dce3 23bd
000000c0: b859 0dbe 1062 0abe 5c03 00be 998b 223d
000000d0: 4601 003e b4e2 3e3d 0a43 3abb de38 433c
000000e0: 9521 acbd 886b b33d 5009 043e 5ffa dd3c
000000f0: 9440 bbbd 69d2 133c d918 6dbc 9022 fc3c
00000100: 2e84 45bd a460 54be 111b 13bd 4883 b4bd
00000110: 0e36 41be bda8 3ebe 8e23 4d3d 3489 43be
00000120: 0f94 a5be 8d14 6fbe e5b3 8c3e 95f6 a33a
00000130: de0f d7bb ac63 36bd fae9 aa3d a6cd 523c
00000140: f7bc 8abd 5f59 543c bfc9 443d 0977 eabd
00000150: c799 e63d 9613 30be 1765 1c3e 31c7 3fbe
00000160: 95ae a4bc 3866 83be 75e3 acbd 5ba4 51bd
00000170: ac37 993e 8a4a 1fbd bd16 debd f06d dfbe
00000180: d22a 91be 0258 9c3e 4bcf b13e 3e22 a8bd
00000190: d0b0 af3e 29a3 a73e fe93 e8be 3d4f c53b
000001a0: 25e2 85be 21f1 83be 0d37 5fbe 4917 02bd
000001b0: 9ec6 ebbe affa 713d 3b51 44be b0da e8bd
000001c0: c287 29bd a4a7 673c b345 b4be b5be 23bd
000001d0: 53b6 513e 61e2 46bd 8e46 c5bd 9ac2 1cbf
000001e0: d9a8 97be 5475 77be 1324 533c 82f0 873c
000001f0: 5df2 ee3a 1dd3 9abd 672d d33d 5e6d e93d
00000200: 9620 cd3c b4f0 bd3d 5c44 3d3e 6f74 22bd
00000210: 09cf b73d 9d9f 0dbe 8e54 8c3d 9b4a d4bd
00000220: dbae 93bd 1018 5ebe 1b46 17bb 5ebf d0bd
00000230: 23d6 fcbd 38df 5abe c5eb 17be 6e8e dcbd
00000240: 34e9 a4be fc77 8bbe 7790 883d a215 313e
00000250: 589d 593e 98a8 8f3d 92f8 c23d 4a34 113e
00000260: 0bcb 85bc 0879 943d 1e4d 5bbd 2215 cbbc
00000270: 005e 573d c152 87bd 7c2e 29bd 0a9e 923d
00000280: 1333 4abc 233c cdbc 023e 33be bdc9 4ebc
00000290: 99b1 b8bc 5a45 47be 5532 4bbe d5a8 5abe
000002a0: c139 59bc 87dd aebe b176 5f3e cb8a 3cbc
000002b0: 5b70 83be 0584 ae3d 6706 913d 0e1d da3e
000002c0: 9cb9 d3ba 463e af3d 1a76 2e3e a996 40bd
000002d0: 5485 ebbd 0b81 4f3e d87c 723e 3c56 973d
000002e0: 750f 1c3e e128 48be d5dd 09bf 9aad 98be
000002f0: 06f3 043d 53f4 5a3d 60c6 a2bd 2730 88be
00000300: c7e9 8c3e e605 1ebe 469a 173e d48f dc3c
00000310: 9956 86bd 05c6 e63d b6c2 33be d631 2d3e
00000320: 76dd a93d 1c38 e4bc f977 313e 0f9e 60be
00000330: 2999 aabe c236 d83e 7593 cf3c 52c1 703d
00000340: 12be 163c 1cf0 a5bd 2137 f13d df8a 7cbe
00000350: f4aa 87be 3244 9cbd c5b3 3dbe 2ed0 9dbe
00000360: 7263 40be 57c1 44bd ff3a 3c3e 280b 503e
00000370: 1575 2c3e 8477 233e 7ba5 e23c 704f 9f3d
00000380: 0b68 3dbe 9eca eabd a0e6 743d 4430 bfba
00000390: 0d95 e9bd c09c 91bd e397 0f3e 8d6b 21bd
000003a0: 07c8 7c3e 6542 8ebd 5c67 6dbe 6274 c3bc
000003b0: cc8e 78be cbf1 15be 78af 81be bafc 9bbe
000003c0: 020c a9be 8046 16bf 3651 c43d 9870 d5bd
000003d0: 32eb f1bd 8adf 94bd 9622 cd3a f9d9 ce3d
000003e0: 5059 1a3e eec8 a1bd 6f84 053e 2d6b 2dbe
000003f0: 82fa eb3d d9e7 a2bd 0187 e83d 8fd2 ffbd
-0.1315568 0.2725004 0.2547115 0.06935709 0.38969564 0.355343 -0.30805436 -5.094011e-05
-0.26755065 -0.54529923 -0.090294845 -0.016344713 -0.45081428 -0.05802368 -0.13574858 0.06617618
0.18952475 -0.018227264 -0.48504582 0.06999385 -0.05175484 -0.23556705 -0.2085202 -0.40303472
-0.1613235 -0.25709614 -0.14252084 0.11759009 -0.12811963 0.057756186 0.104842424 0.015667977
-0.0877794 -0.055785585 0.14019458 0.002596359 -0.0076712742 0.1360717 0.0843965 -0.054289497
0.006682247 -0.162723 0.048560143 0.03264017 -0.05591768 -0.0790904 -0.00088973314 -0.040012226
-0.13803756 -0.1351397 -0.12501281 0.039683912 0.12500486 0.04660292 -0.0028421306 0.011915414
-0.08404843 0.08760744 0.12894177 0.027096925 -0.09143177 0.009022334 -0.014471256 0.0307782
-0.04822176 -0.2073999 -0.035914484 -0.088141024 -0.18868276 -0.18619056 0.050082736 -0.19095308
-0.32339522 -0.23347683 0.27481 0.00125094 -0.006563171 -0.04452865 0.08345409 0.012866413
-0.067743234 0.012960761 0.048043963 -0.114484854 0.112597995 -0.17194971 0.15272938 -0.18728329
-0.020102778 -0.25663924 -0.084418215 -0.051182132 0.29925287 -0.038889445 -0.10844181 -0.43638563
-0.28352982 0.30535895 0.34728464 -0.08209656 0.34314585 0.3274167 -0.4542541 0.006021409
-0.26149097 -0.25769904 -0.21798344 -0.031760488 -0.4604997 0.05907696 -0.19171612 -0.11369836
-0.041389234 0.01413909 -0.35209426 -0.039976794 0.20479707 -0.048555735 -0.09632598 -0.6123444
-0.29621008 -0.24165851 0.012887019 0.016594175 0.0018230189 -0.07559798 0.10311394 0.11397813
0.025039952 0.09274426 0.18483108 -0.03966182 0.08975036 -0.13830419 0.06852065 -0.10365792
-0.072110854 -0.21688867 -0.0023082558 -0.101927504 -0.12345531 -0.21374214 -0.14836033 -0.10769354
-0.3220917 -0.27239978 0.066681795 0.17293409 0.21251428 0.070145786 0.09520067 0.14180103
-0.01633217 0.072496474 -0.05354034 -0.02479035 0.05257988 -0.06607581 -0.041304097 0.0715905
-0.012341279 -0.02505309 -0.17504123 -0.01262134 -0.022545623 -0.1946005 -0.19843419 -0.21353467
-0.0132583985 -0.34153387 0.21822621 -0.0115077 -0.25671658 0.085212745 0.07081299 0.42600292
-0.0016153338 0.085567996 0.1703724 -0.04701868 -0.1150004 0.2026407 0.23680437 0.07389495
0.15240271 -0.19546844 -0.53854114 -0.29819947 0.032458328 0.053455662 -0.07947993 -0.26599237
0.27522108 -0.15431938 0.14804944 0.026924051 -0.06559486 0.11268238 -0.17554745 0.16913542
0.082941934 -0.027858786 0.17330922 -0.21935295 -0.33319977 0.42229277 0.025338868 0.058778115
0.00920059 -0.08102438 0.11778093 -0.2466235 -0.26497614 -0.07630195 -0.18525608 -0.3082289
-0.18787935 -0.048035946 0.1838188 0.20316756 0.16841538 0.1596356 0.027666798 0.077788234
-0.1849672 -0.114644274 0.059790254 -0.0014586528 -0.11405382 -0.07109976 0.14022784 -0.03940921
0.2468568 -0.069462575 -0.2318396 -0.023859207 -0.24273223 -0.14643018 -0.25329185 -0.30466253
-0.33016974 -0.58701324 0.09585802 -0.10421866 -0.11812438 -0.07269199 0.0015650566 0.10100169
0.15073133 -0.078996524 0.130388 -0.16935416 0.1152239 -0.07954378 0.11353875 -0.12491333
