net/np/k_cn2.weight.npy (npy, 18560 bytes, 1 tensors)

array f4 [3, 3, 16, 32]
000000 ce 27 06 bd a8 9b 99 be 4c 2a 84 bc 2f 41 1b 3e
       -0.032752804 -0.3000157 -0.01613345 0.15161584
000010 ad 04 8e bd 7d 74 7c be 27 14 c1 3d a4 9a 8e bd
       -0.069344856 -0.24653812 0.09427672 -0.06963089
000020 fc 53 6b bd e0 7d 9a 3d 63 ed 8d be 30 0c 3a bd
       -0.05745314 0.0754354 -0.27720174 -0.04542178
000030 eb 65 01 3d da 69 ca be c4 21 42 3d dd fb 78 bd
       0.031591337 -0.39533883 0.047395483 -0.06078707
000040 a6 79 26 3d c3 b6 aa 3d c5 ce af 3d ce bb 4f bc
       0.040643357 0.0833564 0.0858436 -0.0126790535
000050 85 79 ab be f6 5d ac bd 3c 3e 3e be 9b 89 04 bf
       -0.3349115 -0.08416359 -0.18578428 -0.5177247
000060 62 99 f4 3d 57 36 91 bb 71 37 6e be 92 af 2d bd
       0.11943318 -0.0044315266 -0.23263337 -0.042403765
000070 f3 c2 2e 3e 3a a9 4e be 9b d8 45 3d 83 29 ce 3d
       0.17066555 -0.20181742 0.048302274 0.100665115
000080 4e 19 cd 3d a0 f3 0f be bc a2 aa 3d 19 4f 5d 3d
       0.10014592 -0.1405778 0.0833182 0.05403051
000090 bc 4c 8a bd 95 b0 4d bf e8 d8 68 be 6f d9 4f be
       -0.06752917 -0.8034757 -0.22738993 -0.20297788
0000a0 be 68 b5 3d 90 d1 2b 3e 89 37 bd 3d 48 af 09 be
       0.088578686 0.1677916 0.09239108 -0.1344577
0000b0 58 a0 bc bd d8 8f 49 be 3a 48 69 be 0a c5 ca bd
       -0.09210271 -0.19683778 -0.22781458 -0.099008635
0000c0 1d 7b c0 3c d5 4c fe 3d 19 13 8f be ea d5 42 be
       0.023496205 0.12416998 -0.27944258 -0.19026914
0000d0 89 f5 ef be 92 f1 1d be 61 e1 cc bd db cd 02 bf
       -0.46867016 -0.15424183 -0.10003925 -0.5109536
0000e0 90 59 fe 3c b5 ec c3 3c b4 70 08 bf f3 18 55 ba
       0.031048566 0.023916582 -0.5329697 -0.0008129023
0000f0 f2 4f f1 3e 76 ad 31 be 0c 8b 73 be 9b c9 c8 3d
       0.47131306 -0.17351326 -0.23783511 0.09804078
000100 24 55 7d be 76 19 5a 3e fa b7 e4 3c 50 bd a3 3e
       -0.2473951 0.21298775 0.027919758 0.3198037
000110 74 bd 8f be 35 f2 3c bd c4 a9 ff 3d ba 21 d5 bd
       -0.2807423 -0.046129424 0.12483552 -0.104068235
000120 88 50 25 be bc 59 c5 bd 29 84 99 be ca f0 0b be
       -0.16144001 -0.09636256 -0.29983643 -0.13666072
000130 ce 52 10 3d 1d b3 e1 bd 20 7a 3a be ae 77 82 be
       0.03523522 -0.11020491 -0.1821065 -0.25481933
000140 8d b4 80 be 56 2c ac bd 7e 06 5f b8 c8 a1 8f be
       -0.2513775 -0.08406894 -5.317339e-05 -0.28053117
000150 ed 86 5f be df 82 78 3c b9 83 04 3d 6d 47 39 3e
       -0.21828814 0.015167921 0.032352183 0.18093653
000160 c9 3a df 3d 4b 4d 9e 3e a3 0d 12 3e fc 45 6c bc
       0.10899884 0.30918345 0.14263014 -0.014420982
000170 7b 9f 80 be 7d c5 4d be 2c 9f 48 3d f1 99 b0 3d
       -0.25121674 -0.20094867 0.048979923 0.08623112
000180 af 09 67 3c 62 09 27 bd 72 ba 4b 3b 06 5b a4 bd
       0.01410143 -0.040780433 0.0031086472 -0.08025174
000190 67 fa f5 ba ee 4f 52 3d ba c5 60 3e 8f 29 87 bc
       -0.0018766642 0.05134576 0.21950427 -0.016499309
0001a0 75 6d 16 3e 32 12 df 3d 82 8b 46 bd a5 3a 46 bd
       0.14690192 0.10892142 -0.04847289 -0.04839577
0001b0 60 77 fc 3d e5 c0 81 be 81 fa e2 3d 42 f8 0d bd
       0.123274565 -0.2534248 0.11082936 -0.034660585
0001c0 db da 13 3d 6e d3 30 bd af 30 cf bd 77 7b cc 3d
       0.03609739 -0.043170385 -0.101167075 0.099844866
0001d0 fc ca 5d 3d 20 b6 b5 3d 44 3a cb 3d 92 90 26 be
       0.05414866 0.08872628 0.09923223 -0.16266087
0001e0 f4 c9 03 3d c7 cb 8f bc 03 54 a5 3d 52 61 49 bb
       0.03217502 -0.017553223 0.080726646 -0.0030728173
0001f0 d5 84 1f be 18 9c ac bd 90 13 38 bd 03 b9 a3 3d
       -0.15578015 -0.0842821 -0.04494053 0.079942726
000200 15 ef 56 3d a7 38 9c be 7b 86 23 be 8e 6a 14 bc
       0.0524741 -0.30511972 -0.15969269 -0.009058608
000210 6e c0 91 3e c7 98 84 be 8e 0a f2 3d bc 46 f1 3d
       0.28467125 -0.2589781 0.118184194 0.1178107
000220 c1 28 2e 3d dd 1b ab bd 91 46 75 3c e1 50 f3 3d
       0.042519335 -0.08354924 0.014970438 0.11880661
000230 29 4d 1a be e3 4b b6 be 06 a2 e9 3a 85 3a 57 bd
       -0.15068497 -0.35604772 0.0017824776 -0.052546043
000240 d4 8d 38 3e 73 73 0d bd 7a 5e 2b 3d 0c 97 d6 bd
       0.18022853 -0.03453393 0.041838147 -0.10478029
000250 9b 68 67 be ee 5f c0 bd 7e 22 e3 3b 77 1a cc be
       -0.22598498 -0.09393297 0.006931602 -0.3986394
000260 d1 89 9a bd b3 19 9b bd 52 7e 42 bd 07 5a f0 bd
       -0.07545818 -0.07573261 -0.04748375 -0.11735921
000270 0d 76 75 bd b3 a6 85 3d 68 28 38 3e 66 ff 49 3e
       -0.059927035 0.06525936 0.17984164 0.19726333
000280 9e 51 47 bd 17 bf 76 be 5b 40 14 be 6c b0 64 bb
       -0.04866182 -0.24096332 -0.14477675 -0.0034895195
000290 a7 a0 55 bd e3 0d a4 bd 97 6c bc bd d3 73 70 bd
       -0.052155163 -0.08010461 -0.09200399 -0.05870421
0002a0 e4 35 0e 3e 7d 7d 09 3e 0f 69 98 3d bd d5 99 3d
       0.13887745 0.13426776 0.07441913 0.075114705
0002b0 13 91 41 bc 3c 99 89 be d3 ab e9 bc 7a 10 53 3d
       -0.011814374 -0.2687472 -0.028524315 0.051529385
0002c0 a0 26 e3 bd 4a 25 94 3c 50 90 30 3e 53 08 90 3d
       -0.110913515 0.018084187 0.17242551 0.07032838
0002d0 99 18 40 3d be bb 09 be ff b3 81 3d 1a 75 e6 be
       0.04689846 -0.13450524 0.0633316 -0.45011216
0002e0 82 c8 25 be 03 c9 95 bd e2 32 32 3b 7b 6e f0 bc
       -0.16189769 -0.073137306 0.0027190973 -0.029349556
0002f0 15 18 8f bd 56 a7 f5 bd a6 4b 6d 3e 68 20 ba 3d
       -0.06987015 -0.119948074 0.23173389 0.09088212
000300 68 e5 9d bd 21 6f d8 bd 9b c0 13 3d 01 82 f6 bb
       -0.077097714 -0.10568071 0.036072355 -0.007522822
000310 ef 9f 61 be e0 45 61 bd c3 f3 9b 3d 11 8f 03 3e
       -0.22033666 -0.05499828 0.07614853 0.12847544
000320 37 7b e2 bc aa 07 c5 3c 0a 5f 40 be ad fa cf 3d
       -0.027646644 0.024051506 -0.18786255 0.101552345
000330 38 30 ac 3b 49 13 57 be 7b ee df 3d e8 6f c2 bd
       0.0052547716 -0.2100345 0.109341584 -0.09494001
000340 9a ea 7c bd d0 c9 ec 3d b2 53 43 3e 4f e9 47 3d
       -0.06174717 0.1156193 0.19074896 0.048806485
000350 ce b1 50 bd 86 9f 82 3d 66 03 a0 bd 61 e4 4a be
       -0.050950818 0.06378083 -0.07813148 -0.19813682
000360 56 f9 c5 3d 8c a7 03 3e 32 d9 ed bc 03 3e 9f bd
       0.09666698 0.12856883 -0.02903423 -0.077755
000370 0e ae 41 3e 49 1d 36 be 6f af de bc 37 cf 28 3e
       0.18914053 -0.17784609 -0.027183263 0.16485296
000380 17 e6 2b 3d b6 ad a6 be a7 6a c8 3d 0e ae dd bd
       0.041967478 -0.32554406 0.09785967 -0.10824214
000390 ee 01 30 bc 86 3a 30 bf 53 28 0d be b4 a3 af be
       -0.010742648 -0.688393 -0.13784914 -0.34304583
0003a0 69 71 6f bd 30 3e 15 3e d9 d7 d6 3d 66 94 d7 bd
       -0.058457766 0.14574504 0.104903884 -0.10526352
0003b0 2e 7c 81 be 55 29 83 bd 8e 2a 0d be cf 58 06 3e
       -0.25290054 -0.06404368 -0.13785765 0.13119815
0003c0 ec 45 ea 3d b6 d0 ec 3c 09 4f 8d be cb 3a b0 3d
       0.11439118 0.028908115 -0.27599362 0.08604964
0003d0 7a 8a a6 be 78 8a c9 bd 93 a5 c1 bd 8d 12 ec be
       -0.32527524 -0.09840864 -0.09455409 -0.46107903
0003e0 f5 e0 a7 bd f4 d5 10 be f9 73 2f be ba 39 c6 bd
       -0.08197204 -0.14144117 -0.17134084 -0.09678979
0003f0 54 5d 91 3e 38 6e 8a be 24 86 cd bd a4 5c fc 3c
       0.28391516 -0.27037215 -0.10035351 0.030805893
