net/np/k_cn1.weight.npy (npy, 704 bytes, 1 tensors)

array f4 [3, 3, 1, 16]
0	0x3dd4c1dd	0.10388539
1	0x3e9aa227	0.30201837
2	0xbeb91bb1	-0.3615394
3	0xbe9d4f02	-0.3072434
4	0x3e51504a	0.20440784
5	0x3e2f7297	0.17133556
6	0x3ea9b3a3	0.33144864
7	0x3e8854ee	0.26627296
8	0xbf259d54	-0.6469319
9	0x3e975a6b	0.2956117
10	0xbee437d9	-0.44573858
11	0x3e0b4dbb	0.1360387
12	0x3ee6f6b8	0.45110106
13	0x3ecce002	0.40014654
14	0x3e889122	0.26673228
15	0x3e41a436	0.18910298
16	0x3e9d7ea1	0.30760673
17	0xbcce8201	-0.025208475
18	0xbf1e2974	-0.61782
19	0x3db9c545	0.09070829
20	0x3ec3313c	0.381235
21	0x3e7b7db7	0.24559675
22	0xbd305ebd	-0.0430591
23	0x3e8d6162	0.2761336
24	0xbe99292c	-0.29914224
25	0xbcf96aa4	-0.030446358
26	0xbf0eff34	-0.5585816
27	0x3e584d63	0.2112327
28	0x3d88448e	0.06653701
29	0x3e8707bc	0.26373088
30	0x3e204945	0.1565295
31	0x3eeafe75	0.4589726
32	0xbdb46514	-0.088083416
33	0xbebaef6e	-0.36510795
34	0xbed3c129	-0.41358307
35	0x3e9e8669	0.30961922
36	0x3ed65d81	0.41868213
37	0x3e85d314	0.26137602
38	0xbe8817bb	-0.26580605
39	0xbe7a7db2	-0.24462011
40	0x3e3c815e	0.18408725
41	0x3cd19ca5	0.02558739
42	0xbe7d9f9a	-0.24767914
43	0x3e5ea764	0.21743542
44	0xbf0524dc	-0.5200937
45	0x3e810d49	0.25205448
46	0x3ebe6358	0.37185168
47	0x3e7e140a	0.24812332
48	0x3eee5a59	0.46553305
49	0x3ea39942	0.31952864
50	0x3e4e647b	0.20155518
51	0xbd5504d4	-0.052006558
52	0x3ee16679	0.44023493
53	0x3dfe2c68	0.124108136
54	0x3e19791b	0.14987604
55	0x3eb845e4	0.35990822
56	0xbf0f7986	-0.56044805
57	0x3ec9eb6d	0.39437428
58	0xbd3abc61	-0.04558981
59	0x3e8c9e4a	0.27464515
60	0x3e41243d	0.1886148
61	0xbd5b68cd	-0.053566743
62	0x3e364c35	0.17802508
63	0xbed3a8d4	-0.41339743
64	0x3e0a135e	0.1348395
65	0xbe178b8f	-0.14799331
66	0x3e0f87a3	0.14016585
67	0x3da1f0f6	0.07907288
68	0xbda4563e	-0.08024262
69	0x3e21573c	0.15755934
70	0x3e0b9ef6	0.13634858
71	0x3daffa71	0.0859269
72	0x3de6f9a9	0.11278088
73	0xbe78f566	-0.24312362
74	0x3e9db51d	0.3080224
75	0x3e6ed971	0.23325135
76	0x3ed20163	0.41016683
77	0x3e4e4bdb	0.20146124
78	0x3e74d8a8	0.23910773
79	0x3d68f4e7	0.056874182
80	0x3e28eb36	0.16495976
81	0xbe93a0a5	-0.288335
82	0x3d199853	0.037498783
83	0x3e96a77d	0.29424658
84	0xbdfefbd1	-0.12450374
85	0x3ea7bcd6	0.32761258
86	0x3db21162	0.08694722
87	0xbef5c7e3	-0.48004064
88	0x3ed69a23	0.41914472
89	0xbe9f99d0	-0.31172037
90	0x3e8ad4d4	0.271155
91	0x3dde2083	0.10846045
92	0x3e4454da	0.19172993
93	0x3e9d94e2	0.3077765
94	0xbd8d760a	-0.0690728
95	0x3ee73bfc	0.45162952
96	0x3e4727ea	0.1944882
97	0x3edd3e41	0.43211558
98	0x3e8cdf72	0.27514225
99	0x3e81f39f	0.2538118
100	0xbe8539c1	-0.26020625
101	0xbcd04fa8	-0.025428608
102	0x3e511586	0.20418367
103	0x3e38d9c2	0.18051818
104	0xbde928dd	-0.11384747
105	0x3e802912	0.25031334
106	0x3eeb2925	0.45929828
107	0x3e3acef2	0.18243006
108	0xbe20f772	-0.15719393
109	0xbec6dda5	-0.38840976
110	0xbefe33a2	-0.49648768
111	0xbee0e774	-0.43926585
112	0x3e0615b0	0.1309421
113	0x3d8972cd	0.0671135
114	0x3ea7d306	0.32778186
115	0x3e451cfb	0.19249336
116	0xbebea769	-0.372371
117	0x3e4198b3	0.18905906
118	0x3e9c523d	0.30531493
119	0x3dac567d	0.08414934
120	0x3ed0f1a0	0.40809345
121	0xbed95205	-0.42445388
122	0x3e7db7d8	0.24777162
123	0x3e7c0f75	0.24615271
124	0x3e921cfa	0.28537732
125	0xbe375315	-0.17902787
126	0xbed0dc2c	-0.40792978
127	0xbef1dd64	-0.4723922
128	0xbbf9a7cf	-0.0076188813
129	0xbe86dad9	-0.26338843
130	0x3eafddca	0.343489
131	0x3e869a7d	0.2628974
132	0xbe76ced2	-0.24102333
133	0x3e1981d4	0.14990932
134	0x3ebbc730	0.36675406
135	0xbf121482	-0.5706254
136	0x3ea56ba3	0.32308683
137	0x3db207fd	0.0869293
138	0x3e0556d2	0.130214
139	0x3dbcc338	0.092169225
140	0x3e9b2393	0.30300578
141	0x3dbb9ae1	0.091604
142	0xbe93cedc	-0.2886876
143	0xbdf1d32b	-0.11807855
