net/np/k_cn1.weight.npy (npy, 704 bytes, 1 tensors)

array f4 [3, 3, 1, 16]
0	0x3ed236cf	0.4105744
1	0xbd3b0db6	-0.045667373
2	0x3e5ca88f	0.21548675
3	0x3ee6bce5	0.4506599
4	0x3f03af33	0.5143921
5	0x3e47967a	0.19490996
6	0x3ec08d90	0.37608004
7	0x3dd26610	0.10273373
8	0xbe382fca	-0.1798698
9	0x3eb90f16	0.36144322
10	0xbc4399be	-0.01193851
11	0xbec8f7c5	-0.39251533
12	0xbef2e979	-0.4744375
13	0x3e9e793a	0.30951864
14	0xbd8c215c	-0.068423
15	0x3ee74f89	0.45177868
16	0x3e8fa250	0.28053522
17	0xbcac7cc5	-0.021055588
18	0xbc37b16a	-0.011211732
19	0x3ed19add	0.40938464
20	0x3e81993a	0.25312215
21	0x3e415c4a	0.18882862
22	0x3da9e22d	0.08295093
23	0xbd821aed	-0.06352792
24	0xbefb295d	-0.49054995
25	0x3eedad0b	0.46421084
26	0x3e4205d5	0.18947537
27	0x3e65fe74	0.22460347
28	0xbf229209	-0.6350408
29	0x3e338392	0.17530659
30	0x3e293ed6	0.16527876
31	0xbd4216e0	-0.047385097
32	0x3ef46f31	0.47741082
33	0x3e02120c	0.12702197
34	0x3e3b2ec1	0.18279554
35	0x3eb9c076	0.3627965
36	0x3ef045c3	0.46928224
37	0x3ea73ee8	0.3266518
38	0x3e9e9e6c	0.3098024
39	0xbf241c7a	-0.6410595
40	0xbf0491ea	-0.5178515
41	0x3e874bb1	0.26424935
42	0x3d1d1f1e	0.038359754
43	0x3eae57a2	0.34051234
44	0xbeed2b66	-0.46322173
45	0xbe223a5d	-0.15842576
46	0x3e99407c	0.2993201
47	0xbe9b166b	-0.3029054
48	0xbda32b09	-0.07967193
49	0x3e57db75	0.2107981
50	0x3e6692b1	0.22516896
51	0x3df8993b	0.121386014
52	0x3dda43eb	0.106574856
53	0x3e9f46fc	0.31108844
54	0x3ee1e090	0.4411664
55	0x3f05c096	0.5224699
56	0x3ee72288	0.45143533
57	0xbdf77bdc	-0.12084171
58	0x3ef4fbbb	0.47848305
59	0xbed5b9a1	-0.41743186
60	0x3e830b88	0.25594735
61	0x3e292b04	0.16520315
62	0x3ea3c398	0.31985164
63	0x3f0d5d0a	0.5522009
64	0x3d8aaaa0	0.067708254
65	0x3e852988	0.26008248
66	0x3eaac722	0.3335505
67	0xbbcec709	-0.006310348
68	0x3dabd35d	0.08389924
69	0x3eae9e72	0.3410526
70	0x3ee0d8ef	0.43915507
71	0xbddc874b	-0.107679926
72	0x3e284422	0.1643224
73	0x3e4debb9	0.20109452
74	0x3efa3695	0.48869768
75	0x3d8becbd	0.068322636
76	0x3e292886	0.16519365
77	0x3e110d5c	0.14165252
78	0x3eb08a8e	0.3448071
79	0xbe0fbb6f	-0.14036344
80	0x3e785129	0.2424971
81	0x3e644fcb	0.22296064
82	0x3e9bf09a	0.30457002
83	0xbea83c9f	-0.3285875
84	0x3d712e1d	0.058881868
85	0x3e945b55	0.2897593
86	0x3d9338ba	0.07188554
87	0xbf181c7a	-0.5941845
88	0x3e9b4320	0.3032465
89	0x3ed781d8	0.4209125
90	0xbec6b652	-0.38810974
91	0x3eff1342	0.4981938
92	0xbe1caebe	-0.15301034
93	0x3e96fe6e	0.2949099
94	0x3ebc5fc3	0.3679181
95	0xbf0201b1	-0.5078383
96	0xbf24ad7e	-0.6432723
97	0x3eb3bf8f	0.35107085
98	0x3e8bf916	0.27338475
99	0x3e6514c5	0.22371204
100	0xbf246c80	-0.6422806
101	0x3e4a3803	0.1974793
102	0xbe6a9133	-0.22906952
103	0x3f266f6a	0.65013754
104	0x3e899141	0.26868632
105	0xbf21d473	-0.63214797
106	0x3e8d39ce	0.27583164
107	0xbee3349a	-0.4437607
108	0x3ed1d243	0.4098073
109	0x3ea76892	0.32696968
110	0x3e7390cc	0.23785704
111	0x3f00b941	0.50282675
112	0xbede5394	-0.4342314
113	0x3ec9ce48	0.39415193
114	0x3d1d15c3	0.03835083
115	0xbe9440ff	-0.28955838
116	0xbec75080	-0.38928604
117	0x3e8cf61c	0.27531517
118	0xbe3e2433	-0.18568496
119	0x3e683d68	0.22679675
120	0x3e0e7548	0.13911927
121	0xbeb8d066	-0.36096495
122	0x3e439e4b	0.19103353
123	0xbdb78f59	-0.08962888
124	0x3eca9f7a	0.39574796
125	0x3e8f8aeb	0.28035673
126	0x3e89de84	0.26927578
127	0x3ce491dc	0.027901582
128	0xbeb0bd9a	-0.34519655
129	0x3e789157	0.24274193
130	0x3e746cd4	0.2386964
131	0xbea6c045	-0.32568565
132	0xbefe0456	-0.49612683
133	0x3e5b85d9	0.21437778
134	0xbddafa4e	-0.10692273
135	0x3dbc7300	0.09201622
136	0x3dfe6f57	0.1242358
137	0x3cb68881	0.022281887
138	0xbefd75e3	-0.49504003
139	0x3ebdf036	0.3709733
140	0x3ea8e0af	0.3298392
141	0x3e25a222	0.1617513
142	0x3e57858d	0.2104704
143	0xbf37a9bd	-0.71743375
