net/np/k_fc1.weight.npy (npy, 200832 bytes, 1 tensors)

array f4 [1568, 32]
000000 86 f7 00 3d 70 ca c7 3c be 7c 7a bc b8 00 3c 3c
       0.031486057 0.024388522 -0.01528853 0.011474781
000010 70 d7 75 3c 5c 63 9d bc e0 d5 38 bb f5 52 b4 3b
       0.015004978 -0.019212417 -0.0028203651 0.0055030533
000020 6f 56 88 bc 67 77 8b 3c d5 26 20 3d cd e9 19 3d
       -0.016642777 0.017024709 0.039099533 0.037576485
000030 b2 e3 6f 3b 63 77 04 3c b1 8a 56 bc f2 22 84 bc
       0.0036604223 0.008085105 -0.01309459 -0.016129944
000040 b6 46 85 bc 32 2c 37 bb 47 3d 01 bd a9 9f ed bc
       -0.01626907 -0.0027949926 -0.03155258 -0.029006796
000050 56 f5 cc bc c2 cf e3 b9 b9 e9 27 3d df c2 02 bc
       -0.025019329 -0.00043451606 0.04099438 -0.007981031
000060 b1 da 40 3c 25 f3 be 3c af fb 04 3d 13 c9 3d 3d
       0.01177089 0.0233093 0.032466587 0.046334337
000070 45 55 08 bd 72 c8 d6 bb e3 30 74 3c 17 4a 55 38
       -0.033284444 -0.0065546567 0.014904234 5.085216e-05
000080 42 1d 6f 3c 9a 13 46 bc 7b c7 6d 3c ed 72 29 bc
       0.014594378 -0.012089634 0.014512892 -0.010342342
000090 93 3d b5 bc ee 96 a6 bc aa 88 ab bc cd 99 81 3c
       -0.022124087 -0.02033564 -0.02093919 0.015820408
0000a0 eb f5 82 ba 54 c1 2f 3b c9 79 b7 3c d6 0a 0b 3d
       -0.0009991502 0.0026818113 0.022396939 0.03394588
0000b0 0f 1e ea 3c a0 de 21 3c 20 52 fd bc 3b a9 de bc
       0.028578786 0.009879738 -0.03092295 -0.027180305
0000c0 f7 85 dc bc f8 70 97 3b ee ca 18 bd c7 35 c3 bb
       -0.026919348 0.004621621 -0.037302904 -0.0059573385
0000d0 7f 70 30 bd 6c 05 de 39 9b e0 7e 3c 65 26 88 bc
       -0.043076035 0.0004234718 0.01555648 -0.01661987
0000e0 b8 4f 2a 3d 9d 15 11 3d 75 d3 1b bc 3b 60 c2 3c
       0.041579932 0.035421003 -0.0095108645 0.023727527
0000f0 78 ce 2b 3a c9 62 b4 bc ec 24 a1 bc 95 67 49 bb
       0.00065538986 -0.02201976 -0.019670926 -0.0030731906
000100 8f 41 01 3d a9 a5 1a bd a2 4f 5a 3c 32 a7 8c bc
       0.031556662 -0.037755642 0.01332465 -0.017169569
000110 dc cf 15 3c 2e f7 da bc ec 16 07 bd 85 39 84 3b
       0.009143796 -0.026729193 -0.032980844 0.004035177
000120 35 a4 fe bc 48 32 40 3c c3 7d e7 3c ae d3 67 3d
       -0.03108416 0.011730738 0.02825821 0.056598358
000130 f9 f7 38 3d d8 ab 69 bc 93 e4 08 bd 42 54 cb bc
       0.04515836 -0.014262162 -0.03342111 -0.02482045
000140 cc 87 23 bc 50 36 01 bb b9 bd c6 bc fa 2e 2e 3c
       -0.009981107 -0.001971621 -0.024260389 0.010631317
000150 af 27 12 bd a4 ef 32 3b 77 17 b5 3c d0 e9 77 bc
       -0.035682376 0.0027303481 0.022105915 -0.015131429
000160 b1 ce 4d 3d 7c 07 4b 3d dc da f9 bc 9b 39 43 3d
       0.050245944 0.049567685 -0.030499868 0.04766236
000170 cc fc 6d bb 3c 6f ae bc b3 48 df 3c f8 34 6b bc
       -0.0036314009 -0.021293275 0.027256345 -0.01435589
000180 83 12 10 3c ac 26 c9 bb 26 b8 99 bc 0f 27 90 3b
       0.008793476 -0.0061386432 -0.018764567 0.0043991874
000190 80 23 b2 bc 81 2f d3 3c b0 82 63 3c 4d b6 8a 3c
       -0.021745443 0.025779488 0.013886139 0.01693263
0001a0 02 8d 38 bb 0a d8 15 3d 38 ca fe 3c f2 51 cb bb
       -0.002816022 0.036582984 0.031102285 -0.006204837
0001b0 28 f0 a6 3c 41 ef 9c bc 1a fd 8e 3c 08 f3 b7 bc
       0.020378187 -0.019157054 0.017454673 -0.022454754
0001c0 12 54 e6 ba 58 bf 93 ba fd 88 0d bd 55 08 98 3b
       -0.0017572662 -0.0011272235 -0.03455447 0.004639665
0001d0 2d 3b 05 bd 95 77 79 3c 8b f7 d4 3c 95 2f fd 3b
       -0.032527138 0.0152262645 0.025996944 0.0077266195
0001e0 b8 22 b2 3a 91 30 7c 3c 0e 5d 4d 3c 9a 56 a0 3b
       0.0013590669 0.0153924385 0.012534393 0.004893136
0001f0 50 f3 3f 3c 10 18 48 3c 9a d6 01 3c bc cf 33 3c
       0.011715725 0.012212768 0.0079247 0.010974821
000200 a4 5d e5 3c e0 1d 74 3c 91 d5 b2 bb c3 32 70 ba
       0.027998753 0.014899701 -0.005457588 -0.00091628375
000210 ac 5b 81 bb 9e 51 d7 bc de fa a8 bc 3e 73 4a 3c
       -0.0039476957 -0.026284035 -0.020627435 0.012356577
000220 bf b6 ea bc 7a 1c 50 3c ae e5 12 3c 0a c0 1d 3d
       -0.028651593 0.012702102 0.008965893 0.03851322
000230 59 8c 59 3c f9 01 bd bb 31 e7 0b bc b5 b7 ba bc
       0.01327809 -0.0057680574 -0.008539007 -0.022792676
000240 da 12 17 3c 65 a6 1a 3c d7 57 95 bc c7 64 95 bc
       0.009220803 0.009439086 -0.018230362 -0.018236531
000250 4f 98 86 3b 57 25 92 3a f3 03 de ba 15 90 9b bc
       0.004107512 0.0011150044 -0.0016938433 -0.018989602
000260 e1 c1 ee 3c c3 0e ae 3c 33 57 01 bc 88 db 4e 3c
       0.029145183 0.021247273 -0.007894325 0.0126255825
000270 29 4c 68 bb 43 0c e5 bc e4 69 5f 3c dd 48 9a 3a
       -0.0035445786 -0.027959948 0.013636086 0.0011770983
000280 66 d1 4f b7 4a 92 a8 b8 61 1d bf 39 e5 51 02 39
       -1.2386916e-05 -8.038113e-05 0.00036452248 0.00012428274
000290 9a 91 a0 39 98 02 2e ba ef bc 02 3a 1f 32 9c b9
       0.0003062606 -0.000663796 0.000498726 -0.00029791982
0002a0 12 7b 15 ba c4 27 8e b8 df 02 03 ba 74 2b 87 39
       -0.0005702238 -6.7784946e-05 -0.0004997681 0.00025781582
0002b0 3a 04 22 39 2b c3 f3 37 51 f0 c5 b9 6e 48 10 3a
       0.00015451098 2.905874e-05 -0.00037753818 0.0005503957
0002c0 cb 7d 47 b9 14 5a 6b b9 e6 ee 8a bc 80 0f 26 39
       -0.0001902498 -0.00022444903 -0.016959619 0.00015836768
0002d0 86 c4 ea 37 85 de a3 37 de b1 2e 39 6f e3 d3 39
       2.7986487e-05 1.9534733e-05 0.00016660194 0.00040414507
0002e0 b4 e9 bc b9 63 bb 60 b9 20 e6 3a 39 df 1d 38 ba
       -0.00036032277 -0.00021432112 0.0001782407 -0.0007023494
0002f0 0b ed b8 b9 15 c2 c3 b9 63 4c 56 ba 89 c4 82 37
       -0.00035271826 -0.000373379 -0.00081748347 1.5588726e-05
000300 30 87 9e 3c 7b 2a a3 3c 95 ee 3a 3c 82 db 30 bb
       0.019351572 0.019917717 0.011409421 -0.0026986306
000310 98 7a 88 3c b6 47 5f bc 37 0f b7 3b e1 95 81 3c
       0.01666002 -0.013627937 0.0055865305 0.015818538
000320 85 ba 64 bc 8e 0f 0a 3c 6c bb 6a 3c 89 b8 2e 3c
       -0.013960485 0.00842656 0.014326911 0.010664114
000330 5c 29 80 bb c3 19 d8 3b c8 4d 71 ba f8 af 28 bc
       -0.0039111804 0.006594868 -0.0009205011 -0.0102958605
000340 d5 b2 ad bc 73 8e 17 bc f7 bc 5f 3c 24 a3 10 bb
       -0.021203438 -0.009250271 0.013655893 -0.0022069896
000350 ba 9d 61 bc 7b 9b 2c bc 7d a1 a9 3c a4 eb ad 3b
       -0.013770515 -0.010535116 0.020706886 0.0053076316
000360 8f c3 88 3b 71 94 35 3c cf a1 2a 3c 9e c2 ba 3c
       0.004173703 0.0110827545 0.010414555 0.022797879
000370 d5 af 8e bb 9e 5a ae bb 14 98 12 3c a9 c9 82 bb
       -0.004354457 -0.005320861 0.008947391 -0.003991325
000380 77 1e 5f 3c 45 7f 58 3c fe 75 f5 3c 1a d5 bc ba
       0.013618103 0.013213937 0.02996349 -0.0014406771
000390 71 28 3f 3c 75 c0 38 bd 6f 75 b3 bb 3f 5d b4 3c
       0.011667357 -0.045105416 -0.0054766457 0.02201712
0003a0 b1 e2 70 3b e5 91 5f bb be 44 9c bb 0b b7 a9 3c
       0.0036756212 -0.003411406 -0.004768937 0.020717165
0003b0 ee e4 b8 3a 62 f1 ba 3c 30 70 e5 bc 09 f5 19 bc
       0.0014106312 0.022820178 -0.028007597 -0.0093968
0003c0 29 25 d7 bc aa c4 a7 bb c3 17 5a bc 5f 1d cd 3b
       -0.026262837 -0.0051198797 -0.013311329 0.006259605
0003d0 a2 f6 27 bd 52 13 ff bb ac c8 ef 3c f0 2a e0 bb
       -0.04100669 -0.0077842856 0.029270492 -0.006841056
0003e0 f4 4a f8 ba 28 a4 28 bb 27 a7 01 3c 78 14 b9 3c
       -0.0018943236 -0.002573261 0.007913387 0.022592768
0003f0 61 51 bd bc 57 09 e6 bc 28 7f 80 3c a2 95 ab 3c
       -0.023110094 -0.028080625 0.015685633 0.020945374
