net/np/k_fc2.weight.npy (npy, 1408 bytes, 1 tensors)

array f4 [32, 10]
000000 bc 58 6c be e1 ba 54 be 60 a8 f5 3d ac 09 f9 3d
       -0.23080724 -0.20774414 0.119950056 0.12160048
000010 08 f2 83 be d1 10 bc 3d 25 51 4e be d2 e8 91 be
       -0.25770593 0.09182895 -0.20148142 -0.2849794
000020 b9 bb fe 3d 8f b8 07 3e 2e eb 77 be fa 90 ca 3d
       0.12438149 0.13253997 -0.24210808 0.09890933
000030 ce 2c 1b 3e 84 a4 2a 3e 66 e4 73 be 83 9a 87 be
       0.1515381 0.1666432 -0.23817596 -0.2648507
000040 3d da 71 be 7d 4d 04 3e 01 ab 6f be e3 d4 8d be
       -0.23618408 0.12920184 -0.23405077 -0.27701482
000050 17 04 ce 37 8a 4f 76 b9 5e 09 c5 39 94 9b 6a 38
       2.4559018e-05 -0.00023490019 0.00037581747 5.593484e-05
000060 c1 2b a5 39 c9 80 8e b8 45 b2 34 b8 61 7d 86 38
       0.00031503852 -6.795076e-05 -4.308137e-05 6.4129716e-05
000070 2f d0 85 3a 2f 2a df 3a f7 86 ca 3d f5 f7 6b be
       0.0010209138 0.0017026121 0.09889024 -0.23043807
000080 9f 91 4d 3d 24 84 d2 3d 06 75 94 be 61 fa a0 3d
       0.050187703 0.1027911 -0.28995532 0.07860256
000090 81 38 92 be 81 2b a0 3d 4c 35 a2 be ad f3 a3 3d
       -0.28558734 0.07820798 -0.31681287 0.08005462
0000a0 e1 f4 11 3e 21 ce cb 3d 2b 60 3b be a6 49 6d be
       0.1425357 0.09951425 -0.18298404 -0.23172626
0000b0 ac 09 64 be ce 35 2b be 77 bc 08 3e 11 d8 77 be
       -0.22269315 -0.16719744 0.13353144 -0.24203517
0000c0 12 a2 39 3e c5 46 8b be e7 5f 5a be 1c 45 0d be
       0.18128231 -0.2720243 -0.21325646 -0.13795894
0000d0 82 17 73 be d3 78 88 be fb 66 22 3e d2 f3 40 3e
       -0.23739436 -0.26654682 0.15859596 0.1884301
0000e0 c9 f4 7b be d5 ed f9 3d ec 86 92 be f2 22 ea 3d
       -0.24605097 0.12203566 -0.28618562 0.114324465
0000f0 2b 20 9c be 8f 7e 71 3e bf ef 08 be 13 a8 6c be
       -0.30493292 0.23583435 -0.13372706 -0.2311099
000100 83 a5 26 be d9 35 44 3e 22 9c c5 bd a3 b4 4d be
       -0.16274075 0.19161166 -0.096489206 -0.20088439
000110 04 40 d3 3d ce a7 a1 bd 34 6a 7d bc 07 93 b0 bb
       0.103149444 -0.07893334 -0.015467215 -0.005388621
000120 69 57 8e bb 19 76 c6 bc 94 9c 37 bb 98 18 cb 3c
       -0.004343916 -0.024226235 -0.0028016912 0.024792
000130 40 7b 65 ba 4e 6d 4e bc 21 10 ae bb ae a8 9a bc
       -0.00087540224 -0.012599302 -0.0053119813 -0.01887926
000140 c8 93 80 be bd 5a 93 3d 7b 99 ac be ba f3 09 3e
       -0.25112748 0.07195041 -0.33710846 0.1347188
000150 21 9c 15 3e df 52 96 3d 04 fd a4 3d 56 d8 a5 be
       0.1461034 0.07340025 0.080560714 -0.32391614
000160 0f ba 72 3d 1d 6f 60 be a5 af 96 3e f9 d4 81 3e
       0.05925947 -0.21917386 0.2943088 0.25357798
000170 20 cb 60 be 2c 02 5d be 50 4b 1d be 09 bb fe bd
       -0.21952486 -0.2158286 -0.1536076 -0.12438018
000180 aa e8 1e be aa 84 07 be f2 7d 09 be c9 7d db bd
       -0.15518442 -0.13234201 -0.1342695 -0.10717351
000190 70 db 15 be e9 4a 89 bd 11 41 52 3e 3d 52 2a be
       -0.1463449 -0.06703741 0.20532633 -0.16632934
0001a0 08 02 5d be a6 43 4f 3e 78 fc 2f 3e 74 73 78 be
       -0.21582806 0.2024065 0.17186153 -0.24262792
0001b0 3b 36 2b be 8c 09 95 be 6c 76 97 3d 77 80 a9 be
       -0.16719906 -0.29108846 0.07395634 -0.33105823
0001c0 0b fd 81 3d 60 18 f7 3d 7f d0 a2 3d 89 b6 a1 be
       0.06347092 0.12065196 0.07949924 -0.31584576
0001d0 c6 e1 8e 3d 26 0b 8d be 4e da 86 3d eb 3c 84 3d
       0.069766566 -0.27547568 0.06584607 0.06456932
0001e0 01 d8 70 be 82 93 cb 3d 74 1d 00 3e 18 7f 96 bd
       -0.23519899 0.09940244 0.12511235 -0.0734846
0001f0 0c a6 5d be 92 28 95 be 6b fb a3 be 3d 79 ea 3d
       -0.21645373 -0.29132515 -0.32027754 0.114489056
000200 eb f9 19 3e c8 4e 09 3e ae a1 14 3e 8e 2d cd 3d
       0.15036742 0.13408959 0.14514801 0.100184545
000210 4b 9e 24 3e 52 95 5e be 08 f6 04 be 93 cf 56 be
       0.16076009 -0.21736649 -0.12984478 -0.20977621
000220 5b ee 23 3e 7d c6 74 be f8 2e 8f be 56 92 52 be
       0.16008894 -0.23903842 -0.27965522 -0.20563635
000230 2f c4 42 be ba 2d 01 3e d5 b2 1c 3e 39 cf 4b be
       -0.1902015 0.126151 0.15302594 -0.19903268
000240 fa 34 30 3e fb d3 84 be 47 d9 67 be 24 60 ed bb
       0.17207709 -0.25942978 -0.22641478 -0.007244127
000250 23 65 4e 3e 1f 3f 82 be a5 41 e1 bd 59 cf 71 be
       0.20155768 -0.25438783 -0.10998849 -0.23614253
000260 63 05 39 be df 6b 0c be de 6c 0b be 0a 2e 36 be
       -0.18068461 -0.13713025 -0.13615748 -0.17791
000270 32 00 43 3e 43 2d 67 be 4e 20 60 3e 5c 08 6a 3e
       0.19043043 -0.2257586 0.21887323 0.22854751
000280 19 66 97 3d 8e 69 a5 be f0 23 7b be 47 89 e7 3d
       0.073925205 -0.32307094 -0.24525428 0.113054805
000290 46 27 84 be 4b 4d 73 3d 0a 8b d3 3d df f5 9a 3d
       -0.25811213 0.059399884 0.10329254 0.075664274
0002a0 33 68 b3 be 9b 21 89 3d 6a 16 bb 3d d5 6b 65 3d
       -0.35040435 0.06695863 0.091351345 0.05601104
0002b0 47 7b 54 be 9b 48 e1 3d 61 72 8d be f4 af aa 3d
       -0.20750152 0.110001765 -0.27626327 0.08334342
0002c0 dc 1c 83 be 45 92 15 be 13 bf a6 3d a7 1f dc 3d
       -0.25607955 -0.14606579 0.08141913 0.10748225
0002d0 1c 61 67 be f2 64 20 3e 6a eb 29 3e 5a 69 69 3e
       -0.22595638 0.15663508 0.1659371 0.22794095
0002e0 57 26 3d be e3 98 64 be 47 2e 3a be a3 dd 25 be
       -0.18471657 -0.22323947 -0.18181716 -0.16197829
0002f0 08 b6 34 be 20 88 84 be 73 1d da 37 9f b3 91 b9
       -0.17647564 -0.25885105 2.6001338e-05 -0.00027790383
000300 de e9 4b b8 b5 2a 58 39 72 fd 2a b8 95 47 a8 b8
       -4.8616777e-05 0.00020615275 -4.0767198e-05 -8.0241975e-05
000310 b3 5e 86 38 cc fa e3 39 0a 21 ec ba 62 c2 6a 3a
       6.407257e-05 0.00043483672 -0.0018015218 0.0008955357
000320 a4 48 45 be d8 b0 4d be f3 69 17 3e df ca 2e be
       -0.19265991 -0.20086992 0.1478651 -0.17069577
000330 f9 5f 1d 3e 24 5e 9e be fb 1e 62 be 28 73 0e 3e
       0.15368642 -0.309312 -0.2208213 0.13911116
000340 64 02 60 be 3d e9 f4 3d e8 e2 79 b8 8f e9 14 38
       -0.21875912 0.11958549 -5.957755e-05 3.5503468e-05
000350 75 4d d1 ba 9f 8f 96 b8 ef d2 02 b9 0c 72 60 39
       -0.0015968519 -7.179309e-05 -0.00012476345 0.0002140479
000360 dc b2 26 39 74 d9 f2 b9 6f 36 c4 3a da e6 cf 3a
       0.00015897624 -0.00046319852 0.0014969836 0.0015861646
000370 01 de 9d 3d 0c 4d a6 be 2c 0b 99 be 0e 8b 87 be
       0.077083595 -0.32480657 -0.29891336 -0.26473278
000380 a6 1f d5 3d 44 79 a0 3d 3e 09 a8 3d 15 18 99 be
       0.10406427 0.078356296 0.08204888 -0.29901186
000390 95 c2 21 3d dd c0 a5 3d d8 ec 63 be cd 60 17 3e
       0.03949221 0.080934264 -0.22258317 0.1478302
0003a0 ac 4f 1a 3c 93 51 6f be 57 c1 18 3e a4 0c 48 be
       0.009418409 -0.23370962 0.14917503 -0.19536072
0003b0 23 40 0d 3e b4 8d 80 be dd f4 7c be fe 80 28 3e
       0.13793997 -0.2510811 -0.24702783 0.16455457
0003c0 4e 93 e8 37 8a 36 db b9 4c ea b2 3a 87 a5 80 b9
       2.772515e-05 -0.0004181157 0.0013650148 -0.0002453739
0003d0 6b f0 db 39 7e 02 cd 38 02 25 0d b9 c0 3a 4d b8
       0.0004195006 9.775626e-05 -0.00013460594 -4.8930524e-05
0003e0 a3 38 00 bb 9f d4 48 ba 39 6a 92 be 56 23 74 be
       -0.0019565008 -0.00076610775 -0.28596666 -0.23841605
0003f0 f7 34 97 be 3a 5d db 3d 58 85 ac 3d 6a bc 7f 3d
       -0.29532596 0.10711141 0.08423871 0.062435545
