net/np/k_fc1.weight.npy (npy, 150656 bytes, 1 tensors)

array f4 [1176, 32]
0	0x3a9b0492	0.0011826924
1	0x3cf869a5	0.030323813
2	0xbd5b5606	-0.053548835
3	0xbc094c98	-0.008380078
4	0x3c456c10	0.01204969
5	0xbcc685b4	-0.024233676
6	0xbd760e39	-0.060072158
7	0xbd56f143	-0.05247618
8	0x3c7e2f33	0.015514183
9	0xbcebe600	-0.028796196
10	0xbb9ea86c	-0.004841855
11	0x3c78e2c2	0.015190782
12	0x3c078938	0.008272462
13	0xbae8d117	-0.0017762509
14	0xbc9415bd	-0.018076772
15	0x3c865645	0.016398558
16	0x3c322349	0.01087267
17	0xbb969b38	-0.0045961402
18	0x3c178868	0.00924883
19	0x3d233d63	0.039853465
20	0xbc61e1d6	-0.013786754
21	0xbc6c999d	-0.014440921
22	0xbc35de59	-0.011100375
23	0xba0af69c	-0.000530103
24	0x3ce5a471	0.028032513
25	0x3bd60798	0.006531667
26	0x3bbf9071	0.005846076
27	0xbb5a1e0e	-0.0033282074
28	0x3c9b5f1a	0.018966246
29	0xbd29f6e2	-0.04149521
30	0x3d1132e6	0.03544893
31	0xbc35f58b	-0.011105905
32	0xbcc8a0dc	-0.024490766
33	0x3cd29056	0.02570359
34	0xbd2740fd	-0.040833462
35	0xbcd7f58c	-0.026362203
36	0x3d179cc7	0.03701475
37	0xbd1466e3	-0.036230933
38	0x3c36aa3b	0.011148985
39	0x3bf1d95f	0.007380649
40	0x3d0e056e	0.034673147
41	0x3add45e1	0.0016881787
42	0xbc831224	-0.015999861
43	0x3bc5860f	0.006027944
44	0x3a8a73e7	0.0010563106
45	0xbb6a54a7	-0.0035756023
46	0xbd3261b5	-0.043550212
47	0x3c74c958	0.014940582
48	0x3d237370	0.03990501
49	0x3caa8ca0	0.020819008
50	0x3d178f04	0.037001625
51	0x3d2b1d26	0.041775845
52	0xbc8bd2ac	-0.01706823
53	0xbcdc80e7	-0.026916934
54	0x3c23a08b	0.009987007
55	0x3caf1de6	0.021376561
56	0xbd56f1fe	-0.052476875
57	0x3cc8947a	0.024484862
58	0x3cf197d3	0.02949134
59	0xbbe5fd62	-0.007018731
60	0x3ca216d7	0.019786282
61	0xbcb032be	-0.02150857
62	0x3d0c413f	0.03424191
63	0xbcbf1bdb	-0.023328712
64	0x3a70562c	0.0009168114
65	0xba2eed7c	-0.0006672961
66	0xb8ae2104	-8.303116e-05
67	0xba3d085f	-0.0007211025
68	0x3a8117ee	0.000984905
69	0xba141d98	-0.0005650162
70	0xba217bec	-0.00061601284
71	0x3ca8b2b8	0.020593032
72	0x3af9f2e9	0.0019069585
73	0x3c9f6cd8	0.01946108
74	0xb9d77e67	-0.00041102173
75	0x3b1c3000	0.0023832321
76	0xbac84c82	-0.001528159
77	0x3b8e295f	0.004338428
78	0xba76ad32	-0.00094099634
79	0xbc07fe95	-0.008300443
80	0x3ae20140	0.0017242804
81	0xbaab362e	-0.0013062411
82	0xb9d99528	-0.00041500595
83	0x3d310421	0.04321683
84	0xbba9a9b8	-0.0051777028
85	0x39926d03	0.0002792851
86	0xb9a3119f	-0.0003110291
87	0xbad4e392	-0.0016242138
88	0xbc0cc77f	-0.008592485
89	0x3a162faf	0.00057291513
90	0x36cf534c	6.1787778e-06
91	0x388c9bf2	6.704767e-05
92	0xba4d95aa	-0.0007842431
93	0x393999c2	0.00017700254
94	0x3a96d483	0.0011507425
95	0xb9b81459	-0.00035110375
96	0xbc86e037	-0.016464336
97	0x3d0d447d	0.034489144
98	0xbcbf5647	-0.02335657
99	0xbcd24bdd	-0.02567094
100	0x3a698b7c	0.00089090294
101	0xbc3e6230	-0.011620089
102	0x3b7fdac1	0.00390403
103	0xbbea44c7	-0.007149312
104	0x3c022c45	0.007945125
105	0xbca0a3d6	-0.019609373
106	0xbc18d1a3	-0.009327325
107	0x39d4e996	0.00040609826
108	0x3c846423	0.01616103
109	0xbc32b6a0	-0.010907799
110	0x39a29db0	0.00031016534
111	0x3c5070d9	0.0127222175
112	0x3b60f48a	0.0034325444
113	0x3b6f25a0	0.0036490932
114	0x3cab3326	0.020898413
115	0x3d3b2fb8	0.045699805
116	0x3cab522b	0.020913204
117	0x3cf3cad6	0.029759806
118	0x3ac3ea47	0.001494714
119	0x3cd7eb48	0.026357308
120	0x3ce4e735	0.02794228
121	0xbc51ec1b	-0.01281264
122	0x3d1f2936	0.03885766
123	0xbc957a59	-0.018246816
124	0x3cc4625b	0.02397268
125	0xbc9ce556	-0.019152325
126	0x3bf8a4d3	0.007588008
127	0xb99f8c53	-0.00030431393
128	0x3c68ce12	0.014209287
129	0x3c5b0946	0.01336891
130	0xbd6dfcb6	-0.058102332
131	0xbc3a6337	-0.011376194
132	0x3b5a1164	0.0033274526
133	0xbca7b33c	-0.020471208
134	0xbd4d79d9	-0.05016503
135	0xbd0a5fa9	-0.033782635
136	0x3c36f83b	0.011167581
137	0xbce641d1	-0.028107556
138	0x3be5faaa	0.007018407
139	0x3d195ea9	0.03744379
140	0x3a696f63	0.00089048425
141	0x3c8c659e	0.017138299
142	0xbc4e8c6f	-0.012606724
143	0xbc5e91a6	-0.01358453
144	0xbc9969b8	-0.018727168
145	0xbc0e89d4	-0.008699853
146	0x3c420bab	0.011843602
147	0x3d10786d	0.035271097
148	0xbc8449ad	-0.016148413
149	0xbd46bf7f	-0.04852247
150	0x3b268c4e	0.0025413218
151	0xbb8e712b	-0.0043469868
152	0xbd0d793a	-0.03453944
153	0xbbe96aca	-0.007123326
154	0xbb3c2524	-0.002870866
155	0xbb201090	-0.0024423935
156	0xbc9eafea	-0.019370992
157	0xbd05d0bb	-0.032669764
158	0x3c5406c0	0.012941062
159	0xbcb91b4d	-0.022596026
160	0xbc3fd031	-0.011707352
161	0x3aa44da5	0.0012535347
162	0xbd3ed9a5	-0.04659428
163	0x3cde7010	0.027153045
164	0x3d111e9f	0.035429593
165	0x3bc7df40	0.0060996115
166	0x3d00935e	0.03139054
167	0x3ce4e1a9	0.027939634
168	0xbc5ec328	-0.013596334
169	0x3d05cb52	0.032664604
170	0xbb41f652	-0.0029596281
171	0xbbcaf142	-0.006193311
172	0x3c967b48	0.018369332
173	0x3cf401a0	0.029785931
174	0xbadf2b03	-0.0017026368
175	0x3c8abd3e	0.01693594
176	0x3c9342b3	0.01797614
177	0x3cffe61a	0.03123765
178	0xbc008051	-0.007843093
179	0xbd0607be	-0.032722227
180	0xbbea8d22	-0.0071579376
181	0xbc3af71a	-0.011411453
182	0x3c0afda7	0.008483327
183	0x3c955d1f	0.01823288
184	0xbcae3240	-0.021264195
185	0xbceac7b3	-0.028659677
186	0x3c637177	0.013882033
187	0xbbcf8a45	-0.0063336217
188	0x3c832f69	0.016013818
189	0x3c97bd96	0.018523019
190	0xbc0b6662	-0.008508297
191	0x3a1e1f38	0.00060318736
192	0x3c64e95e	0.013971655
193	0x3c7e1134	0.015507031
194	0xbcce4ff0	-0.025184602
195	0xbcc837a9	-0.024440603
196	0xba890abf	-0.0010455473
197	0xbce2b771	-0.027675362
198	0x38a29ce2	7.753984e-05
199	0x3cf77861	0.030208768
200	0x3d3d44d1	0.046208207
201	0xbbc2181c	-0.005923284
202	0xbc833e1b	-0.016020825
203	0x3ce4f9d6	0.027951162
204	0xbd5e35c8	-0.05425051
205	0xbd07dc06	-0.033168815
206	0xbd39a581	-0.045323852
207	0x3ce5392a	0.02798136
208	0x3d4c46d0	0.04987222
209	0x3d03fcb7	0.03222343
210	0x3d48efdc	0.049056873
211	0x3d0337e2	0.032035716
212	0x3be9f072	0.007139259
213	0x3d0ac766	0.033881567
214	0xbb54af14	-0.0032452988
215	0xbcec805e	-0.028869804
216	0xbd14a7d5	-0.03629287
217	0x3c002845	0.007822101
218	0x3d12b9d6	0.03582176
219	0x3c7d54c2	0.015462102
220	0x3c5fed5e	0.013667433
221	0xbd0fed90	-0.035138667
222	0x3cca8266	0.024720382
223	0xbd0a2aa2	-0.033732064
224	0xbc8db7a4	-0.01729948
225	0x3cb56abf	0.022145627
226	0x3c36395a	0.011122072
227	0xbb722653	-0.0036949113
228	0x3c1c7fab	0.009551923
229	0xbcf7233e	-0.030168172
230	0xbbd12c7e	-0.0063834777
231	0xbd1658b7	-0.0367057
232	0x3c9c37a6	0.019069504
233	0xbce8d1c3	-0.028420335
234	0xbb74434d	-0.003727156
235	0xbcb44dad	-0.022009695
236	0x3c8d1005	0.017219553
237	0xbc35bc8a	-0.0110923145
238	0xbbc72777	-0.0060777026
239	0xbc0c1401	-0.008549691
240	0x3ccc3864	0.024929233
241	0x3c3ca64a	0.011514256
242	0x3c5e0f95	0.01355352
243	0x3cfcf4d2	0.030878458
244	0xbca42e4e	-0.020041611
245	0x3cf51985	0.029919395
246	0x3ba58540	0.005051285
247	0x3c3cb3a6	0.011517441
248	0xbd7aba37	-0.061212745
249	0x3cd3f29f	0.025872527
250	0x3b1e9823	0.0024199567
251	0x3b220ccc	0.0024726866
252	0x3cea1930	0.028576463
253	0xbd15bd6d	-0.036557604
254	0x3d0f3d6b	0.034970682
255	0xbb7106e1	-0.0036777782
