net/np/k_fc2.weight.npy (npy, 1408 bytes, 1 tensors)

array f4 [32, 10]
000000 53 f9 9b 3d ec b2 79 be 71 b8 82 be c7 5c df 3d
       0.07615914 -0.2438466 -0.25531343 0.10906368
000010 8b c4 a8 be c2 ea 72 3d 5d 83 99 3d cf 1c 9c be
       -0.3296245 0.059305914 0.07495759 -0.3049073
000020 63 a3 a5 3d 9f b1 c7 3c e3 70 78 be cd 6d 43 be
       0.08087804 0.024376689 -0.24261813 -0.19084854
000030 4d 8d d6 3d 23 be b7 3d 05 14 8d be 1a e4 a0 3d
       0.1047617 0.089718126 -0.27554336 0.07856007
000040 ed 83 bd 3d 4f 35 76 be 9a 75 9c 3d a4 da 46 3d
       0.092536785 -0.24043773 0.07639618 0.048548356
000050 c0 12 27 be 25 5f 92 be 70 07 82 be 6b bd 86 be
       -0.16315746 -0.28588215 -0.253963 -0.2631639
000060 58 2d b3 3d f8 b4 f8 3d 05 76 db 3d 08 64 53 be
       0.08748883 0.12143892 0.1071587 -0.20643628
000070 c0 0d ba 3d d6 f6 d2 3d 73 7c 22 be 4f 97 5c be
       0.09084654 0.103009865 -0.15867786 -0.21542095
000080 bd 09 dc 3d 22 21 74 3d 37 b7 61 be 22 e0 89 be
       0.10744045 0.05960191 -0.22042547 -0.26928812
000090 0c ce 8b be 09 fb de 3d 45 5e ef 3d b7 ce ef 3d
       -0.2730564 0.10887725 0.11687902 0.117093496
0000a0 50 b9 59 be d9 71 44 be e1 e4 45 be ff 20 29 3e
       -0.21262097 -0.19184054 -0.19325592 0.16516493
0000b0 41 e1 19 3e c3 8d f5 3d ef df 0e 3e 09 e0 3e be
       0.15027334 0.119899295 0.13952611 -0.1864015
0000c0 41 17 28 be 65 a8 84 be a1 06 06 3e e0 1d 85 be
       -0.1641512 -0.25909725 0.13088466 -0.25999355
0000d0 87 26 02 3e 6d 74 1a be 4b 32 67 be 7e 86 4b be
       0.1271001 -0.15083475 -0.22577779 -0.19875523
0000e0 0a 25 4b be 92 76 1b 3e d6 a2 1e 3e 5b a3 c7 bd
       -0.19838348 0.1518195 0.15491804 -0.097479545
0000f0 87 02 be 3d 78 96 16 be 12 c0 fe 3d c5 eb 64 be
       0.09277826 -0.14705837 0.12438978 -0.22355564
000100 fc 7d 49 be 7a 31 f1 3d 1e 04 a4 3d 09 ee 6d be
       -0.19676965 0.11777015 0.08008598 -0.23235334
000110 df 1a 97 3d 2c d5 85 be fa a9 c6 bd a7 d8 07 3e
       0.07378172 -0.261392 -0.09700389 0.1326624
000120 1f 3c 5d be 03 6f 88 be 23 c5 07 3e db e9 1f be
       -0.21604966 -0.26647195 0.13258795 -0.15616553
000130 ee 8d f6 3d ee b4 7d be 8e 99 52 be c7 23 14 3e
       0.1203879 -0.2477605 -0.20566389 0.14466773
000140 15 0f 50 be c6 96 c8 3d 1f e5 fd 3d dc 0d 6a be
       -0.20318253 0.09794383 0.12397217 -0.2285685
000150 0f 0c e3 3d e6 53 6e be 2c 8f c3 3d 6b b0 e0 3d
       0.11086284 -0.23274192 0.09548792 0.10971149
000160 2e 6b 80 be 76 6e 91 be 0a df f7 3d 44 45 e2 3d
       -0.25081772 -0.28404588 0.12103088 0.110483676
000170 0c 10 4d be e6 8a 61 be 58 b5 f3 3d 8d 91 74 be
       -0.20025653 -0.22025642 0.11899823 -0.23883648
000180 69 f8 c0 3d 4a a8 9f be c3 b1 f8 3d 96 c6 3d be
       0.094223805 -0.31183082 0.1214328 -0.18532786
000190 41 e6 55 be ea 00 12 3e 51 fd fa 3d 4a 7d 22 be
       -0.20888616 0.14258161 0.122553475 -0.15868106
0001a0 b1 58 06 be 0d 4e 0c be 6f 3c 16 3e d3 dc 4d be
       -0.1311977 -0.13701649 0.14671491 -0.20103769
0001b0 63 46 1c 3e aa f4 95 be 36 3a 0f 3e c1 64 60 be
       0.15261225 -0.29288226 0.1398705 -0.21913435
0001c0 1a 5b 1b be d6 21 d8 3d 61 c4 20 be c3 06 eb 3d
       -0.15171471 0.10553329 -0.15699913 0.11475899
0001d0 c9 49 57 be 5f e0 13 be 70 76 8d be 77 b5 2b 3e
       -0.2102424 -0.1444106 -0.27629423 0.16768442
0001e0 c4 2e 64 be 92 ce 33 3e d7 38 3e be 9b 93 5d be
       -0.22283465 0.17559269 -0.1857637 -0.21638338
0001f0 6a 4f 58 be 7b 14 3e 3e 2c 7f 16 3e a3 b4 5e be
       -0.21124044 0.185625 0.1469695 -0.21748595
000200 5d bd 0a 3c f0 eb 80 be 4f 8c 89 be c9 42 f0 bd
       0.008467999 -0.25180006 -0.2686486 -0.11731488
000210 7c 00 01 3e 87 48 10 3e 1a 40 cf 3d d1 d1 29 be
       0.12597841 0.14090167 0.10119648 -0.16583945
000220 b7 d1 07 3e f2 40 a6 3d 7a da 75 be 6b a3 c6 be
       0.13263594 0.08117856 -0.24009123 -0.38796553
000230 be 48 03 be 80 6a f7 3d a2 2a ec 3d 97 74 61 be
       -0.12820718 0.1208086 0.11531569 -0.22017132
000240 05 dc e1 3d d0 df 8f be ff 3f 88 be b6 92 58 be
       0.110282935 -0.28100443 -0.26611325 -0.21149716
000250 fc f9 df 3d 70 3c 04 3e 7d 47 6a be aa 3a 06 be
       0.109363526 0.1291368 -0.22878833 -0.13108316
000260 ec 6d f4 3d d1 da dd 3d 24 5a cd 3d b1 fd 89 be
       0.119350284 0.108327515 0.100269586 -0.26951364
000270 71 a2 7f be 6d 48 95 3d 50 3c 93 be 60 80 a6 3d
       -0.2496431 0.07289205 -0.28756952 0.08129954
000280 eb a4 6c 3d fe 7e ca 3d 11 34 ac 3d c0 c3 86 3d
       0.057774466 0.09887503 0.084083684 0.06580305
000290 1c 48 a0 be 38 08 e1 3d ac 9c 6a be aa 24 9d 3d
       -0.31305015 0.10987896 -0.22911328 0.07673009
0002a0 ad 8a b0 be 05 6f 28 be 87 d5 56 be 59 b9 0e 3e
       -0.344808 -0.164486 -0.20979892 0.13937892
0002b0 1f be fa 3d 9c f0 23 3e 2b af 4c be b7 29 7c be
       0.12243294 0.16009754 -0.19988696 -0.24625288
0002c0 53 02 0a be ad 65 f1 bd a9 38 16 3e cc fb 8b be
       -0.13477449 -0.11786971 0.14670052 -0.27340543
0002d0 81 af 7c b9 5a d8 ac 38 ea 27 b8 39 d2 f6 c8 ba
       -0.00024097973 8.241898e-05 0.00035124953 -0.0015332347
0002e0 88 3c 80 ba ae 01 0f ba 24 b4 c3 b9 9d a1 d7 b7
       -0.0009783665 -0.00054552674 -0.00037327514 -2.5705254e-05
0002f0 da 30 26 3a ff 6b 4e 3a bb 17 2c be 9c d5 42 be
       0.0006339677 0.0007874369 -0.16805927 -0.19026798
000300 5a 4f 21 be 74 fe 78 be 9e 65 08 3e 2c b7 16 be
       -0.15752926 -0.24315816 0.13320014 -0.14718312
000310 64 73 48 be b1 27 22 3e 9a f4 3f be 0e e9 1a 3e
       -0.19575268 0.15835454 -0.18745652 0.15127966
000320 c6 69 d9 3d 38 14 c5 bd ef 50 ab 3d 33 eb 94 3d
       0.10615878 -0.09622997 0.08365046 0.07271423
000330 63 19 00 3e 8e fc 9c 3d 43 c1 71 be 80 cc 89 be
       0.12509684 0.076653585 -0.2360888 -0.26913834
000340 4d bc af 3c 14 5a 23 be ce f1 fa 3d 21 a9 e4 3d
       0.021452093 -0.15952331 0.12253152 0.11165071
000350 b2 2a a3 3d f2 23 e2 3d 23 6d 99 be e8 c8 53 be
       0.07967128 0.11042012 -0.29966077 -0.20682108
000360 ac 1c 74 be 81 68 ad 3d 58 db 0f be 7f 49 73 be
       -0.23839062 0.08467198 -0.14048517 -0.23758505
000370 47 5c 1e 3e 54 a6 1f 3e 0f 0a 84 be d5 b9 58 be
       0.15464889 0.15590793 -0.25788924 -0.2116464
000380 2a 4c 81 be 56 d4 3a be 12 25 16 3e 7e c6 1b 3e
       -0.2525342 -0.18245062 0.14662579 0.15212438
000390 99 16 81 be 58 a7 1c be fb b0 e4 3d 13 2b 6a be
       -0.25212553 -0.15298212 0.11166569 -0.22867994
0003a0 6e 79 87 be 6a b2 9a be d1 75 01 3e ee 79 15 3e
       -0.2645983 -0.30214244 0.126426 0.14597294
0003b0 db ed e3 3d fe 50 a6 3c 71 3f 86 be 59 a0 0c be
       0.11129352 0.020302292 -0.26220277 -0.13733043
0003c0 ff e4 6f be c4 f4 dd 3d 54 b5 7c be c6 a0 e1 3d
       -0.23427199 0.10837701 -0.24678546 0.11016993
0003d0 71 b1 8d 3d 70 f9 53 be c0 b6 7f be bc 2e 95 3d
       0.0691861 -0.20700622 -0.24972057 0.072843045
0003e0 08 33 87 be 1b 52 e5 3d 70 89 9a be b8 c1 b2 3d
       -0.2640612 0.11197301 -0.30182981 0.08728355
0003f0 02 b2 95 be dd 8b 83 3d a4 e2 e9 3b 3d b6 ab 3d
       -0.29237372 0.06423161 0.0071376134 0.083843686
