net/np/t_0.0.weight.npy (npy, 704 bytes, 1 tensors)

array f4 [16, 1, 3, 3]
000000 c3 7b bd bf 9a e1 d2 be 8d a4 99 3e 5c dd 0d be
       -1.4803394 -0.41187745 0.30008355 -0.13853973
000010 d8 46 a8 3e a3 16 43 3e 7f 7c 3c 3f 55 09 77 3e
       0.3286655 0.19051604 0.73627466 0.24124654
000020 59 2a b1 3f fb 69 61 3f a4 70 a8 3f fe b0 0a c0
       1.3841048 0.8805234 1.3159375 -2.1670527
000030 5c dd 8a 3e 02 ec fe bf 23 f3 ca be 86 cd d8 bf
       0.2712201 -1.9915774 -0.39638624 -1.6937721
000040 30 dc 67 be f6 f1 0a 3f 60 2e 78 3f df 17 08 bf
       -0.22642589 0.54275453 0.9694576 -0.53161424
000050 75 04 07 3f 17 26 94 3f 52 bf b6 3f 49 0b dd 3f
       0.52741176 1.1574124 1.4277136 1.7269069
000060 96 e0 3f 3d c2 31 1d bf 5d 82 43 c0 97 92 2a 3f
       0.04684504 -0.6140405 -3.0548317 0.6662993
000070 b2 bb 95 3f c6 dc 01 40 c9 25 fb bf 59 4f 3c 3d
       1.1697905 2.0291 -1.9620906 0.04597411
000080 68 b7 25 bf 53 ec 8b bf 5e de a3 bf b0 cd 99 bf
       -0.6473298 -1.0931495 -1.2802236 -1.2015896
000090 71 8b d5 3e dc 43 b4 3f 97 f7 b4 3f bf b2 fb be
       0.41707948 1.4083209 1.4138058 -0.4915981
0000a0 a7 86 0d 3f 55 07 50 3f c1 da f0 bf 31 d9 14 c0
       0.5528359 0.8126119 -1.8816758 -2.3257563
0000b0 e7 c3 0f bf 39 a0 8d bf b3 49 35 c0 70 87 de 3f
       -0.561583 -1.1064521 -2.8326232 1.7385082
0000c0 e2 66 08 40 a1 d3 5f c0 a4 07 2a 3f 1f 12 12 40
       2.1312795 -3.4972918 0.6641791 2.282356
0000d0 8b ee fe bf 5d 01 02 bf 80 f3 09 be aa 7b 3d 3f
       -1.9916548 -0.5078333 -0.13471794 0.7401682
0000e0 4e e8 0a 3f 69 30 2b bf 4a 9c 94 be 3b a5 5b 3f
       0.5426072 -0.66870743 -0.2902549 0.85798997
0000f0 e8 fc 48 bf 93 9c a6 3e 91 a1 78 3f c2 2c 8f 3e
       -0.78510904 0.32541332 0.9712153 0.27963835
000100 ff f1 71 3e ff d0 47 3e d2 93 b0 3e dc f9 24 be
       0.2362747 0.1951332 0.34487778 -0.16110939
000110 20 b7 eb 3e 4f 3a fd 3e 2f 81 b3 3e 79 af 30 3f
       0.4603815 0.49458548 0.35059497 0.6901775
000120 bb db 1b c0 3a 22 a0 3e 6e ca 4b 3f a3 de 08 bf
       -2.4352863 0.31276113 0.7960576 -0.53464717
000130 1d 85 68 be 72 3f 8f 3f 3d 15 de bf e8 f1 ad 3e
       -0.22707029 1.1191237 -1.7350231 0.33973622
000140 3a 64 9a 3e 74 6c 7c 3d b6 6b 2a 3f 4b 02 d0 3e
       0.30154592 0.061626866 0.66570604 0.4062675
000150 2a c2 bd be e0 5d c0 3f 1c bb e1 be 9d 07 ed bf
       -0.37062198 1.5028648 -0.44088066 -1.8517948
000160 fa ac be bf 69 5c d3 bf 6b 60 86 c0 c7 22 10 3f
       -1.4896538 -1.6512576 -4.19927 0.56303066
000170 c9 c5 0d bf 0f 84 09 40 93 2e f9 3f 5b fb 28 3f
       -0.5537992 2.1486852 1.9467338 0.6600854
000180 ea 06 1a 3f e8 a3 30 bf 90 8c c8 bf 32 a4 21 3f
       0.601668 -0.690001 -1.5667896 0.6314117
000190 da ec 08 bf 64 21 de bf ca 03 2e 3f 7b 0e ba 3f
       -0.53486407 -1.735394 0.6797453 1.4535669
0001a0 2a bd b6 bf 92 99 f3 3d 24 14 86 3f ac c6 80 3f
       -1.4276478 0.118945256 1.0474896 1.006063
0001b0 07 25 92 3f 8d b6 61 3f 87 76 b7 bf ea 97 6a 3f
       1.141755 0.88169175 -1.4333047 0.9163805
0001c0 2b 89 b6 3d 2f e0 bc bf 2f 0f 35 bf e8 de 12 bf
       0.089128815 -1.4755915 -0.70726293 -0.5737138
0001d0 98 7a e8 bf 6b 74 5a 3f 8a 11 8c 3f 9f 1a fd bf
       -1.8162413 0.8533389 1.0942852 -1.9773749
0001e0 6c e1 87 3f 7c b5 8f 3e fa b4 9d bf d5 e2 83 3f
       1.0615668 0.2806815 -1.2320855 1.0303599
0001f0 fe c2 36 bf 4b de 24 bf e5 06 1d be ad 93 0e c0
       -0.71391284 -0.6440169 -0.15334661 -2.2277634
000200 97 dd e1 be 4a 72 7e bf 51 fb 08 3f e9 0d bc 3f
       -0.44114372 -0.9939314 0.5350848 1.4691745
000210 ff 12 c5 3f 8f 52 75 3f ef 7d 08 bf 51 84 e8 bf
       1.5396422 0.958291 -0.5331716 -1.816538
000220 95 2e d2 bd f9 4d 89 bf f5 3c 94 be 4e b0 91 bf
       -0.10262791 -1.072692 -0.28952757 -1.1381929
000230 07 0c c2 bf 56 b9 0f 40 d7 54 ae 3f f5 e4 b7 3e
       -1.515992 2.245687 1.3619641 0.35916868
