net/np/t_11.weight.npy (npy, 1408 bytes, 1 tensors)

array f4 [10, 32]
00000000: 3a27 a8bd a26e 96be 2cba 18bf 44c1 6cbd
00000010: 78d1 efbe 7ade 2fbf a586 14be 6fc1 a33c
00000020: 1f1e f5be 6618 dabc 8538 443e e193 e13c
00000030: 1751 bd3d 5819 353e c46d 1cbf 208c f8be
00000040: df41 1c3e 7283 063e d914 34bf d7cd c0bc
00000050: ebcc e0be 2fca 7bbd 3bff 923d 683f 0abe
00000060: 9db3 c73d ece1 633e fdca 26bf fc17 1c3d
00000070: 3981 683e 31c2 50bc 8044 4b3e 26e2 e6be
00000080: 0525 f2bd 2452 e3be 3c3d 7b3e 72f4 9c3d
00000090: 36fe 57be 013b 58be 08b6 b0bd 9c57 15be
000000a0: e4c2 b6be f2c3 13bd 29d6 b0be dc80 253d
000000b0: a261 13bd 9387 dfbe 833d 6f3e 27b2 83be
000000c0: efb7 88bd 7b24 20bf 0d33 813e 2d3e d9bd
000000d0: 8dea 563e c7ff 6dbd a3a8 053d 7c92 f0bd
000000e0: 725c f43d ed0c 593e 781d a3be afa5 53bc
000000f0: 5588 553e f0a7 873d 1da1 28bf a7d9 313e
00000100: 1538 1bbd b789 91be 98bf 6d3e 3cee 673d
00000110: 7e7b 2f3e b760 b6be e5d0 2f3b 90bf 743d
00000120: 123d b8be 4263 ec3d bdbc 2a3e 909f 7a3c
00000130: 3cb4 d83d 40c4 293e f687 6abe 6e94 873e
00000140: e595 0e3d 3505 b5be ae1e b7be ea9a 193e
00000150: b64f e9be 39bc 853d 1b86 2cbe fa2f 363d
00000160: a5b5 273e fd1d b2be 9f45 d4be 90e4 18be
00000170: 0d12 d2be a8c3 e33d a22c f3be 2357 2e3e
00000180: 8cbc 36bd 84e2 ebbe 49d5 453e 4f76 043e
00000190: 5edd 4d3e 7fb5 5f3e ff42 213e 2cda ad3d
000001a0: 18f4 e63d 01e7 eabc 6e86 1d3e bb2a d13d
000001b0: aa0e abbc d7b1 0f3e 3a1a 94be 9415 673e
000001c0: f1e9 e13d d278 ec3d 098e 1fbe 4b36 1bbe
000001d0: e48e 1c3e 48e3 173e 27fe c6bb b93b 36be
000001e0: d94b 2b3e 381a d8be da26 653e fccc 00be
000001f0: 4db4 96be 5cf2 ee3d fe20 bebe 3e9b 86be
00000200: 39ec d4bd 5266 953e f4db a6be b476 fe3c
00000210: 08b3 c3be dd24 743e daa9 773d 34f1 87bc
00000220: 6c6b 1a3e 671b a2bd 3e04 cdbe 70ea e1bd
00000230: 6cc2 293d 9b1d 08bf 7530 793e 1dab fcbe
00000240: dd62 b6bb af5a dabe 2bb2 73be bd03 99bd
00000250: 427d 2c3e 488d 1ebe f09d 3fbd 83b5 173e
00000260: 9037 c43d ea6a 6e3e 21b3 763e fc84 d83d
00000270: 4f47 c0be 2115 89bd f246 a73b d930 5dbe
00000280: feca f33d 5e9e abbd bd0a a4be b69f b13d
00000290: 7bd5 4c3e 356a 423e 9c0f 13be 7a16 da3d
000002a0: 90ba 5dbe ebdb 13be e03b 59be eea8 bebc
000002b0: 3828 c53d 4719 d23d 735e fbbe a0c2 6a3e
000002c0: 4644 f2bd 690e be3d c199 583e 653c d5bd
000002d0: 3103 363e cffd 3d3c 0f5b a63d 3418 22be
000002e0: fe54 ccbd 34c0 4c3e 6ad2 4a3e 9532 bc3d
000002f0: c85f 383e 4742 73bd af6c 3b3e 6579 25be
00000300: db58 8dbd 68ac 8a3e 479d d9be 793c 973d
00000310: 7b76 6c3e 4aa4 a6be d651 c8bd e5d5 20be
00000320: 9312 38bf 69db c43d c32f 283e ab6f 17be
00000330: eeb7 2ebe 7352 79be 387d fabe 448f 21be
00000340: 145f 993a 2c6f 77be 064d b9be 0d2d 8dbd
00000350: 312b 673e 0325 fbbd cf26 d53d d5f2 1bbe
00000360: a2c8 3dbd 8a90 6e3e a553 c0be 6975 a0bc
00000370: 2579 b93c 64ea 123e 4720 5a3e cbc1 343e
00000380: 9eff a0ba 342d 04bf 7af3 39be a9c7 973d
00000390: 4bde 733e a2a0 8abe d1c9 613d 880f a6bd
000003a0: 450e 243e d67a 18bd 022c 413e c473 2d3e
000003b0: 3d89 cb3d 4cf2 9bbe bdc5 813e d691 51be
000003c0: eabc ab3d b452 d8be 1ca4 743e 5a6c afbd
000003d0: 7e17 cdbe d954 83bd ebeb c23b 056a 03be
000003e0: e98d 773d b435 b9be 66e6 83be 2df0 2b3e
000003f0: 74ca c4be 44ed d93d 1709 bcbe 4851 bcbe
-0.08210607 -0.2938128 -0.59659076 -0.0578015 -0.468395 -0.6869885 -0.14504488 0.019989697
-0.47874543 -0.026622962 0.19162185 0.027536334 0.09243982 0.17685449 -0.6110499 -0.48544407
0.15259503 0.1313608 -0.7034431 -0.023535652 -0.4390634 -0.061472114 0.071775876 -0.1350075
0.097510554 0.22254151 -0.65153486 0.03810881 0.22705545 -0.012741611 0.1985035 -0.45094413
-0.11823467 -0.44398606 0.24535078 0.07663812 -0.21093068 -0.21116258 -0.0862847 -0.14584202
-0.35695565 -0.03607554 -0.3453839 0.040406093 -0.03598178 -0.43658122 0.23363309 -0.25721857
-0.066757075 -0.62555665 0.2523426 -0.10607562 0.20987912 -0.058105256 0.032631528 -0.1174669
0.11931695 0.21196337 -0.3185842 -0.01291792 0.20852788 0.066238284 -0.6587084 0.17368184
-0.03789528 -0.2842538 0.23217618 0.056623682 0.17136952 -0.35620663 0.0026827392 0.059753
-0.35984093 0.115423694 0.1667356 0.015296832 0.10581252 0.1657877 -0.22903427 0.2648043
0.03481092 -0.35355535 -0.35765594 0.15000501 -0.45568627 0.06530041 -0.16848032 0.044479348
0.16377886 -0.34788504 -0.41459367 -0.1493094 -0.41029397 0.11121303 -0.4749499 0.17025428
-0.044613406 -0.46071255 0.19319643 0.12935756 0.20103976 0.21846579 0.15748213 0.084888786
0.11277026 -0.028674604 0.15383312 0.10213228 -0.020881016 0.14032684 -0.2892626 0.22566825
0.11030949 0.11546482 -0.15581526 -0.1515743 0.15288883 0.14832795 -0.006072778 -0.1779622
0.16728152 -0.42207503 0.22378102 -0.12578195 -0.29434434 0.1166732 -0.37134546 -0.26290315
-0.103966184 0.29179627 -0.32589686 0.031062461 -0.38222528 0.23842187 0.060464717 -0.016594507
0.1508004 -0.07915383 -0.400423 -0.110310435 0.04144518 -0.53170174 0.24334891 -0.493493
-0.0055659846 -0.4264731 -0.23798434 -0.07471416 0.16844657 -0.15483582 -0.04678148 0.14815335
0.0958091 0.23282972 0.2409177 0.1057224 -0.37554404 -0.06693483 0.005104893 -0.21600665
0.11903952 -0.083798155 -0.32039443 0.086730406 0.20003311 0.18985827 -0.14361423 0.10648818
-0.21653199 -0.14439361 -0.21214247 -0.023273911 0.09626812 0.102587275 -0.49095497 0.22925806
-0.118294284 0.09280092 0.21152402 -0.1041191 0.17774655 0.011596157 0.08122837 -0.15829545
-0.099771485 0.19995195 0.19806829 0.09189335 0.18005288 -0.05938938 0.18303178 -0.1615959
-0.069017135 0.2708466 -0.42502806 0.07384581 0.23092072 -0.32547218 -0.09781234 -0.15706594
-0.7190334 0.09612162 0.1642447 -0.14788692 -0.17062351 -0.24347858 -0.4892366 -0.15777308
0.0011701309 -0.24163502 -0.36191577 -0.068933584 0.2257507 -0.12262919 0.10407793 -0.15229352
-0.046333916 0.23297325 -0.37563816 -0.019587236 0.022640774 0.14347225 0.21301375 0.17652051
-0.0012283211 -0.51631474 -0.18159285 0.07411129 0.23815267 -0.27075678 0.055124108 -0.08108431
0.16021068 -0.03722652 0.18864444 0.16938692 0.099382855 -0.30458295 0.25346175 -0.20465788
0.08385642 -0.42250597 0.23890728 -0.08565588 -0.40056986 -0.06412668 0.005948534 -0.12833412
0.06043807 -0.36173785 -0.25761718 0.16790839 -0.3843571 0.10640958 -0.36725685 -0.36780763
