net/np/t_3.0.weight.npy (npy, 18560 bytes, 1 tensors)

array f4 [32, 16, 3, 3]
-0.055757217 -0.081393324 -0.09035053 -0.06994903 -0.058138397 -0.03414872 -0.05945035 -0.018616645
0.020669939 0.01597328 0.028007532 0.009072154 0.041191377 -0.02598744 -0.056992147 -0.014166271
-0.043873794 -0.019508535 0.03450378 -0.0020921654 -0.01182559 0.040359747 0.043429203 -0.033330504
0.05900765 0.022212539 -0.10022214 0.03862649 -0.0056842198 0.044366088 0.07286541 -0.005863965
0.011856769 0.036874983 -0.038443796 0.049538657 -0.017368393 0.0046963347 0.006405282 -0.045008183
-0.023153774 0.02654642 -0.061615586 -0.09158259 -0.021393448 0.039760064 0.0243629 0.038737476
0.06311653 0.021543363 0.0029885601 0.04518104 0.031763505 -0.03172434 -0.07968012 -0.12090944
-0.07604255 -0.02915465 -0.08786305 -0.016231023 -0.0013691243 -0.026651762 0.040403027 -0.04674116
-0.045355383 0.028641798 -0.117516294 0.008506104 0.006519932 -0.10257457 -0.00975065 0.04230441
0.011356004 0.035876792 0.06637018 -0.049688525 0.007721965 0.018272996 -0.07177093 -0.022919957
0.041798912 -0.011461085 -0.049037118 0.0022694205 0.0028564048 -0.023349231 0.11758505 0.049969196
0.026013104 0.11777629 -0.055843547 -0.043995656 0.042955987 -0.04341073 -0.07380702 0.034305047
-0.03926348 0.016954962 0.0042348937 -0.022747096 -0.092857674 -0.049095225 -0.013815943 -0.08792154
-0.06574904 -0.062123585 -0.039826564 -0.005119362 -0.034884226 -0.08492896 -0.06754339 -0.019385984
-0.018712955 -0.048308596 -0.03623382 0.03899578 0.015416369 0.004228322 0.03450336 0.041475188
-0.005617638 0.021870531 0.033678852 0.047272474 -0.00086113764 0.07947821 0.07237602 0.08606774
0.03613643 0.14388506 0.047015324 -0.022773074 0.097037785 0.06383191 -0.07526418 -0.073467724
-0.0076487283 -0.059062686 -0.054589413 -0.059055407 -0.0502746 -0.034387805 -0.03896054 0.0062210783
0.06338686 -0.07271418 -0.13821673 0.03226288 0.037415557 -0.043632835 0.064865015 0.09053572
-0.010170306 -0.05273017 -0.06399979 0.013815066 -0.07236205 0.11431967 0.13006127 0.07821415
0.20329608 0.044641368 0.0078451885 0.007353408 0.045532577 0.066519104 0.024828749 -0.10600867
-0.07036364 -0.08571548 -0.100743935 -0.051488984 0.055152588 0.05171508 -0.08438097 0.12123806
0.052701488 0.096147045 0.18051194 0.034840893 -0.1085167 -0.060492396 0.03107708 -0.04788463
0.06790619 0.11596927 -0.039717007 0.10114237 0.015634662 0.06525795 0.05345345 0.102154106
-0.095783725 0.026879014 0.00065128994 -0.10923067 -0.11808514 -0.030325523 0.100611724 -0.034246873
-0.1830417 0.122178026 0.05345371 -0.060910482 0.09087736 0.0005416501 -0.023515368 -0.08806267
-0.00018611086 0.047901753 -0.06793892 0.08667847 -0.05674764 -0.096322946 -0.10317074 -0.059461575
-0.04116725 -0.021580797 0.084832065 0.016356604 0.12194487 0.07689314 0.012696462 0.17266631
0.0030333474 0.10406525 0.09089673 -0.010755253 -0.0025302696 0.04177061 -0.010918993 -0.19457784
-0.1665783 -0.07791768 -0.09578972 0.008853602 0.04089654 -0.016772514 -0.057776157 -0.035481542
0.11868665 0.05681914 -0.07727439 -0.019031152 0.012637579 -0.13267481 0.22362505 0.15039223
-0.08778552 0.15263161 -0.027016407 -0.14158335 0.19218636 0.15156576 0.07621381 0.041063175
00000000: ae61 64bd 8bb1 a6bd b309 b9bd 7041 8fbd
00000010: 8722 6ebd 87df 0bbd 3682 73bd ef81 98bc
00000020: 0154 a93c 65da 823c 0d70 e53c 5fa3 143c
00000030: 4ab8 283d 9de3 d4bc 9970 69bd a619 68bc
00000040: 02b5 33bd 5dd0 9fbc d653 0d3d b61c 09bb
00000050: 1fc0 41bc 4350 253d d2e2 313d 9185 08bd
00000060: 01b2 713d 12f7 b53c 4441 cdbd cf36 1e3d
00000070: b142 babb 37b9 353d 763a 953d 8126 c0bb
00000080: e542 423c 390a 173d 3e77 1dbd 0ce9 4a3d
00000090: 2948 8ebc b6e3 993b 66e3 d13b 805a 38bd
000000a0: fcac bdbc e177 d93c a060 7cbd a78f bbbd
000000b0: 5041 afbc 73db 223d b494 c73c 30ab 1e3d
000000c0: 3d43 813d b57b b03c b8db 433b c10f 393d
000000d0: 731a 023d 62f1 01bd 552f a3bd 5e9f f7bd
000000e0: 32bc 9bbd bcd5 eebc 8bf1 b3bd ecf6 84bc
000000f0: 3074 b3ba cc54 dabc a57d 253d a973 3fbd
00000100: 91c6 39bd 34a2 ea3c 62ac f0bd 305d 0b3c
00000110: 27a5 d53b 9e12 d2bd 31c1 1fbc 6447 2d3d
00000120: 880e 3a3c 8bf3 123d 17ed 873d 3286 4bbd
00000130: 8a08 fd3b 40b1 953c a3fc 92bd a2c2 bbbc
00000140: 5635 2b3d 46c7 3bbc 25db 48bd 8fba 143b
00000150: 8532 3b3b e346 bfbc 6ed0 f03d 80ac 4c3d
00000160: 6f19 d53c b234 f13d 34bc 64bd ca34 34bd
00000170: 9ef2 2f3d 73cf 31bd 2328 97bd 7383 0c3d
00000180: bed2 20bd 22e5 8a3c ddc4 8a3b 1e58 babc
00000190: 2a2c bebd 1318 49bd 445c 62bc 3510 b4bd
000001a0: 6fa7 86bd 4d75 7ebd 2e21 23bd 52c0 a7bb
000001b0: c3e2 0ebd 3cef adbd 3054 8abd 5bcf 9ebc
000001c0: e94b 99bc 3cdf 45bd ea69 14bd 0aba 1f3d
000001d0: f094 7c3c bc8d 8a3b 6553 0d3d e3e1 293d
000001e0: 2a14 b8bb d429 b33c d6f2 093d c8a0 413d
000001f0: f8bd 61ba 79c5 a23d e139 943d 4944 b03d
00000200: cb03 143d 9b56 133e 2493 403d 998e babc
00000210: bfbb c63d 4eba 823d 1b24 9abd 3f76 96bd
00000220: 2fa2 fabb b7eb 71bd 2699 5fbd 15e4 71bd
00000230: bdec 4dbd 3ada 0cbd 1695 1fbd 30da cb3b
00000240: f8d0 813d 2ceb 94bd b088 0dbe 1526 043d
00000250: 0e41 193d 58b8 32bd f3d7 843d cb6a b93d
00000260: 5ba1 26bc 97fb 57bd 5212 83bd 9658 623c
00000270: 8e32 94bd 6e20 ea3d c82e 053e be2e a03d
00000280: d92c 503e ded9 363d 1b89 003c dbf4 f03b
00000290: 5e80 3a3d 2b3b 883d a965 cb3c 131b d9bd
000002a0: d01a 90bd 998b afbd d652 cebd 1de6 52bd
000002b0: aee7 613d 31d3 533d eecf acbd a94b f83d
000002c0: 84dd 573d bee8 c43d 1fd8 383e 53b5 0e3d
000002d0: 013e debd e0c6 77bd 5c95 fe3c ac22 44bd
000002e0: 6712 8b3d 4c81 ed3d 4dae 22bd bb23 cf3d
000002f0: 4314 803c f6a5 853d 01f2 5a3d 2c36 d13d
00000300: 422a c4bd 6131 dc3c 54bb 2a3a 54b4 dfbd
00000310: 9fd6 f1bd 3b6d f8bc 850d ce3d 7346 0cbd
00000320: 496f 3bbe 7938 fa3d 47f2 5a3d 457d 79bd
00000330: e91d ba3d 86fd 0d3a 4da3 c0bc 335a b4bd
00000340: c126 43b9 a134 443d 8f23 8bbd 7b84 b13d
00000350: 3770 68bd f744 c5bd 2e4b d3bd fb8d 73bd
00000360: fe9e 28bd 36ca b0bc 6fbc ad3d 49fe 853c
00000370: 3bbe f93d 277a 9d3d d204 503c 70cf 303e
00000380: 20cb 463b 2920 d53d 1128 ba3d cd36 30bc
00000390: e1d2 25bb a917 2b3d 93e5 32bc 6a3f 47be
000003a0: 8093 2abe 4e93 9fbd 672d c4bd b30e 113c
000003b0: 2183 273d 8366 89bc b1a6 6cbd 1855 11bd
000003c0: fd11 f33d 30bb 683d 0942 9ebd 38e7 9bbc
000003d0: d90d 4f3c e8db 07be f7fd 643e 6c00 1a3e
000003e0: e5c8 b3bd 764b 1c3e 8351 ddbc 3afb 10be
000003f0: 80cc 443e 0e34 1b3e fc15 9c3d dc31 283d
