net/np/t_4.0.weight.npy (npy, 18560 bytes, 1 tensors)

array f4 [32, 16, 3, 3]
000000 9f 05 98 3d 2e a6 4b 3c 6f c8 58 3d a2 6f 0b 3c
       0.07422947 0.012429757 0.052925523 0.008510502
000010 0a aa b1 3b 30 35 4d 3c 0c 3c fd bd c3 f7 c3 bd
       0.0054218816 0.012524888 -0.12364969 -0.09568741
000020 e6 3e 15 3a 44 66 68 bc c0 83 62 bc 8a 14 4c 3d
       0.00056932715 -0.014184538 -0.013825357 0.049824275
000030 ca 28 ba 3c 04 ca 2b 3c 50 c6 fd 3c fb b0 62 bd
       0.022724528 0.010485176 0.030978352 -0.055344563
000040 8f f8 00 bd 5b 6c 8e 3d 18 dc 11 3d 68 b8 fa bc
       -0.031487044 0.06954261 0.03561029 -0.03060551
000050 4d fe 7b bc e0 d5 14 ba c7 c1 3f 3b 65 a6 60 3d
       -0.015380454 -0.0005677622 0.0029259787 0.054846186
000060 bc de 87 bc 6b 2c dd 3b ad 43 2e 3c 06 27 33 bd
       -0.0165857 0.00674968 0.010636252 -0.043738388
000070 d2 16 3d bd 2c 97 79 bd e5 f6 ad bb 72 4c ac bc
       -0.04616434 -0.060935184 -0.005308973 -0.021032546
000080 5f 4d 35 3d 9d 6d 26 3d 67 64 52 3d 0b d9 79 bc
       0.04426324 0.04063188 0.051365282 -0.015249501
000090 47 ba 41 bd 5d 39 40 bd 55 e7 93 bc fc 21 b1 3a
       -0.04729679 -0.046929706 -0.018054644 0.0013514156
0000a0 b3 25 05 bd 16 0b f2 3c a6 65 b0 3d b5 f2 db 3c
       -0.032506656 0.029546302 0.08613138 0.02684913
0000b0 e0 07 96 bb 1e 70 0d 3c 28 5b 8f bb 76 86 8c bd
       -0.0045785755 0.008632688 -0.0043748803 -0.06861584
0000c0 ab c5 bb bc be f1 2b bd e2 b4 e7 bc a4 a9 97 bb
       -0.022921404 -0.04197859 -0.028284494 -0.004628377
0000d0 cf c0 93 bd ba 8b 1b be 63 30 80 3c f1 9b 05 3d
       -0.0721451 -0.1519002 0.015648073 0.03261942
0000e0 50 3d 89 3c ea 52 2f 3c 59 5d e5 bb 5a b9 40 3c
       0.016752869 0.010700921 -0.0069996533 0.011762941
0000f0 83 b8 2e bd f4 c0 1d bd c0 ca 0a bd 08 bb a7 3c
       -0.042656433 -0.038514093 -0.033884764 0.020474926
000100 1f 63 88 bb e7 69 71 3d 1e 36 4c bc 51 7a cd bb
       -0.004162207 0.058938887 -0.012464074 -0.006270685
000110 04 19 1c 3d 91 45 73 bd 21 95 26 bd 33 2a 9d bc
       0.038109794 -0.059392516 -0.040669564 -0.019185161
000120 5c 35 5b bb 2e 44 cd 3c 71 91 4f ba c1 27 14 3d
       -0.0033448553 0.025056925 -0.0007918096 0.036170725
000130 75 aa a2 3c fc df b9 3c d7 fb c3 3b 33 54 85 bd
       0.01985667 0.022689812 0.0059809494 -0.065102
000140 f9 25 70 bd f3 74 5d bb a1 24 10 3d d4 31 98 bc
       -0.058629964 -0.003379163 0.035191182 -0.018578447
000150 d6 d7 e4 bc f8 ea 28 3c 18 22 84 3c 51 de b0 3d
       -0.02793495 0.010309927 0.016129538 0.086361535
000160 ef 1c e3 3d fc 60 ac 3d f6 4c 96 3d 64 89 0e 3d
       0.11089503 0.08416936 0.07338898 0.034798995
000170 bc 16 97 3a 2e 0c 08 be aa e1 b0 bc 86 fe 8b 3c
       0.0011527161 -0.13285896 -0.02159198 0.01708914
000180 49 0b db bd 39 0e 94 bd 66 ea eb bc b2 35 1d 3d
       -0.10695512 -0.07229275 -0.028798293 0.038381286
000190 2b 35 f5 3c 18 49 02 3d 0f 95 1d bc 04 f1 e3 ba
       0.029932579 0.03180799 -0.009618058 -0.0017390554
0001a0 0a c8 95 bd de 3a 77 bd bf d8 e2 bd 9f 5c da bd
       -0.07313545 -0.060358874 -0.11076497 -0.10662197
0001b0 27 01 ef 3c 45 67 2f 3c 33 b9 de bb a4 a8 1a bd
       0.029175354 0.010705774 -0.00679698 -0.037758484
0001c0 78 6e 9b 3b 92 e6 0b 3d 81 7a c1 bd aa 06 61 bc
       0.0047433935 0.034155436 -0.09447194 -0.013734499
0001d0 bb 20 e5 3c b0 2b 74 3d f2 87 77 3d d5 51 66 3b
       0.027969709 0.059611976 0.060432382 0.003514399
0001e0 73 58 a7 bc bf b6 55 bc 3f 77 8f bd 99 7c 85 bd
       -0.020427918 -0.013044058 -0.07005166 -0.06517906
0001f0 e9 c4 d4 bd e0 7e 33 bd bc 3c 3d 3d 88 2c 18 bc
       -0.1038912 -0.04382217 0.0462005 -0.009287961
000200 dc d8 87 3c 58 73 af bd b7 c2 16 bc f3 b9 a5 3c
       0.016582899 -0.08566922 -0.009201697 0.020230269
000210 58 2b b2 bd 9d 7d a1 bc 00 07 e4 3c d7 79 8f bc
       -0.086996734 -0.019713217 0.02783537 -0.017514152
000220 b4 7f af ba d0 8a 82 3b 81 f6 7c bd 2e f1 f1 3b
       -0.0013389499 0.003983833 -0.061758522 0.007383487
000230 c9 2f 71 bd 17 0b 35 3d 52 08 95 3d ca be 2a bc
       -0.058883462 0.04420003 0.072769776 -0.010421464
000240 5f cf 9d bb 32 6b 29 3c 7f b9 a2 bc ef 35 1e 3d
       -0.0048159803 0.010340499 -0.019863842 0.038625654
000250 9d a4 ac 3d af 14 aa bd bb fb 08 3d cf c5 15 bd
       0.08429835 -0.08304726 0.033443194 -0.036565598
000260 45 e8 8b bb 96 ac 10 3c 69 e4 b5 bb 2e 26 1a 3d
       -0.004269632 0.00883021 -0.0055509103 0.037634067
000270 8a 8b 0f 3d 1c 1b 08 3c ba b0 01 3d e3 e5 82 3d
       0.035045184 0.008307245 0.03166268 0.06391504
000280 4f 93 2b bc 54 f7 20 3b fb 25 60 bb 96 2a 55 3c
       -0.010472133 0.0024561482 -0.0034202326 0.013010642
000290 cd e2 f4 3c ab 29 33 bd ee b6 b9 3c 88 1f 5d 3b
       0.029893303 -0.04374091 0.022670235 0.0033740718
0002a0 4f 2e ef bb 18 2a 02 3b 94 c8 0e bd d7 16 46 bd
       -0.0072992216 0.0019861516 -0.034859255 -0.048361626
0002b0 ae da ba bd 90 c5 25 bd 3a dc a7 bd 53 62 06 be
       -0.09123741 -0.040471613 -0.08196302 -0.13123445
0002c0 78 64 be bd 14 5e 73 bd f8 bc c2 bc a6 d4 1c bd
       -0.09296507 -0.05941589 -0.023771748 -0.038288735
0002d0 7a 19 93 3c 84 59 6c bc 10 b5 1b bd 3e bf ee bc
       0.017956484 -0.014425639 -0.03801447 -0.029143926
0002e0 55 3f 42 bd 39 7b 50 bd 74 70 a7 bc 33 1c a4 ba
       -0.04742368 -0.050898764 -0.020439364 -0.0012520611
0002f0 55 6f c5 bc 2c f8 51 bd c0 2a a8 3b 78 5e 2b bd
       -0.024100939 -0.051262066 0.0051320493 -0.04183814
000300 6a f5 ac bc 11 f2 38 3c 85 b2 46 3c 55 64 25 bd
       -0.021113116 0.011288182 0.012127523 -0.040378887
000310 26 a3 f9 ba 23 9a e8 bc 92 34 d2 3c 1d 5b 96 3d
       -0.0019045814 -0.02839381 0.025659833 0.07341597
000320 85 ad 96 3b 57 ed ab 3d f8 ee 0b 3d 38 c5 7a bd
       0.004598322 0.08394878 0.034163445 -0.06122324
000330 b9 76 12 ba 2d 81 ee bb 11 3b 29 bd 91 52 88 ba
       -0.0005587149 -0.0072785825 -0.041316096 -0.0010400583
000340 0c e4 59 3d 70 c3 52 bc b8 34 d1 3c 8c 15 90 3c
       0.053195998 -0.012863979 0.025537834 0.0175884
000350 e6 87 34 bd d9 19 0c bd 7b 71 ab 3b b2 c5 72 3c
       -0.044074915 -0.034204338 0.005232034 0.014817642
000360 63 e2 03 3d 25 c4 6c 3d 22 b7 c7 3b 08 69 28 3d
       0.03219832 0.057804246 0.006094829 0.04111579
000370 ff b8 f9 3c f3 90 33 3d 88 d5 0c 3d 98 1b 80 3d
       0.03048372 0.043839406 0.034383327 0.06255263
000380 73 84 25 bc a9 f0 1a bd 44 7e 24 be 36 21 63 bd
       -0.010102379 -0.037827168 -0.16063792 -0.055451594
000390 77 e4 da bc 68 c2 ce bd 1d 7b ef bc 6d d2 dd bd
       -0.026720269 -0.10095674 -0.02923351 -0.10831151
0003a0 31 15 8e bd 83 3d 8f bd 2c 07 f2 3c 71 5f f6 bc
       -0.06937636 -0.06994154 0.029544435 -0.030074807
0003b0 d9 4e c3 3c ec ef 84 3d 40 04 16 3d 98 a8 a0 3b
       0.023841308 0.06491074 0.036625147 0.0049029104
0003c0 71 f4 f4 3d 4d ac 1a 3c c7 db 7f 3a c2 9e c1 bd
       0.11960686 0.009440494 0.00097602274 -0.09454109
0003d0 96 1b ea bc 2c 2e 2e bc 54 68 bf bc d7 ac 05 3c
       -0.028577607 -0.010631125 -0.023365177 0.008158884
0003e0 fa 48 94 3c a9 c8 47 bd 3f 8e fc 3c 24 82 93 3c
       0.018101204 -0.04877535 0.030829547 0.018006392
0003f0 0e 68 08 3d 12 a8 84 3d 62 74 7c 3d 8c c9 c9 3d
       0.03330236 0.06477369 0.06163443 0.09852895
