net/np/t_7.0.weight.npy (npy, 200832 bytes, 1 tensors)

array f4 [32, 1568]
0.018829735 -0.000285844 0.0050125555 -0.015713548 -0.026620567 -0.015614796 -0.0051980233 -0.017491164
0.016937315 -0.021748565 -0.023336163 -0.015391303 0.014468058 -0.017177308 0.01732992 0.00680919
-0.009612132 0.007023259 0.0061753984 -0.018828332 -0.011644377 0.018520713 0.008541289 -0.018504962
-0.013098298 0.008071817 0.006941806 -0.0038689123 -0.022080129 -0.02441605 -0.011680419 0.0033332454
-0.008713777 -0.026992928 -0.012290657 0.019184537 -0.02715568 -0.02543843 0.010247965 0.018809669
-0.03064515 -0.028650451 -0.013873318 0.019118099 -0.020114178 -0.0038253644 0.014759951 -0.014994132
-0.013812528 -0.023047958 -0.0051156837 0.016651688 0.0039251605 0.012957054 -0.007554082 -0.011059631
-0.010407628 0.0080628395 -0.010650211 -0.025090398 -0.013291211 0.003728463 0.018835684 -0.010670235
-0.027501218 -0.024419801 -0.02719144 0.0045276834 0.013003542 0.0015094345 0.0028255691 0.0102284085
0.0112679815 0.009398293 0.008415866 0.0010079974 0.007147753 -0.023275817 -0.022093691 0.00029885938
-0.001700322 -0.027942225 -0.024417501 -0.02614783 0.014071583 0.010362778 -0.019765608 -0.0019333072
-0.011761728 0.01592822 -0.029084459 -0.024142107 -0.027305506 0.008768793 -0.018478267 0.009266055
0.0027492906 -0.018595379 -0.012952403 -0.010050371 0.002889594 -0.016151529 0.0025337928 -0.0041375007
-0.015454947 -0.021854 -0.023248216 0.0075361175 -0.00018396277 -0.006376513 -0.020786395 -0.031907823
-0.014879432 -0.02522811 -0.030943964 -0.029528722 -0.022443622 -0.030708838 0.0018650505 0.0034619772
0.004146551 -0.030804077 0.009774708 -0.0010358429 0.0070279487 -0.012190993 0.005969266 -0.030377723
0.0026239068 0.013694479 0.0049254913 -0.029750898 -0.013234333 -0.009208627 0.0072208717 -0.015524928
-0.0025276009 -0.0143743185 -0.009976799 -0.00785195 -0.020634703 -0.02409489 0.014701806 0.015261592
-0.0061534434 0.015872974 0.013318256 -0.01029314 -0.0044881953 -0.023895469 0.002458349 -0.0052366084
-0.0095268525 0.024831677 -0.015990414 -0.019550974 -0.023776386 -0.018804738 0.01819771 -0.018381173
-0.013437209 0.0052645807 -0.025218315 -0.02096582 0.012320179 -0.01569324 -0.0064454214 0.004769772
-0.009581741 -0.0012313724 0.0029579487 -0.025311463 0.017154422 -0.029252686 0.01455856 -0.0131317675
-0.016913012 0.017788254 -0.03028477 -0.0041027823 0.010249491 0.027371855 -0.02734378 -0.0032764694
0.019561121 -0.030478448 0.00041626766 -0.020800661 0.010105066 -0.02802411 0.005850427 -0.011186019
0.009092304 -0.0041799913 0.0027769478 -0.00014103937 -0.027372008 -0.01808188 -0.0034754754 -0.025038559
0.016823363 -0.02247712 -0.01629634 -0.00906554 -0.02651861 -0.006210852 -0.018088078 -0.027266629
-0.005152225 0.016242355 0.00018944491 0.013566706 -0.005814652 -0.013240462 0.014120652 -0.019301679
-0.029217765 0.0017375028 0.015990634 -0.021053473 0.0028462713 -0.015033034 -0.008899208 -0.011556871
-0.011176806 -0.02593056 0.00037775512 -0.012472155 0.013445846 -0.0016540646 -0.026714284 -0.026270926
-0.019181965 0.00609425 -0.02230653 -0.017430047 -0.0013486545 -0.023559155 -0.016776636 0.01615565
-0.02003727 -0.014328212 0.012704691 0.0008399455 0.013562063 -0.028156487 0.005631479 -0.011824639
-0.022759296 -0.004650464 -0.018229922 0.011446093 0.0012184455 -0.031545155 0.015872536 0.01075035
00000000: d140 9a3c 55dd 95b9 5d40 a43b b3b9 80bc
00000010: 6013 dabc 34d5 7fbc 2e54 aabb a149 8fbc
00000020: 20c0 8a3c 0c2a b2bc 7b2b bfbc ce2b 7cbc
00000030: 6f0b 6d3c 6db7 8cbc 7af7 8d3c a01f df3b
00000040: 347c 1dbc 5e23 e63b ff5a ca3b e03d 9abc
00000050: 0fc8 3ebc c0b8 973c c3f0 0b3c b897 97bc
00000060: 3e9a 56bc a83f 043c 1778 e33b 948d 7dbb
00000070: 63e1 b4bc 2b04 c8bc 3a5f 3fbc 9472 5a3b
00000080: 3bc4 0ebc 4620 ddbc c05e 49bc e428 9d3c
00000090: 9775 debc 4164 d0bc 15e7 273c bc16 9a3c
000000a0: 8a0b fbbc 5ab4 eabc ea4c 63bc 8f9d 9c3c
000000b0: 7dc6 a4bc f7b2 7abb b9d3 713c f3a9 75bc
000000c0: f14d 62bc 12cf bcbc 77a1 a7bb 1f69 883c
000000d0: a29e 803b d349 543c 3c88 f7bb 7433 35bc
000000e0: c184 2abc 001a 043c 397e 2ebc 618a cdbc
000000f0: 61c3 59bc 3b59 743b 4b4d 9a3c 36d2 2ebc
00000100: 3c4a e1bc 090c c8bc 95c0 debc f65c 943b
00000110: cf0c 553c 38d8 c53a 2f2d 393b 0e95 273c
00000120: 579d 383c 4cfb 193c b3e2 093c c81e 843a
00000130: b337 ea3b edac bebc d4fd b4bc 3ab0 9c39
00000140: 57dd deba 18e7 e4bc 3607 c8bc f933 d6bc
00000150: 7f8c 663c a4c8 293c 7ceb a1bc 0667 fdba
00000160: 43b4 40bc e67b 823c 8842 eebc abc5 c5bc
00000170: ccaf dfbc fcaa 0f3c bc5f 97bc a7d0 173c
00000180: 712d 343b 5655 98bc 5136 54bc 50aa 24bc
00000190: 585f 3d3b 3650 84bc fd0d 263b df93 87bb
000001a0: bf36 7dbc 2907 b3bc 0b73 bebc 89f1 f63b
000001b0: 21e6 40b9 11f2 d0bb 3b48 aabc c7b1 02bd
000001c0: dcc8 73bc 2eab cebc 327e fdbc 38e6 f1bc
000001d0: b0db b7bc 1a91 fbbc b674 f43a 57e2 623b
000001e0: cadf 873b d558 fcbc 1926 203c 1fc5 87ba
000001f0: b54a e63b bbbc 47bc d599 c33b b4da f8bc
00000200: daf5 2b3b cf5e 603c 0466 a13b 28b8 f3bc
00000210: d1d4 58bc c8df 16bc 109d ec3b 455c 7ebc
00000220: 1ba6 25bb 4382 6bbc ba75 23bc 77a5 00bc
00000230: 1c0a a9bc a662 c5bc d8df 703c c20b 7a3c
00000240: d3a2 c9bb 0a08 823c d034 5a3c 8fa4 28bc
00000250: b611 93bb 6ec0 c3bc 411c 213b db97 abbb
00000260: 8416 1cbc cd6b cb3c 54fe 82bc 5d29 a0bc
00000270: b2c6 c2bc 650c 9abc 5d13 953c 1d94 96bc
00000280: bd27 5cbc 8182 ac3b a496 cebc 83c0 abbc
00000290: 93da 493c 1c8f 80bc 1d34 d3bb bf4b 9c3b
000002a0: bcfc 1cbc 0066 a1ba 25da 413b fc59 cfbc
000002b0: 6e87 8c3c 54a3 efbc 0787 6e3c a026 57bc
000002c0: 288d 8abc acb8 913c c417 f8bc a270 86bb
000002d0: 7bed 273c f13a e03c 1000 e0bc 09ba 56bb
000002e0: a53e a03c f0ad f9bc 803e da39 2666 aabc
000002f0: b88f 253c d192 e5bc f0b4 bf3b 9045 37bc
00000300: e3f7 143c 4ff8 88bb 74fd 353b f8e3 13b9
00000310: 433b e0bc 7320 94bc cdc4 63bb aa1d cdbc
00000320: 26d1 893c f021 b8bc e77f 85bc a187 14bc
00000330: 8e3d d9bc 6784 cbbb 732d 94bc 445e dfbc
00000340: ffd3 a8bb b00e 853c bba5 4639 e446 5e3c
00000350: d688 bebb 86ee 58bc 4f5a 673c 8e1e 9ebc
00000360: 185a efbc ebbc e33a cafe 823c 5578 acbc
00000370: 8288 3a3b 1d4d 76bc fccd 11bc 0859 3dbc
00000380: ec1e 37bc 536c d4bc 6f0d c639 0258 4cbc
00000390: f74b 5c3c 33cd d8ba ead7 dabc 2036 d7bc
000003a0: 7f23 9dbc 46b2 c73b 2fbc b6bc 75c9 8ebc
000003b0: 56c5 b0ba 21ff c0bc 286f 89bc db58 843c
000003c0: 3325 a4bc e0c0 6abc 5627 503c ca2f 5c3a
000003d0: 6a33 5e3c 6fa8 e6bc 4588 b83b 21bc 41bc
000003e0: b471 babc eb62 98bb eb56 95bc 6588 3b3c
000003f0: 3fb4 9f3a 7e35 01bd 1f07 823c 3c22 303c
