net/np/t_9.weight.npy (npy, 1408 bytes, 1 tensors)

array f4 [10, 32]
000000 6f 6b 1f be df d8 a3 bd 1e 3d 9d 3c bc ab 6b bc
       -0.15568326 -0.08000349 0.019194182 -0.014384206
000010 df 51 b9 be 67 5e 82 3e ab 79 dc bd e4 6b ea bd
       -0.36195275 0.25462648 -0.10765394 -0.1144636
000020 7b bd 80 be 91 65 1b 3e ac 92 dc be f5 64 55 be
       -0.25144562 0.15175463 -0.43080652 -0.20839293
000030 33 97 92 be f1 b9 7c be 34 25 6a 3d 73 83 ea bd
       -0.2863098 -0.24680306 0.057164386 -0.11450853
000040 fd 3c 58 be 85 4c 6c be 43 bc 02 3e 10 52 9b be
       -0.21117015 -0.23076065 0.12767129 -0.30336046
000050 4a cf 98 3c e5 64 a5 be 49 78 4a 3e 51 81 1d bd
       0.01865353 -0.3230354 0.19772448 -0.038453404
000060 83 6b bb bd 98 77 de 3d 9f 51 21 3e 87 23 22 3e
       -0.091513656 0.108626544 0.15753792 0.15833865
000070 8b 03 74 bd 86 84 34 3e ca f2 83 3e c7 c2 74 3c
       -0.05957369 0.17628679 0.2577117 0.014939017
000080 08 6b cb bd 7c d0 6e 3d 00 2a 10 3d 8b 15 b8 bd
       -0.09932524 0.058304295 0.035196304 -0.08988484
000090 30 79 21 3e 9f a8 2a 3e 90 43 25 bd ce 8a fc bd
       0.15768886 0.16665886 -0.040347636 -0.123311624
0000a0 65 8e c2 3d 28 c7 6f be 4e 5b 46 3e 1a c6 bd be
       0.09499816 -0.23415816 0.19370767 -0.37065202
0000b0 01 5b 18 3e 1b 84 3a be 73 62 8a be 1b 25 12 3d
       0.14878465 -0.18214457 -0.27028236 0.035679918
0000c0 ff 12 a7 3c 3d a2 5d 3e 41 ae 75 bd 46 81 27 3e
       0.0203948 0.2164392 -0.059980635 0.16357908
0000d0 ee 71 13 bb 45 9c 43 3e 2f da 3f be 87 5a ef 3d
       -0.0022498327 0.19102581 -0.18735574 0.116871886
0000e0 be 70 1d be 38 6f 86 be ef 8a 23 3e 6d 8a 14 bd
       -0.15375039 -0.26256728 0.15970968 -0.036264826
0000f0 8f b8 86 bd 76 2e c1 be 1a 83 6c 3e 82 f9 47 bd
       -0.065781705 -0.3773076 0.23096886 -0.048821934
000100 93 d5 d9 bc 0d be c2 3d f4 f3 b6 bd 10 2f a6 bd
       -0.026591098 0.095089056 -0.08933249 -0.08114445
000110 f2 f8 4b be 41 d8 39 be f9 57 79 be 9f c1 98 3d
       -0.19919184 -0.181489 -0.24349965 0.07458805
000120 6f 09 0e 3e 14 a1 e0 3c 7e d4 47 be 00 e7 4f be
       0.13870786 0.027420558 -0.19514653 -0.20302963
000130 5a 98 34 3e ec 69 59 3e d8 77 07 be 4a 19 f7 bc
       0.17636243 0.21231812 -0.1322931 -0.030163426
000140 31 d5 ac 3d e7 8f 80 be cd 24 92 3d 0c 12 0a 3e
       0.084391005 -0.2510979 0.071359254 0.13483447
000150 b2 d0 e8 bd f5 59 a0 bd 48 c0 ee 3d 35 c7 b0 3c
       -0.113679305 -0.07829658 0.116577685 0.021579364
000160 cf 03 c9 3c b8 08 87 be 08 ca 01 bd e0 9d 01 be
       0.024537949 -0.2637384 -0.031686813 -0.12657881
000170 f3 6b 94 3d 5b 4b ba 3d 33 f7 7b 3e 0a 05 55 3d
       0.07247152 0.09096404 0.24606018 0.05200676
000180 3f f2 fc 3d ce 70 e5 bc 37 f4 d2 3d 08 ef 06 3e
       0.12350892 -0.028007891 0.103004865 0.1317712
000190 c7 a6 4c be 25 91 5c bd 30 05 aa bd 72 a1 04 3e
       -0.19985496 -0.053849358 -0.08301771 0.12952211
0001a0 a1 b8 69 be ca 0e 53 be 0e c0 6c 3e 5c 77 ae bd
       -0.22824337 -0.2061111 0.23120138 -0.0851886
0001b0 dd be 57 3e c6 14 88 3e d0 a2 da 3d ab 5f 8f 3d
       0.21068902 0.2657835 0.10675585 0.07000669
0001c0 00 80 b8 3d e3 c3 61 be 12 05 76 bb 01 d5 32 be
       0.09008789 -0.22047381 -0.0037539643 -0.17464067
0001d0 98 74 bc 3d 86 d0 32 be 7c ed 9d be a3 fd 1f 3d
       0.09201926 -0.17462358 -0.3084525 0.039060246
0001e0 8f 3c ac 3b 49 95 68 3d 08 68 76 3d 50 ec 2c 3e
       0.0052562426 0.056782994 0.060157806 0.16887021
0001f0 02 bb c7 bd 53 82 3b be 88 2f 18 be 65 56 0c be
       -0.09752466 -0.18311433 -0.14861882 -0.13704832
000200 82 84 48 bd 68 0e a3 bd 18 8d 9a 3d 6a 3a e0 3c
       -0.048954494 -0.07961732 0.07546443 0.027371604
000210 09 73 5e 3e fe 54 30 be f6 82 82 be f0 26 ea be
       0.2172357 -0.17219922 -0.2549054 -0.45732832
000220 b2 9e 0e 3e b0 62 29 3e 47 77 71 3e 6c dd f5 3d
       0.13927725 0.16541553 0.23580657 0.120051235
000230 5e 1b a1 be 10 d0 37 bb d5 d5 95 be 03 27 9e bd
       -0.31466192 -0.00280476 -0.29264703 -0.07722285
000240 59 26 83 be d7 65 90 bd e3 a4 11 be db 3e 08 3e
       -0.25615194 -0.070506744 -0.14223056 0.13305227
000250 38 c7 81 bc 65 4e 78 3e 6a 1b 28 3e b9 1a ca 3c
       -0.015842065 0.24248655 0.16416708 0.024670945
000260 8f 6b 04 bd 70 21 7f 3c 64 44 20 3e 35 0e 0b 3e
       -0.03232914 0.015571937 0.15651089 0.13579638
000270 58 54 2b be ef a6 87 be 93 00 dc bd c1 20 c2 3d
       -0.16731393 -0.26494548 -0.10742297 0.094789036
000280 ae 5a 0e 3e a3 ee 25 3e d5 72 80 bd 1f 7a 0a 3d
       0.13901779 0.16204314 -0.062719025 0.03380787
000290 bf aa ef 3d 2b c9 38 3e 28 85 18 3e 16 3a df 3d
       0.11702489 0.1804549 0.14894545 0.10899751
0002a0 7c 44 25 be b0 6c 45 be e5 2e 40 be a7 b7 3a 3e
       -0.16139406 -0.19279742 -0.18767889 0.1823412
0002b0 72 f1 3e 3e b3 83 8d 3b 0b de af 3d 1a 9e 6e bd
       0.18646792 0.0043186783 0.08587273 -0.058256246
0002c0 d7 25 aa be 1f f1 61 be 8a b3 b8 bb d9 1f 8b be
       -0.33231995 -0.22064637 -0.005636637 -0.27172735
0002d0 31 55 0d be 43 d3 75 3e ef e6 65 be f3 9d d7 bb
       -0.13802029 0.24006371 -0.22451375 -0.0065801083
0002e0 65 c9 29 3e d8 47 ae 3d 18 0f ef bb bc 0a 10 3e
       0.16580732 0.08509797 -0.0072955005 0.14066595
0002f0 4f f9 ce 3d 19 0a 19 be ca b1 21 be 3a fe 34 be
       0.101061456 -0.14945258 -0.15790477 -0.17675105
000300 cc 24 e8 3d d6 b1 da 3d 59 d0 10 3d 5a ba 3a bc
       0.113351434 0.10678451 0.035354946 -0.011396969
000310 67 d5 90 be 96 b6 5c 3e c2 94 2c 3e 27 6b d0 be
       -0.28287813 0.21554026 0.16853622 -0.4070675
000320 f3 87 79 3d 87 66 8a be 95 81 8c be 5b f4 37 3e
       0.060920667 -0.27031347 -0.27442613 0.17964308
000330 18 9a 1f bd ea 3f 54 3e d6 b7 71 be 9a 7e 0c 3e
       -0.038965315 0.20727506 -0.23605284 0.1372017
000340 6a f8 fb be 67 ad 55 3e bb 08 a0 bc be 21 98 3d
       -0.49212962 0.20866929 -0.019535413 0.07428311
000350 f1 ed af bd 99 e6 8f be 60 18 28 3e b6 39 54 bd
       -0.085903056 -0.2810562 0.16415548 -0.05181285
000360 d8 07 0d be 14 be c6 3d c0 4d 43 3d 87 a1 4b bd
       -0.13772523 0.09704223 0.04768157 -0.04971459
000370 48 99 c0 bd c3 6f 47 bd 7d 17 7c bc e7 49 19 3e
       -0.09404236 -0.04869057 -0.015386459 0.14969598
000380 1a f8 e7 bc 6e f6 1a be d3 69 df bd 9c 09 28 be
       -0.028316546 -0.15133068 -0.10908856 -0.16409916
000390 d7 e4 79 bd 22 8a 88 be 2c 64 c8 be ed 29 a4 3d
       -0.061009254 -0.26667887 -0.39138925 0.08015809
0003a0 61 df 07 bd 93 e1 1c 3e 04 47 35 3e 02 e3 3f be
       -0.033172015 0.15320425 0.17702872 -0.1873894
0003b0 9c 65 14 be 2c f8 4d 3d db 35 a7 3d 78 83 c3 bc
       -0.14491886 0.050285503 0.08164569 -0.0238664
0003c0 7e dc b8 3d ba 28 37 3e 75 d3 e4 3c 4d f0 30 3e
       0.090264305 0.1788663 0.027932862 0.17279167
0003d0 e4 52 14 be c0 09 86 3e 6a ba 58 be 56 f6 ab 3d
       -0.14484745 0.26179314 -0.21164861 0.08396594
0003e0 9a 3b 8a bc 0b 38 bf be 92 94 a4 3d d4 d2 29 be
       -0.016874123 -0.37347445 0.0803615 -0.16584331
0003f0 1b 0b ed 3d 35 08 fe 3d 2b 1b 1f be f6 c1 62 bd
       0.11574384 0.12403909 -0.15537708 -0.055360757
