net/np/t_9.0.weight.npy (npy, 200832 bytes, 1 tensors)

array f4 [32, 1568]
00000000: 710f 5c3c aabf 993c 3c8b 48bc 9df5 80bc
00000010: bb80 c3bc 2d1f 9d3c d61b 0fbc 7e1d 32bc
00000020: ecb3 e03c bd7f 4f3c f9ec 74bc 9514 5e3c
00000030: 3387 24bc 88b4 8f3c 59a6 b9bb 47b6 833c
00000040: f03f 9f3b 06f3 1d3c 55c5 613c 13ba ffbb
00000050: 94e8 f73b 95a5 6bbb 4102 863c 3d51 ab3b
00000060: ce8f b13b ae57 373c 27cb c93b c3aa ccbc
00000070: 48d6 55bc 0ca7 9039 42e0 ae3a 45d8 dc3b
00000080: 62b9 9abc 1f74 8dbc 278c 173c 23df 453c
00000090: febd 84bc 8f17 163b d247 bfbc 37ca 65bc
000000a0: e3fa dabc 78ba 2d3b 9f63 94bc 096e d3bc
000000b0: f066 6e3c 92e3 34bc f1cf 8abc 90a0 823c
000000c0: ca0f 6fbc 5782 75bc 407a 9cb9 5d64 ae3c
000000d0: 3dae 26bc 5a92 5cbc bb0c 96bc 4098 c4bb
000000e0: 3688 85bc f565 5cbc 9145 e4bc 7e80 e2bc
000000f0: b084 713c c842 b0bc 22f6 67bc 6b4c b9bc
00000100: 538e 39bc 8dc8 edbc 3698 5b3c ea5e 53ba
00000110: e78a a73c 056a 8fbc 3062 6bbc d098 143b
00000120: 28af 8f3b 0aeb 34bc c938 67bc f135 513c
00000130: 107e 6e3b 40be 283b 78ac 843c ddfc 1abc
00000140: e031 73b9 30da 12bc bd84 7fbc 98d2 133c
00000150: 9431 9c3b 62c3 63bc 1d5a 003c fd37 28bc
00000160: 8568 093c 56b7 d4bc 7017 fb3b 6029 25bc
00000170: 6c1f 9c3c d8a3 8d3c e23e 47bc 62a6 4b3c
00000180: 28fc 6ebb 121b 913c 076a b9bc 787e b3bc
00000190: 4e61 a93a 3c52 17bc ea04 26bc 1766 583c
000001a0: e731 3c3c 9b65 3fbc 96e7 c93a 3212 afba
000001b0: 6c65 733b 2352 2d3c b489 62bb e102 3f3c
000001c0: 5386 5f3a 7565 823b 2e32 713c e392 1bbc
000001d0: 3e2c b4bc 0111 95bb 6584 1e3c 31e6 293b
000001e0: a897 213c 242f 10bc 27a0 2e3b 9563 49bb
000001f0: bafb 8dbc 2197 e0bc 0f2b 18bc 24a1 ed3b
00000200: 5514 87bc 3e4e 75bc 7da0 193c 53c2 873c
00000210: 9889 2dbc 40d7 89bc bc5e 213c 0389 8f3c
00000220: 16fb f73b af59 fabc 496e 87bc 188e 643b
00000230: c8bd f83b 5db7 563c ade6 a0bb acc9 ffbc
00000240: 75a7 c6bb bebe 413c 5b2b d7bc 3539 49bc
00000250: 37cb c3bc 0f3f d5bb 4247 b2ba f185 173c
00000260: 95f8 c4bb 4c1f aebc f22f 983c 1efb 98bc
00000270: 36f0 013c a910 8b3c ab5d 69bb 462d 44bc
00000280: 4510 da3b 07fc 923c fe21 603c 86c2 fc3b
00000290: ca5f 9e3c b4d0 1cbc 530f a13b 1daf 353c
000002a0: 0206 8c3b 44e4 ddbb b8ae bb3a 9b90 cebc
000002b0: 4d86 95bc af94 b7bc 00c3 bfbc 7f54 5d3b
000002c0: fa34 acbc 98c3 99bc a2f9 7ebc 4449 b8bc
000002d0: 67dc adb9 ceb4 13bc 47f8 9b3c 3f48 1bbc
000002e0: 6060 1e3c aa08 7cbc 2ef9 b9bc de30 fdbc
000002f0: 4f74 4e3c 8904 66bc c564 f8bc 31a0 1c3b
00000300: 8ee7 bfbb c4ab cdbc 53ff cdbc 55ff ebbc
00000310: 6e79 debc 49a4 c7bc 3dcc 79bc 2267 3b3c
00000320: ee1b 67bc 51a7 cfbc 0815 de3b dba6 53bc
00000330: 7a5e 13bc 5ad3 25bc b380 983b d224 473b
00000340: 82db 0c3c ab91 fcbc f394 87bb 9477 5a3a
00000350: 4746 8d3c b5c7 8bbc 6882 c3bc bdc5 c2bb
00000360: 4096 993c 6e30 923c 14f7 1f3c dc33 70bc
00000370: aa20 583c 83c0 193c fcd3 193c bbe7 1ebc
00000380: ca5a ac3b f47a 97bc d056 e6bc f683 003c
00000390: a219 d6bb 3783 343c 8f21 20bc 1043 58bc
000003a0: a48b 943c 7467 093b ed48 78bc fdad 5dbb
000003b0: 68d2 78bc b069 a43b 1626 f1bc 95aa 813b
000003c0: ff14 a13a 16cb 0b3c 55cb a4ba 4a13 80bc
000003d0: 0e5a cdbb 3f56 883c 7030 fc3a d466 2a3b
000003e0: ee6c 98bc a88c c0bc d110 ab3b ba00 5fbb
000003f0: c8cd 8c3b 897b 45bb 125a c83b 8d8a 93ba
0.013431416 0.01876815 -0.012240227 -0.015742118 -0.023865094 0.019179905 -0.008734664 -0.010871289
0.027429543 0.0126647325 -0.014949077 0.013554712 -0.010042 0.017542139 -0.005665582 0.016078128
0.004859917 0.009640461 0.013779958 -0.007804164 0.0075655673 -0.003595685 0.016358497 0.00522819
0.005418754 0.011190338 0.006158251 -0.02498377 -0.013051577 0.0002759028 0.001334198 0.0067396485
-0.018887226 -0.017267285 0.0092497235 0.012077126 -0.016203877 0.0022902226 -0.023349676 -0.014025263
-0.02673096 0.002650885 -0.01811391 -0.025809305 0.014550909 -0.011040585 -0.016944857 0.015945703
-0.014591167 -0.014984689 -0.00029845722 0.021288091 -0.010173378 -0.013462627 -0.018316617 -0.005999595
-0.016300302 -0.013452043 -0.027865203 -0.02764916 0.014741108 -0.021516219 -0.014157804 -0.022619447
-0.011325437 -0.029026294 0.013402989 -0.00080631545 0.020451976 -0.017506609 -0.014366671 0.002267409
0.004384894 -0.011042366 -0.01411266 0.012769208 0.0036391057 0.0025748163 0.01619552 -0.009459701
-0.00023192866 -0.008963153 -0.015595612 0.009022377 0.0047666524 -0.013901563 0.007833985 -0.010267255
0.008386736 -0.025966328 0.007662706 -0.010080665 0.019057952 0.01729004 -0.0121609885 0.0124298055
-0.0036466215 0.017713103 -0.022633566 -0.021910891 0.0012922676 -0.009235915 -0.010133008 0.013207934
0.011486507 -0.0116819395 0.0015404101 -0.0013356863 0.003713931 0.010578665 -0.003456694 0.011658401
0.0008526791 0.00397938 0.014721436 -0.00949547 -0.021993753 -0.004549146 0.00967512 0.0025924558
0.009862818 -0.008800302 0.0026645751 -0.0030729522 -0.017331947 -0.027415814 -0.00928761 0.0072518755
-0.016489187 -0.014972268 0.009376642 0.016572153 -0.010591887 -0.016826272 0.009849247 0.017521387
0.0075677736 -0.030560343 -0.01653208 0.0034874734 0.007590983 0.013105241 -0.004910311 -0.031224094
-0.006062443 0.011825262 -0.02626579 -0.012281706 -0.023900611 -0.0065077613 -0.0013601559 0.009248243
-0.0060110786 -0.021255158 0.01857755 -0.01867443 0.007930806 0.016975718 -0.003560881 -0.011973685
0.0066547715 0.017942442 0.013679979 0.0077136187 0.019332785 -0.009571243 0.004915157 0.011089114
0.004273177 -0.006771596 0.0014319038 -0.025215438 -0.018252516 -0.022409765 -0.023408413 0.0033772287
-0.021021355 -0.018770024 -0.015562447 -0.022495873 -0.00033161344 -0.009015275 0.019039286 -0.009477674
0.009666532 -0.015382925 -0.022701826 -0.03090709 0.012600972 -0.014039167 -0.030321488 0.0023899192
-0.005856461 -0.025106318 -0.025146162 -0.028808275 -0.027157512 -0.02437033 -0.015246448 0.011438163
-0.01410578 -0.025348337 0.0067774095 -0.012918199 -0.008994693 -0.010121191 0.004654014 0.0030386937
0.008597257 -0.030831179 -0.004137629 0.00083338586 0.017245425 -0.017063001 -0.023865893 -0.0059439824
0.018748403 0.017845359 0.009763498 -0.014660802 0.0131913815 0.009384277 0.00938892 -0.009698804
0.0052598463 -0.018491246 -0.028117567 0.007843962 -0.0065338174 0.011017612 -0.009773626 -0.013199583
0.018132992 0.0020966204 -0.015154106 -0.003382563 -0.0151868835 0.0050174817 -0.029437106 0.0039571025
0.0012289583 0.008532306 -0.0012572805 -0.015634198 -0.006266839 0.016642688 0.001924051 0.0026001232
-0.01860663 -0.02350457 0.0052205105 -0.0034027533 0.004296992 -0.0030133447 0.006114253 -0.0011256501
