net/tflite/mnist_model.tflite (tflite, 224644 bytes, 8 tensors)

KerasEggNet/conv2d_1/Conv2D/ReadVariableOp f4 [1, 3, 3, 16]
0	0xbf0e5b01	-0.5560761
1	0x3e2a6f12	0.16643932
2	0x3da46e2f	0.08028828
3	0xbf858722	-1.0431864
4	0xbfcda4a0	-1.6065865
5	0x3f16b7ce	0.58874214
6	0xbf541bc2	-0.82854855
7	0x3e9f61ba	0.31129247
8	0xbeceb432	-0.40371853
9	0xbf85f5f0	-1.0465679
10	0x3ebce3c7	0.3689253
11	0xbed525f2	-0.41630512
12	0x3f42b8c4	0.7606318
13	0xbeabc7ee	-0.33550972
14	0x3f086acc	0.5328796
15	0x3f44e7fd	0.76916486
16	0xbf348357	-0.7051291
17	0xbc0a2099	-0.008430623
18	0x3edc43ad	0.43020383
19	0x3ea99199	0.33118895
20	0xbe7129e5	-0.23551138
21	0xbe0ec1d0	-0.13941121
22	0xbefe31f2	-0.4964748
23	0x3dfec2ab	0.12439474
24	0xbf33233b	-0.6997563
25	0x3efb65b0	0.4910102
26	0x3f167766	0.5877594
27	0x3ee2447d	0.44192877
28	0x3ed73864	0.4203521
29	0xbf30cb8c	-0.6906059
30	0xbe3444e1	-0.176044
31	0x3eced332	0.40395504
32	0xbf68cf9f	-0.90941805
33	0x3ee90050	0.4550805
34	0x3e297c3f	0.16551302
35	0x3ec956e8	0.39324117
36	0x3f4442d3	0.76664466
37	0xbf16a01f	-0.58838075
38	0xbf9a30c9	-1.2046138
39	0x3e8c1b86	0.2736475
40	0x3dd1f05f	0.10250925
41	0x3f1da2cb	0.6157653
42	0xbf8a9fbc	-1.0829997
43	0x3f32f557	0.6990561
44	0x3f1e38a3	0.6180517
45	0x3d251ebc	0.040312514
46	0xbf6dadcf	-0.92843336
47	0xbfdaea07	-1.710267
48	0xbf36a5ef	-0.71346945
49	0xbdfde714	-0.1239759
50	0xbf07b6ba	-0.53013194
51	0xbec5138b	-0.38491473
52	0x3f149117	0.5803389
53	0x3e6c323d	0.2306604
54	0x3c39270c	0.011300813
55	0x3e2dfe03	0.16991429
56	0xbf156add	-0.58366185
57	0xbf4010ce	-0.7502564
58	0xbdc8baee	-0.09801279
59	0xbf8716a1	-1.0553781
60	0xbdcf271f	-0.10114884
61	0xbed77dde	-0.42088217
62	0x3efa856d	0.4892992
63	0xbef335b9	-0.47501925
64	0x3e0e921c	0.13922924
65	0xbe5e0221	-0.216805
66	0x3f1d3b70	0.6141882
67	0x3db9d250	0.09073317
68	0x3f3cc1ab	0.73733014
69	0x3ef23245	0.47303978
70	0x3e48ad27	0.19597302
71	0x3d48105d	0.04884373
72	0x3d4ef5bd	0.050527323
73	0x3f24b4d6	0.64338434
74	0xbfbabb12	-1.4588339
75	0xbfc1e350	-1.5147495
76	0xbdb6ea7e	-0.089314446
77	0x3f170cfb	0.5900418
78	0xbda3e0ea	-0.08001883
79	0x3fa3acb6	1.2787082
80	0x3e99c691	0.30034307
81	0x3e0bb65d	0.13643785
82	0xbf6a7bac	-0.9159496
83	0x3e82f0e3	0.25574407
84	0xbcb969ca	-0.022633452
85	0xbf58119d	-0.84401876
86	0xbe03c205	-0.12866981
87	0x3dc7efdb	0.09762546
88	0x3f144773	0.5792152
89	0x3e190248	0.14942276
90	0xbea93a44	-0.33052266
91	0xbf1b787b	-0.60730714
92	0x3d33e55f	0.043919917
93	0x3f4f3b84	0.8095019
94	0xbf2eaccc	-0.6823242
95	0xbe03d4d3	-0.12874155
96	0xbf2d99dc	-0.67812896
97	0x3f146eca	0.5798155
98	0xbf6fbaca	-0.9364439
99	0xbf27c543	-0.6553537
100	0x3e27702b	0.16351382
101	0x3e422071	0.18957688
102	0x3f2d825a	0.67777026
103	0xbebc4245	-0.3676931
104	0xbf2a0346	-0.66411245
105	0xbf6aa7d6	-0.9166235
106	0xbf9cf125	-1.2261091
107	0x3f32d91e	0.69862545
108	0xbf1b4d76	-0.6066507
109	0x3e81a78e	0.25323147
110	0xbf463deb	-0.7743823
111	0xbf16f5a6	-0.5896858
112	0x3e8cfec9	0.27538136
113	0x3e06182a	0.13095155
114	0xbf691d28	-0.91060114
115	0x3e4b4e1e	0.19854018
116	0xbdd59bf7	-0.104301386
117	0xbebd53e6	-0.36978072
118	0x3e81c314	0.25344145
119	0xbe25f6f8	-0.16207492
120	0xbf081aee	-0.5316609
121	0xbf8b637d	-1.0889736
122	0x3e840ad8	0.25789523
123	0x3ef4e8da	0.47833902
124	0xbf1939b5	-0.5985368
125	0x3eb2de7b	0.34935364
126	0xbf387fd6	-0.7207006
127	0xbe2edfd4	-0.17077571
128	0x3f204788	0.6260915
129	0x3e302a42	0.1720362
130	0xbe7213f6	-0.23640427
131	0x3efde5d9	0.49589422
132	0xbf9e7dc5	-1.2382132
133	0xbf6450b7	-0.8918566
134	0x3ea91b95	0.33028856
135	0x3f0496cc	0.517926
136	0x3ebb3df8	0.36570716
137	0xbe9daec4	-0.30797398
138	0x3f15b75c	0.5848291
139	0xbf80c169	-1.0059024
140	0xbf0c2251	-0.5473986
141	0xbebe39b1	-0.3715339
142	0x3d8f5658	0.06998891
143	0x3f85fa6c	1.0467048

KerasEggNet/conv2d_1/Conv2D_bias f4 [16]
0	0xbc418e80	-0.01181376
1	0xbf343292	-0.70389664
2	0x3e0e72c8	0.13910973
3	0xbe439dfb	-0.19103234
4	0x3cd5ef50	0.02611509
5	0xba8a2d00	-0.0010541975
6	0xbd41cda8	-0.04731527
7	0xbf310a52	-0.6915637
8	0x3cb6f5a0	0.02233392
9	0x3ddb53c4	0.107093364
10	0x3e521674	0.20516378
11	0x3e78c8ea	0.24295393
12	0xbe381ae2	-0.17979005
13	0xbecf91b0	-0.40540838
14	0x3e3941a2	0.18091443
15	0xbf972f46	-1.1811302

KerasEggNet/conv2d_2/Conv2D/ReadVariableOp f4 [32, 3, 3, 16]
0	0xbedc3d02	-0.43015295
1	0xbd34a841	-0.044105772
2	0xbea37f79	-0.3193319
3	0xbdff2fc8	-0.124602854
4	0x3e0754c5	0.13215931
5	0x3e9dd88d	0.30829278
6	0xbd2a5bca	-0.041591443
7	0xbd82fa06	-0.063953444
8	0xbd33cec9	-0.043898378
9	0x3ebeec98	0.37289882
10	0xbe59a5f5	-0.21254714
11	0x3c07c726	0.008287227
12	0x3e4fe936	0.20303807
13	0xbd753308	-0.05986312
14	0xbda35a9a	-0.07976265
15	0x3e9c5ce2	0.30539614
16	0xbf41217b	-0.7544171
17	0xbddf67da	-0.1090848
18	0xbe901d5d	-0.28147402
19	0xbd0c9c43	-0.03432871
20	0x3d9aacd5	0.07552496
21	0x3e0e68a8	0.1390711
22	0xbd7947ba	-0.06085942
23	0xbdeb413a	-0.1148705
24	0x3d56dcf2	0.052456804
25	0x3ee7c351	0.45266202
26	0xbf0f730f	-0.5603494
27	0xbd80ebd5	-0.062949814
28	0x3d64c510	0.055851996
29	0xbe272422	-0.16322377
30	0xbef19bf2	-0.4718929
31	0x3f13f436	0.5779451
32	0xbf13616b	-0.57570523
33	0xbdaa89a4	-0.08327034
34	0xbed05f39	-0.4069765
35	0x3e9cf670	0.30656767
36	0xbe02375e	-0.12716433
37	0x3ddef386	0.10886292
38	0x3d044c1a	0.03229914
39	0x3dffb282	0.124852195
40	0x3e2f89e1	0.1714244
41	0x3f10c128	0.56544733
42	0xbf2e8238	-0.6816745
43	0xbd186fca	-0.037215985
44	0xbed2e2f5	-0.4118878
45	0xbe1a6c18	-0.15080297
46	0x3cd92f64	0.026511855
47	0x3e93992a	0.28827792
48	0x3e48b91a	0.1960186
49	0xbdf06baa	-0.11739285
50	0x3a182bab	0.0005804847
51	0xbe140b4e	-0.14457437
52	0x3e79ef31	0.2440765
53	0xbd463fca	-0.048400678
54	0xbca2837b	-0.019838085
55	0xbe74c002	-0.2390137
56	0xbe3cd1ca	-0.18439403
57	0xbd1fe084	-0.039032474
58	0xbb8c4ed5	-0.0042818584
59	0xbaed5c4b	-0.001810917
60	0xbc8afdf0	-0.01696679
61	0x3e96f679	0.2948492
62	0xbe8bb35e	-0.27285284
63	0x3e36bf29	0.1784636
64	0xbe9458a9	-0.28973892
65	0x3c49847c	0.012299653
66	0xbee171fe	-0.44032282
67	0x3d936364	0.07196692
68	0x3e686619	0.22695197
69	0x3dc09482	0.094033256
70	0xbe5afc39	-0.21385278
71	0xbd794c63	-0.060863864
72	0xbea6f660	-0.32609844
73	0x3da9435d	0.08264802
74	0xbe408053	-0.18798952
75	0xbe8cf7bc	-0.27532756
76	0x39cf176f	0.00039499576
77	0x3e50d534	0.2039383
78	0xbcb6a0fe	-0.022293564
79	0x3eb93bcf	0.36178443
80	0xbf3e4202	-0.7431947
81	0x3ecf3a23	0.40474042
82	0xbf426a29	-0.7594324
83	0x3e9d2913	0.306954
84	0xbdabdb2b	-0.08391412
85	0xbe20e7cc	-0.15713423
86	0xbf1697ec	-0.58825564
87	0x3da257f6	0.079269335
88	0x3e0c18d5	0.13681348
89	0xbdc4a421	-0.096016176
90	0xbea88885	-0.32916656
91	0xbf13815d	-0.5761927
92	0xbec3908f	-0.38196227
93	0xbe2a4d3f	-0.1663103
94	0x3e5fbe6c	0.21849984
95	0x3e8766a4	0.26445496
96	0x3e143787	0.14474307
97	0xbd62742b	-0.055286568
98	0xbe46f0b7	-0.19427763
99	0xbe063a47	-0.13108169
100	0x3da41543	0.08011868
101	0xbc92d229	-0.017922478
102	0xbb436944	-0.0029817382
103	0xbe4cd5f0	-0.20003486
104	0x3adaa42e	0.001668101
105	0xbe971c9b	-0.29514012
106	0x3e8946c4	0.26811802
107	0xbe8a3e02	-0.27000433
108	0x3d93f748	0.072248995
109	0x3e1018d6	0.14071974
110	0xbda09ddf	-0.078426115
111	0x3d0bd981	0.034142975
112	0x3eb63198	0.35584712
113	0xbd842c61	-0.06453777
114	0xbd7e8a89	-0.062143836
115	0xbe895893	-0.2682539
116	0x3e457167	0.19281541
117	0x3db77ff7	0.08959954
118	0xbcd30997	-0.025761409
119	0xbdae3563	-0.085062765
120	0xbedebcce	-0.43503422
121	0xbeeeb3f1	-0.4662166
122	0x3f19d919	0.6009689
123	0xbe889648	-0.26677155
124	0x3e3b0564	0.18263775
125	0x3ea4891f	0.32135865
126	0x3e5b0b6f	0.2139108
127	0xbc2f6f9e	-0.010707764
128	0xbe67264a	-0.225732
129	0x3dd8e15b	0.10589858
130	0xbee42014	-0.44555724
131	0x3e9b4b5e	0.30330938
132	0x3d1c6fde	0.038192622
133	0x3d9e4f96	0.077300236
134	0xbec1b412	-0.37832695
135	0x3e8e7f08	0.27831292
136	0x3eadeeac	0.33971155
137	0xbe784ce6	-0.24248084
138	0x3c2270e3	0.00991461
139	0xbf340fdf	-0.7033672
140	0x3e0e9e38	0.13927543
141	0x3ae80bfa	0.0017703765
142	0x3ec49807	0.38397238
143	0x3d576b96	0.052592836
144	0x3e6e5ae7	0.23276864
145	0x3e03fc46	0.12889203
146	0x3dcf97f9	0.10136408
147	0x3f0ad06d	0.5422428
148	0xbe1d15b4	-0.1534031
149	0xbdae822e	-0.085209236
150	0xbec06b32	-0.37581784
151	0x3e0bc3f4	0.13648969
152	0x3ed1e680	0.4099617
153	0xbc77e9ba	-0.015131408
154	0x3d491b3c	0.04909824
155	0xbe93a7e0	-0.28839016
156	0xbf49091c	-0.78529525
157	0x3e34e9d0	0.17667317
158	0xbd5df1b5	-0.054185588
159	0xbe287a7a	-0.16452971
160	0x3efaa37e	0.4895286
161	0x3d436329	0.04770199
162	0x3ec1c73f	0.37847325
163	0x3de662f9	0.11249346
164	0xbe61ad28	-0.2203871
165	0x3e44c437	0.19215475
166	0xbe166b9b	-0.14689486
167	0x3e21b16f	0.15790342
168	0x3e8a5f1f	0.27025697
169	0xbc4f9328	-0.012669362
170	0x3e8a9baf	0.27071902
171	0x3c01a984	0.007913951
172	0xbe0bc553	-0.13649492
173	0xbdadb52d	-0.08481822
174	0x3ea75047	0.32678434
175	0xbe8b2efe	-0.2718429
176	0xbd12bcbd	-0.035824526
177	0xbbe5cf8f	-0.0070132683
178	0xbdfbb635	-0.122906126
179	0xbe16285a	-0.1466383
180	0x3dd250cb	0.10269316
181	0x3ebe5506	0.37174243
182	0xbe0cbec4	-0.13744646
183	0x3d858cce	0.06520997
184	0x3e5f16d6	0.21786055
185	0x3dfdd046	0.12393241
186	0xbe7a3710	-0.24435067
187	0x3d3ab513	0.045582842
188	0xbd28e318	-0.0412322
189	0xbddcc2b2	-0.10779323
190	0x3e9b5661	0.3033934
191	0xbe22b82f	-0.15890573
192	0xbd23f655	-0.040029842
193	0x3e27be9e	0.16381308
194	0xbd132126	-0.035920285
195	0x3ea56075	0.32300153
196	0xbec8c1fb	-0.39210495
197	0x3d936759	0.071974464
198	0xbe86c5b7	-0.2632272
199	0x3e837d25	0.25681415
200	0x3d17df03	0.037077915
201	0x3de208b3	0.110368155
202	0xbd9cb870	-0.07652366
203	0x3e087837	0.13327108
204	0xbf097e7a	-0.5370861
205	0xbe135df5	-0.1439131
206	0x3e6d661e	0.23183486
207	0xbe05f280	-0.13080788
208	0x3ecca34b	0.39968333
209	0xbd1cf32c	-0.038317844
210	0x3e27c0d6	0.16382155
211	0x3baa6153	0.00519959
212	0xbe588f48	-0.21148407
213	0x3d84e7ef	0.0648955
214	0x3c65c749	0.014024564
215	0x3d2d03c2	0.04223991
216	0x3e5087c8	0.20364296
217	0x3da4adc9	0.080409594
218	0xbc8a3360	-0.0168702
219	0xbe047d2b	-0.12938373
220	0xbde5f9d1	-0.11229289
221	0xbdbff013	-0.093719624
222	0xbdd11901	-0.10209847
223	0xbe4326c8	-0.19057763
224	0xbdb05cc9	-0.08611447
225	0xbe4ebf5a	-0.20190182
226	0xbe186ad7	-0.14884506
227	0xbd989c9e	-0.07451747
228	0xbd29d166	-0.041459464
229	0x3f0079cc	0.5018585
230	0xbe2bb4b5	-0.16768153
231	0xbe203d6f	-0.15648435
232	0x3e684831	0.22683789
233	0x3e3d0063	0.18457179
234	0xbeaeda67	-0.34151003
235	0xbd55bda8	-0.052182823
236	0xbe69eabf	-0.22843455
237	0xbe1491d8	-0.1450876
238	0x3d85cf8e	0.065337285
239	0x3e16df2b	0.1473357
240	0xbd5f3156	-0.05449041
241	0x3eb87f7c	0.36034763
242	0x3e3ff8c4	0.1874724
243	0x3eedd9cd	0.4645523
244	0xbeac0a13	-0.33601436
245	0x3d69d872	0.057091184
246	0xbe08a430	-0.13343883
247	0x3e6d56fe	0.23177716
248	0x3bd2722c	0.0064223018
249	0xbe6c1a8f	-0.23057006
250	0xbe0597bc	-0.13046163
251	0x3dd9e3d5	0.10639159
252	0xbeccbe78	-0.39989066
253	0xbdd2dc21	-0.102958925
254	0x3e2dfe35	0.16991504
255	0xbe9c26e9	-0.30498436

KerasEggNet/conv2d_2/Conv2D_bias f4 [32]
0	0x3f1264c7	0.57185024
1	0xbe1954cc	-0.14973754
2	0x40030873	2.0473907
3	0xbe41f582	-0.1894131
4	0xbed449a4	-0.41462433
5	0xbe893c28	-0.26803708
6	0xbfc7ab9c	-1.5599246
7	0xbe8a5849	-0.2702048
8	0xbfa12338	-1.2588873
9	0xbfe83420	-1.8140907
10	0x3edbbb26	0.4291622
11	0xbea93491	-0.33047917
12	0xbeb77209	-0.3582919
13	0x3f7e557a	0.99349177
14	0xbfb1da61	-1.3894769
15	0x3f3f095a	0.74623644
16	0x3e78ab68	0.24284136
17	0xbed24e7f	-0.41075513
18	0xbed64af2	-0.41854054
19	0x3f2e8bf4	0.681823
20	0xbe58f108	-0.21185696
21	0xbefc37f3	-0.49261436
22	0x3e15fbc0	0.14646816
23	0xbfb13b1e	-1.3846166
24	0xbf32a27f	-0.697792
25	0xbec8f1b0	-0.39246893
26	0xbf2b49da	-0.66909564
27	0xbf2d9906	-0.6781162
28	0x3f43c4c4	0.76472116
29	0xbedd2aa9	-0.4319661
30	0x3ea21e64	0.3166381
31	0xbf549892	-0.83045304

KerasEggNet/dense_1/MatMul/ReadVariableOp/transpose f4 [32, 1568]
0	0xbc7ff64a	-0.015622685
1	0x3d02b024	0.031906262
2	0xbcf49ee8	-0.029860929
3	0x3cc57d59	0.024107622
4	0xbc2f4f85	-0.010700111
5	0x3ac967dd	0.0015366037
6	0x3cf63c03	0.030057913
7	0xbd2f2774	-0.042762235
8	0x3c79fb04	0.015257601
9	0x3c452b8a	0.012034306
10	0x3d169be3	0.03676976
11	0xbc97fd25	-0.018553326
12	0x3cc46fec	0.02397915
13	0x3cb0d038	0.021583661
14	0x3cbbd9ee	0.022931065
15	0xbd196dfa	-0.037458397
16	0xbc072e3c	-0.008250769
17	0x3c9c1758	0.0190541
18	0xbd03dc68	-0.032192618
19	0x3c42d5f8	0.011891834
20	0x3cd9ec43	0.026601916
21	0x3c203c71	0.009780035
22	0xbd2780db	-0.04089437
23	0xbd13e339	-0.03610537
24	0x3d0e6f99	0.034774397
25	0xbc91599d	-0.017742926
26	0xbc2dce89	-0.010608324
27	0xbbcebf2f	-0.006309412
28	0x3c864dc7	0.016394509
29	0xbccdf979	-0.025143372
30	0x3c0eaa94	0.008707661
31	0xba8473e2	-0.0010105337
32	0x3c7ebe98	0.015548371
33	0x3ccb0778	0.024783835
34	0x3cb9f336	0.02269898
35	0x3c1db09a	0.009624625
36	0x3d14ec59	0.03635821
37	0xbce88640	-0.028384328
38	0x3d05e57e	0.032689564
39	0x3cc5f72a	0.024165709
40	0x3c217772	0.009855138
41	0xbcb76244	-0.022385724
42	0xbcc00a50	-0.023442417
43	0xbc471ee1	-0.012153358
44	0xbd0c84e0	-0.034306407
45	0xbd078912	-0.033089705
46	0xbd08512e	-0.033280544
47	0x3c815917	0.015789552
48	0xbba88453	-0.0051427274
49	0xbcd26fe2	-0.025688116
50	0xbd3988e8	-0.04529658
51	0x3d03d5a0	0.03218615
52	0x3c0d29da	0.008615935
53	0x3cbca67c	0.023028605
54	0xbd338ab9	-0.043833468
55	0xbd26a980	-0.04068899
56	0x3c94473a	0.01810037
57	0xbc574094	-0.013137955
58	0xbd13fd12	-0.03613002
59	0x3d035c6c	0.032070562
60	0x3aed4edf	0.001810517
61	0xbcbe7b14	-0.023252048
62	0xbc457b92	-0.012053387
63	0x3d0f9251	0.035051648
64	0x3ce45eae	0.027877178
65	0xbbffc2a8	-0.0078051873
66	0xbbdff0c8	-0.0068341233
67	0xbc89ba18	-0.01681237
68	0xbc21e738	-0.009881787
69	0x3d2b158c	0.041768596
70	0x3abd2b93	0.0014432542
71	0x3bb9c2f1	0.005668991
72	0x3bd77f80	0.0065764785
73	0x3c93716e	0.017998423
74	0xbd05d0bb	-0.032669764
75	0x3d000362	0.031253226
76	0xbd39721a	-0.04527483
77	0xbc532813	-0.012887972
78	0xbcd476c5	-0.02593554
79	0x3c3f2745	0.011667077
80	0xbcb8b1c9	-0.022545712
81	0xbd0a2207	-0.033723857
82	0x3d0204b0	0.03174275
83	0x3ce7097b	0.028202763
84	0x3c12a2c2	0.008949937
85	0x3cff8d0a	0.031195182
86	0xbd1802cd	-0.037112046
87	0x3c4a9ea8	0.012366928
88	0xbd3c40b7	-0.045960154
89	0x3c758c57	0.014987073
90	0x3c461ea3	0.012092265
91	0xbd4502bc	-0.04809831
92	0xbd0101b2	-0.031495757
93	0xbcf6cf1a	-0.03012805
94	0x3b7befb2	0.003844243
95	0xbd1ab860	-0.03777349
96	0x3b4601c3	0.0030213452
97	0xbcd8e3f9	-0.026475893
98	0x3cfc96d5	0.030833641
99	0xbd38ce45	-0.04511859
100	0x3c8a2e40	0.016867757
101	0xbce5454f	-0.02798715
102	0x3c94b461	0.018152418
103	0xbd2aafd1	-0.041671578
104	0xbd0fc3ba	-0.03509877
105	0xbc5cc494	-0.013474602
106	0x3c7d9238	0.015476756
107	0x3cd3acca	0.025839228
108	0x3a9f3983	0.0012147877
109	0xbc536b38	-0.012903981
110	0x3cff9f9e	0.031204041
111	0x3ce66721	0.028125348
112	0x3c106041	0.008812011
113	0x3c35bcf9	0.011092418
114	0x3c34c06d	0.011032206
115	0x3bf49062	0.007463501
116	0x3c8648b4	0.01639209
117	0xbc630b72	-0.013857709
118	0xbb632785	-0.0034661007
119	0x3c2d4b2c	0.010577004
120	0xbcadec3c	-0.02123081
121	0xbbeddb10	-0.0072587803
122	0x3c992632	0.01869497
123	0x3bbc42c3	0.0057452633
124	0xbcdfed34	-0.027334787
125	0x3d0f9caa	0.035061516
126	0x3b1c79da	0.002387634
127	0x3b8357a0	0.0040082484
128	0x3adf8248	0.0017052377
129	0xbd3b9f64	-0.045806304
130	0xbcba544e	-0.022745278
131	0x3cc79f8c	0.02436807
132	0x3d132438	0.035923213
133	0xbce0dce2	-0.027449075
134	0x3d0ca95f	0.034341212
135	0x3c922d2d	0.017843807
136	0x3cf5fc5d	0.030027563
137	0x3b1ffdc5	0.0024412733
138	0x3abd45e3	0.0014440384
139	0xbc6b28ab	-0.014352958
140	0x3ceaae2b	0.028647503
141	0xbcbf92ee	-0.023385491
142	0xbd170787	-0.036872413
143	0xbc7f25e4	-0.015572999
144	0x3d17bd6f	0.037045892
145	0x3bb5eb2a	0.0055517154
146	0xbd38e9b0	-0.045144737
147	0x3aa8a718	0.0012867181
148	0xbcf94361	-0.030427637
149	0xbc9afc29	-0.018919067
150	0x3bd374f1	0.0064531495
151	0x3caf2b2b	0.021382889
152	0xbc9d1450	-0.019174725
153	0x3d04e7e7	0.03244772
154	0x3b5efc2a	0.0034024813
155	0x3ccf500e	0.025306728
156	0xbb073cef	-0.0020635684
157	0xbd4bfce8	-0.049801737
158	0x3cd61213	0.026131665
159	0xbcdfcf3f	-0.027320502
160	0x3c87282b	0.016498646
161	0xbb060e99	-0.0020455478
162	0x3c24e1f0	0.010063633
163	0xbc1b82a8	-0.0094916
164	0x3d10b496	0.03532847
165	0xbcc8e4ab	-0.0245231
166	0xbcd041ee	-0.025422063
167	0xbbe9c74d	-0.007134354
168	0xbce5cda7	-0.028052164
169	0xbc9c5928	-0.019085482
170	0x3ac3ca84	0.0014937674
171	0x3b576508	0.0032866616
172	0x3b88f0c6	0.004179093
173	0xbc4c099a	-0.012453461
174	0x3c1625e5	0.009164308
175	0xbc5fb0dc	-0.013653006
176	0xbc8f4986	-0.017491113
177	0x3c3c1830	0.011480376
178	0xbc297a39	-0.010344082
179	0x3c94a26c	0.018143855
180	0xbd33194f	-0.043725308
181	0xbc7e0ae5	-0.015505527
182	0xbc165293	-0.009174961
183	0xbd41edea	-0.047346033
184	0xbd25bbe6	-0.040462397
185	0xbc6cf4be	-0.014462648
186	0xbd2d410a	-0.042298354
187	0x3bf105c0	0.007355422
188	0xbd1ff130	-0.039048374
189	0xbcde392d	-0.027126873
190	0xbcdc1716	-0.026866477
191	0xbce963c4	-0.028489955
192	0xbd1fee55	-0.03904565
193	0x3cfb1a2a	0.030652124
194	0xbca0b2ee	-0.01961657
195	0x3ca5c46a	0.02023526
196	0xbd073112	-0.03300578
197	0x3c95a3f5	0.018266657
198	0x3c207c8e	0.009795321
199	0x3cd2fe24	0.02575595
200	0xbcb7f654	-0.022456326
201	0xbd17f80b	-0.037101787
202	0x3cbf93ce	0.023385908
203	0x3d035ce3	0.032071006
204	0xbd04f21d	-0.03245746
205	0xbb0e51a3	-0.002171614
206	0x3cf92830	0.03041467
207	0xbc879f9a	-0.016555596
208	0xbcc60662	-0.024172965
209	0x3c9e4838	0.019321546
210	0x3aa3475f	0.0012457183
211	0xbca9dc01	-0.020734789
212	0xbd1248d4	-0.035713986
213	0xbcff1da4	-0.031142063
214	0x3be11e18	0.0068700425
215	0xbcee1e2e	-0.029067125
216	0xbbf23fe8	-0.007392872
217	0xbd4490b1	-0.04798955
218	0xbd2dc56d	-0.042424608
219	0x3c3c3818	0.011487983
220	0x3c6f5aac	0.01460902
221	0xbcfae389	-0.030626075
222	0x3c4bdce7	0.012442804
223	0xbc8e52b4	-0.01737342
224	0xbc8d41c4	-0.017243274
225	0x3cec4281	0.028840305
226	0x3c204148	0.009781189
227	0xbcf3f7bb	-0.029781213
228	0x3d0ea3df	0.03482425
229	0x3c8d4a82	0.017247442
230	0xbc81144f	-0.015756754
231	0xbb97a820	-0.0046281964
232	0xbc44697b	-0.011988039
233	0xbd0de599	-0.03464279
234	0xbb39358d	-0.0028260679
235	0xbd320d50	-0.043469727
236	0xbd29e5e0	-0.04147899
237	0x3c4fde6a	0.012687305
238	0xbc78cb70	-0.015185222
239	0xbc89b697	-0.016810698
240	0xb9d3d287	-0.0004040191
241	0x3c8306d5	0.015994469
242	0xbc1ff4d5	-0.009762962
243	0xbd20d0e5	-0.039261717
244	0xbce7e8f2	-0.02830932
245	0x3c981a41	0.018567206
246	0xbc8df33a	-0.017327894
247	0xba9b9574	-0.0011870102
248	0x3ced64bf	0.028978704
249	0xbce379b4	-0.027767994
250	0xbc3c0d6a	-0.011477808
251	0xbc2be56b	-0.010491709
252	0xbce436bb	-0.027858129
253	0xbb59c400	-0.0033228397
254	0xbc41010d	-0.011780036
255	0x3cd42f0b	0.025901338

KerasEggNet/dense_1/MatMul_bias f4 [32]
0	0xbbf05047	-0.0073337886
1	0xbd0f849d	-0.03503858
2	0xbd39eabe	-0.045389883
3	0xbbe71e87	-0.0070531997
4	0xbbdf774c	-0.006819641
5	0xbbcff0eb	-0.0063458583
6	0xbc8adc61	-0.016950788
7	0xbbab5068	-0.005228091
8	0xbcbbb5ea	-0.022913892
9	0xbbbb08ed	-0.005707851
10	0x3dc82471	0.09772576
11	0xbbbfd009	-0.005853657
12	0x3e3433ea	0.17597929
13	0xbcaf57e6	-0.021404218
14	0xbbb94027	-0.0056533995
15	0xbe23e3e9	-0.1600491
16	0x3dd9569e	0.10612224
17	0xbbb939ea	-0.005652656
18	0xbd2433cb	-0.040088456
19	0x3e5043a7	0.20338307
20	0x3c9e4c74	0.019323565
21	0xbc057155	-0.008144696
22	0x3e577f76	0.21044716
23	0xbc4c8349	-0.012482473
24	0xbe356499	-0.17714156
25	0xbbf34903	-0.007424475
26	0xbd1537b0	-0.03643006
27	0x3dfaa88a	0.122391775
28	0x3c7ba960	0.015360206
29	0xbdb75eca	-0.089536265
30	0xbc17fe4a	-0.009276936
31	0xbbb08670	-0.00538712

KerasEggNet/dense_2/MatMul/ReadVariableOp/transpose f4 [10, 32]
0	0x3b0534b4	0.0020325603
1	0xbcdc3701	-0.026881697
2	0xbe9d53e3	-0.30728063
3	0xbae509b6	-0.0017474208
4	0x3b69d4aa	0.0035679736
5	0x3b9d79f2	0.004805797
6	0xba416ea8	-0.0007378855
7	0xbada001c	-0.0016632113
8	0xbac890a4	-0.0015301895
9	0xbac6bf9e	-0.0015163308
10	0xbed94423	-0.42434797
11	0xbb9f6a25	-0.0048649483
12	0xbe804514	-0.25052702
13	0xbb82478a	-0.0039758133
14	0xbb0ec11f	-0.002178259
15	0xbe9160d7	-0.28394195
16	0x3cf79a32	0.030224893
17	0x3b960e31	0.0045793285
18	0xbecfcca0	-0.40585804
19	0x3dce3655	0.10068957
20	0xbe415021	-0.18878223
21	0xbc08cd62	-0.008349748
22	0xbed618cb	-0.4181579
23	0x3b88445c	0.0041585397
24	0x3dc4c272	0.096074
25	0x3ba7bfd2	0.0051193023
26	0xbb36539c	-0.0027820831
27	0x3da14fce	0.0787655
28	0xbe5bda4f	-0.21469997
29	0xbebaf7ec	-0.36517274
30	0xbabb248b	-0.0014277858
31	0x3b4e11ce	0.0031443718
32	0x3b57eba5	0.0032946852
33	0xbd0b8d7a	-0.03407047
34	0xbe97b513	-0.29630336
35	0xbc936f84	-0.01799751
36	0x3c20f9f7	0.009825221
37	0xbb2e4d50	-0.0026596375
38	0x3a0aad16	0.0005290074
39	0xbcc4c583	-0.024019962
40	0xbcbc1192	-0.022957597
41	0xbbde1dc7	-0.006778452
42	0x3d91150d	0.07084093
43	0x3bc04343	0.005867393
44	0x3e185164	0.14874798
45	0x3c98467b	0.018588295
46	0xbca29a28	-0.019848898
47	0xbe7bcaea	-0.24589124
48	0xbee3144b	-0.4435142
49	0x3bd8f12a	0.006620546
50	0xbe4f1864	-0.20224148
51	0x3da045d8	0.07825822
52	0x3dbb7a32	0.09154166
53	0xbb252b43	-0.0025202788
54	0x3d84f58d	0.064921476
55	0xbb99c627	-0.004692811
56	0xbf0e665d	-0.55624944
57	0x3c7eb1e1	0.015545339
58	0x3ca7199b	0.020397952
59	0xbeafc294	-0.3432814
60	0x3d5ad69f	0.053427335
61	0xbeb65cf9	-0.35617808
62	0x3ba626c7	0.0050705406
63	0xbc21ccff	-0.009875535
64	0xbcb1220e	-0.021622684
65	0xbbf41810	-0.0074491575
66	0x3d91970d	0.07108889
67	0xbc39ec77	-0.0113478815
68	0xbd4b56b0	-0.04964322
69	0xbce464ce	-0.027880099
70	0xbd2f1308	-0.04274276
71	0x3d8af9f1	0.06785954
72	0x3d1b07f5	0.037849385
73	0x3d7dcabe	0.06196093
74	0xbeb0b7dc	-0.34515274
75	0x3cf00bb3	0.029302454
76	0x3e0e52f6	0.13898835
77	0xbc993d74	-0.018706061
78	0x3d5563a2	0.05209697
79	0x3e076e2a	0.13225618
80	0xbf03777c	-0.51354194
81	0xbd8bcdee	-0.06826387
82	0x3dd4311e	0.10360931
83	0x3dfeba93	0.1243793
84	0xbea7d97c	-0.32783115
85	0xbcda6eb5	-0.026664117
86	0xbe6511a4	-0.2237001
87	0xbd43e076	-0.047821485
88	0xbea2df38	-0.31810927
89	0xbd7fa013	-0.062408518
90	0xbc554ece	-0.013019277
91	0x3d84f701	0.06492425
92	0xbe6ae423	-0.2293859
93	0xbee0aee1	-0.43883422
94	0x3d8c9d6e	0.06865965
95	0x3b84959a	0.004046154
96	0x3de7d4ed	0.11319909
97	0x3be6a8ae	0.007039151
98	0xbe68dc5c	-0.2274031
99	0x3df743ff	0.12073516
100	0xbc0040cb	-0.007827948
101	0xbdcfc01b	-0.10144063
102	0xbcbfe22a	-0.023423273
103	0xbe024b79	-0.12724103
104	0x3c2d3b72	0.010573255
105	0x3de8cabc	0.113667935
106	0x3e1f9718	0.15584981
107	0x3d7ed13c	0.06221126
108	0xbeb7add1	-0.358748
109	0xbd81d4c6	-0.063394114
110	0x3d5164fe	0.051121704
111	0x3e0b5403	0.13606267
112	0xbe92b0ac	-0.28650415
113	0xbe03234e	-0.12806436
114	0x3def35c7	0.11680179
115	0x3dac94d0	0.08426821
116	0xbe8e4807	-0.27789328
117	0xbd3b4c79	-0.045727227
118	0x3df6e394	0.12055126
119	0x3d4596f9	0.048239682
120	0x3d7ac2f3	0.061221074
121	0x3ddd7a66	0.10814361
122	0x3de22a40	0.11043215
123	0x3d8717d9	0.065963455
124	0xbf27396d	-0.65322
125	0x3dc28e24	0.094997674
126	0xbde52de1	-0.11190391
127	0x3d63690f	0.055520114
128	0xbddeee6d	-0.1088532
129	0x3c8d9542	0.017283086
130	0x3d8ac576	0.06775944
131	0x3da65437	0.081215315
132	0x3e0812ff	0.13288496
133	0xbd203aa8	-0.03911844
134	0x3ca4e4b3	0.020128584
135	0x3d2cf11e	0.042222135
136	0xbdb52c57	-0.08846348
137	0xbdfc3cd1	-0.12316287
138	0xbedc39bd	-0.430128
139	0x3dd85dbb	0.10564753
140	0x3e17721b	0.14789622
141	0x3de0dc0e	0.10979472
142	0x3d85ab95	0.06526867
143	0xbecd66d6	-0.4011752
144	0xbe8886f2	-0.26665455
145	0xbb3f7200	-0.0029212236
146	0x3e05a3a6	0.13050708
147	0xbeabfbe1	-0.33590606
148	0x3e0ca1ed	0.13733645
149	0x3d7d2840	0.061805964
150	0xbeac027c	-0.33595645
151	0x3dd5e02e	0.104431495
152	0x3dc0268c	0.09382352
153	0xbc7c3bda	-0.015395129
154	0x3e0d6d0b	0.13811128
155	0xbeae9bf1	-0.3410335
156	0x3de35c29	0.111015625
157	0x3db2f319	0.087377734
158	0xbd7447cd	-0.059638787
159	0x3df0fab0	0.11766565
160	0xbd8bb719	-0.068220325
161	0x3d0f68ce	0.03501206
162	0xbec11bbf	-0.3771648
163	0xbd50e5f5	-0.051000554
164	0xbd108b23	-0.03528894
165	0x3d1ef7d6	0.038810574
166	0xbd29c566	-0.04144802
167	0xbd73078e	-0.059333377
168	0x3c36c59b	0.011155511
169	0xbd7b1e08	-0.061307937
170	0x3e36d78a	0.17855659
171	0xbd55b064	-0.052170172
172	0xbf01edd2	-0.5075351
173	0x3bc5eed5	0.006040434
174	0x3c3c2e5d	0.011485663
175	0x3e070f35	0.13189395
176	0x3d5b7e12	0.053587027
177	0x3d57e443	0.05270792
178	0xbe898d05	-0.26865402
179	0xbecb59b6	-0.39716882
180	0x3e03ba94	0.12864143
181	0x3b3d7964	0.0028911466
182	0xbdbaa89f	-0.09114193
183	0xbd95996b	-0.07304653
184	0xbe826f4c	-0.25475538
185	0xbb920aac	-0.0044568386
186	0x3d60a908	0.0548487
187	0xbe887d18	-0.2665794
188	0xbe8a170a	-0.26970702
189	0x3e073d8d	0.13207074
190	0x3d26adb0	0.040692985
191	0xbcaaf37f	-0.020868061
192	0x3c328f4e	0.010898424
193	0xbd5b32c9	-0.05351523
194	0xbea923be	-0.33035082
195	0x3bf664c7	0.007519338
196	0xbcfad420	-0.030618727
197	0x3cd0919d	0.025460059
198	0xbd4cf763	-0.050040614
199	0x3d0093c2	0.031390913
200	0x3cd83296	0.026391309
201	0xbd488434	-0.048954204
202	0xbe655bdf	-0.22398327
203	0xbc4c4ded	-0.012469751
204	0xbe250990	-0.16116929
205	0x3cc314fb	0.023813715
206	0xbd5274fe	-0.051381104
207	0xbe18b710	-0.14913583
208	0x3dd2b42f	0.102882735
209	0xbcdeba65	-0.02718849
210	0xbebdd899	-0.37079313
211	0xbeb2b81c	-0.3490609
212	0x3e2e3fc6	0.17016515
213	0xbce60f01	-0.028083326
214	0xbf0652db	-0.5247018
215	0xbc788d43	-0.015170398
216	0xbea9675a	-0.33086663
217	0x3b813bd9	0.003943902
218	0x3d3bd223	0.0458547
219	0x3d99e0cd	0.075135805
220	0x3e1a2693	0.15053777
221	0xbe7bccc8	-0.24589837
222	0xbca73f17	-0.020415826
223	0xbd0d48dc	-0.034493312
224	0xbc35e0b2	-0.011100935
225	0xb9d18884	-0.00039965298
226	0x3cdab5b0	0.026697963
227	0x3b83d040	0.004022628
228	0x3c25ddfa	0.010123724
229	0x3b26d534	0.0025456669
230	0xbbe442a4	-0.006965952
231	0xba50dfff	-0.00079679483
232	0xbb837710	-0.004011996
233	0xbb952e08	-0.0045526065
234	0xbeb973c6	-0.3622114
235	0x3b496f8f	0.003073666
236	0xbe429a52	-0.19004181
237	0xbb7b202e	-0.003831874
238	0xbb8ab0e7	-0.004232514
239	0xbe3b4d1c	-0.18291134
240	0xbeb7116f	-0.35755488
241	0xbc1b3f37	-0.009475521
242	0x3e1755f5	0.14778884
243	0xbe75a65e	-0.23989245
244	0xbeb3af37	-0.35094616
245	0xbbda4839	-0.0066614416
246	0x3dd091b0	0.10184038
247	0xbc0035bf	-0.007825314
248	0xbebe35a1	-0.3715029
249	0x3c330c58	0.010928236
250	0xbcc26a4c	-0.023732327
251	0xbea58903	-0.32331094
252	0xbec709f1	-0.38874772
253	0xbe80547e	-0.25064462
254	0x3a696c73	0.0008904405
255	0xba26633e	-0.00063471857

KerasEggNet/dense_2/MatMul_bias f4 [10]
0	0x3f167287	0.58768505
1	0x3e53bc81	0.20677377
2	0xbeed0aa2	-0.46297175
3	0xbfc7f5a3	-1.5621837
4	0xbf8f54a3	-1.1197704
5	0xbf0b4fe1	-0.5441876
6	0xbe707b30	-0.23484492
7	0x3f9cc5f4	1.224791
8	0x3ebfe78c	0.37481344
9	0x3f885787	1.0651711
