net/tflite/mnist_model_quant_io.tflite (tflite, 61712 bytes, 4 tensors)

KerasEggNet/conv2d_1/Conv2D/ReadVariableOp i1 [1, 3, 3, 16]
00000000: b224 0b81 8154 a94c b786 20dd 7fcb 4939
00000010: 9efe 3a28 edec cc1f 8139 3325 4694 e81e
00000020: 8164 1630 3dac 8143 1348 a23b 6706 8181
00000030: 9ce5 b8d1 2e21 012a 96a9 f7a8 efbe 43dd
00000040: 13d1 530b 3a43 150c 094b 8181 f15d f55f
00000050: 2a1e 841f fe88 f218 6911 e3cd 077f a3f6
00000060: a17f 81b0 0d1b 47a6 8795 953b 9b28 96d4
00000070: 261d 8518 f8cb 1bd8 a081 1628 9c37 9df3
00000080: 5726 e03c 9e81 237f 42dc 33ac a5c6 0a4e
-78 36 11 -127 -127 84 -87 76
-73 -122 32 -35 127 -53 73 57
-98 -2 58 40 -19 -20 -52 31
-127 57 51 37 70 -108 -24 30
-127 100 22 48 61 -84 -127 67
19 72 -94 59 103 6 -127 -127
-100 -27 -72 -47 46 33 1 42
-106 -87 -9 -88 -17 -66 67 -35
19 -47 83 11 58 67 21 12
9 75 -127 -127 -15 93 -11 95
42 30 -124 31 -2 -120 -14 24
105 17 -29 -51 7 127 -93 -10
-95 127 -127 -80 13 27 71 -90
-121 -107 -107 59 -101 40 -106 -44
38 29 -123 24 -8 -53 27 -40
-96 -127 22 40 -100 55 -99 -13
87 38 -32 60 -98 -127 35 127
66 -36 51 -84 -91 -58 10 78

KerasEggNet/conv2d_2/Conv2D/ReadVariableOp i1 [32, 3, 3, 16]
00000000: b8f9 cbeb 1634 f9f5 f93e dc01 22f6 f333
00000010: 82ee d1fa 0d17 f6ed 094c a2f5 09e5 b161
00000020: a0f2 bc33 eb12 0515 1d5f 8efa bbe7 0430
00000030: 21ec 00e8 29f8 fdd8 e1f9 ff00 fd31 d21e
00000040: d002 b60c 2610 dcf6 c90e e1d2 0022 fc3d
00000050: 8444 8133 f2e6 9e0d 17f0 c9a0 c0e4 252c
00000060: 18f7 e0ea 0dfd 00df 00cf 2dd3 0c18 f306
00000070: 3cf5 f6d3 200f fcf2 b7b2 65d3 1f36 24fe
00000080: da12 b533 060d c12f 39d7 028a 1700 4009
00000090: 2615 1058 e7f2 c316 42fe 08d1 811d f7e5
000000a0: 4f08 3d12 dc1f e81a 2cfe 2c01 eaf2 35d4
000000b0: faff ece8 113c ea0b 2314 d807 f9ef 31e6
000000c0: fa1a fa34 c10c d52a 0612 f416 a9e9 25eb
000000d0: 41fa 1a01 de0a 0207 210d fdeb eef1 efe1
000000e0: f2df e8f4 f951 e5e7 251e c9f8 dbe9 0b18
000000f0: f73a 1e4b ca09 ea25 01db eb11 bfef 1bcf
-72 -7 -53 -21 22 52 -7 -11
-7 62 -36 1 34 -10 -13 51
-126 -18 -47 -6 13 23 -10 -19
9 76 -94 -11 9 -27 -79 97
-96 -14 -68 51 -21 18 5 21
29 95 -114 -6 -69 -25 4 48
33 -20 0 -24 41 -8 -3 -40
-31 -7 -1 0 -3 49 -46 30
-48 2 -74 12 38 16 -36 -10
-55 14 -31 -46 0 34 -4 61
-124 68 -127 51 -14 -26 -98 13
23 -16 -55 -96 -64 -28 37 44
24 -9 -32 -22 13 -3 0 -33
0 -49 45 -45 12 24 -13 6
60 -11 -10 -45 32 15 -4 -14
-73 -78 101 -45 31 54 36 -2
-38 18 -75 51 6 13 -63 47
57 -41 2 -118 23 0 64 9
38 21 16 88 -25 -14 -61 22
66 -2 8 -47 -127 29 -9 -27
79 8 61 18 -36 31 -24 26
44 -2 44 1 -22 -14 53 -44
-6 -1 -20 -24 17 60 -22 11
35 20 -40 7 -7 -17 49 -26
-6 26 -6 52 -63 12 -43 42
6 18 -12 22 -87 -23 37 -21
65 -6 26 1 -34 10 2 7
33 13 -3 -21 -18 -15 -17 -31
-14 -33 -24 -12 -7 81 -27 -25
37 30 -55 -8 -37 -23 11 24
-9 58 30 75 -54 9 -22 37
1 -37 -21 17 -65 -17 27 -49

KerasEggNet/dense_1/MatMul/ReadVariableOp/transpose i1 [32, 1568] scale=0.0010123033 zero_point=0
00000000: f120 e318 f502 1ed6 0f0c 24ee 1815 17db
00000010: f813 e00c 1a0a d8dc 22ee f6fa 10e7 09ff
00000020: 0f18 160a 24e4 2018 0aea e9f4 dedf df10
00000030: fbe7 d320 0917 d5d8 12f3 dc20 02e9 f423
00000040: 1cf8 f9ef f629 0106 0612 e01f d3f3 e60c
00000050: eadf 1f1c 091f db0c d30f 0cd0 e1e2 04db
00000060: 03e6 1ed3 11e4 12d7 ddf3 0f1a 01f3 1f1c
00000070: 090b 0b07 10f2 fd0a ebf9 1206 e523 0204
00000080: 02d3 ea18 23e5 2212 1e02 01f2 1ce9 dcf1
00000090: 2505 d301 e2ed 0615 ed20 0319 fecf 1ae5
000000a0: 10fe 0af7 23e8 e7f9 e4ed 0103 04f4 09f3
000000b0: ef0b f612 d5f1 f7d1 d8f2 d607 d9e5 e5e4
000000c0: d91e ed14 df12 0a19 eadb 1720 e0fe 1ef0
000000d0: e813 01ec dde1 07e3 f9d1 d60b 0ee2 0cef
000000e0: ef1c 0ae3 2211 f0fb f4de fdd5 d70d f1ef
000000f0: 0010 f6d9 e412 efff 1de5 f5f6 e4fd f41a
-0.01518455 0.032393705 -0.029356794 0.024295278 -0.011135336 0.0020246066 0.0303691 -0.04251674
0.01518455 0.012147639 0.036442917 -0.018221458 0.024295278 0.02125837 0.023282975 -0.03745522
-0.008098426 0.019233763 -0.032393705 0.012147639 0.026319886 0.010123033 -0.040492132 -0.036442917
0.03441831 -0.018221458 -0.010123033 -0.0060738195 0.016196853 -0.025307583 0.009110729 -0.0010123033
0.01518455 0.024295278 0.022270672 0.010123033 0.036442917 -0.028344491 0.032393705 0.024295278
0.010123033 -0.022270672 -0.023282975 -0.012147639 -0.03441831 -0.033406008 -0.033406008 0.016196853
-0.0050615165 -0.025307583 -0.045553647 0.032393705 0.009110729 0.023282975 -0.04352904 -0.040492132
0.018221458 -0.013159943 -0.036442917 0.032393705 0.0020246066 -0.023282975 -0.012147639 0.035430614
0.028344491 -0.008098426 -0.007086123 -0.017209155 -0.010123033 0.041504435 0.0010123033 0.0060738195
0.0060738195 0.018221458 -0.032393705 0.031381402 -0.045553647 -0.013159943 -0.026319886 0.012147639
-0.022270672 -0.033406008 0.031381402 0.028344491 0.009110729 0.031381402 -0.03745522 0.012147639
-0.045553647 0.01518455 0.012147639 -0.048590556 -0.031381402 -0.0303691 0.004049213 -0.03745522
0.0030369097 -0.026319886 0.0303691 -0.045553647 0.017209155 -0.028344491 0.018221458 -0.041504435
-0.035430614 -0.013159943 0.01518455 0.026319886 0.0010123033 -0.013159943 0.031381402 0.028344491
0.009110729 0.011135336 0.011135336 0.007086123 0.016196853 -0.014172246 -0.0030369097 0.010123033
-0.02125837 -0.007086123 0.018221458 0.0060738195 -0.027332189 0.035430614 0.0020246066 0.004049213
0.0020246066 -0.045553647 -0.022270672 0.024295278 0.035430614 -0.027332189 0.03441831 0.018221458
0.0303691 0.0020246066 0.0010123033 -0.014172246 0.028344491 -0.023282975 -0.036442917 -0.01518455
0.03745522 0.0050615165 -0.045553647 0.0010123033 -0.0303691 -0.019233763 0.0060738195 0.02125837
-0.019233763 0.032393705 0.0030369097 0.025307583 -0.0020246066 -0.049602862 0.026319886 -0.027332189
0.016196853 -0.0020246066 0.010123033 -0.009110729 0.035430614 -0.024295278 -0.025307583 -0.007086123
-0.028344491 -0.019233763 0.0010123033 0.0030369097 0.004049213 -0.012147639 0.009110729 -0.013159943
-0.017209155 0.011135336 -0.010123033 0.018221458 -0.04352904 -0.01518455 -0.009110729 -0.047578253
-0.040492132 -0.014172246 -0.04251674 0.007086123 -0.03947983 -0.027332189 -0.027332189 -0.028344491
-0.03947983 0.0303691 -0.019233763 0.020246066 -0.033406008 0.018221458 0.010123033 0.025307583
-0.022270672 -0.03745522 0.023282975 0.032393705 -0.032393705 -0.0020246066 0.0303691 -0.016196853
-0.024295278 0.019233763 0.0010123033 -0.020246066 -0.035430614 -0.031381402 0.007086123 -0.029356794
-0.007086123 -0.047578253 -0.04251674 0.011135336 0.014172246 -0.0303691 0.012147639 -0.017209155
-0.017209155 0.028344491 0.010123033 -0.029356794 0.03441831 0.017209155 -0.016196853 -0.0050615165
-0.012147639 -0.03441831 -0.0030369097 -0.04352904 -0.041504435 0.013159943 -0.01518455 -0.017209155
0.0 0.016196853 -0.010123033 -0.03947983 -0.028344491 0.018221458 -0.017209155 -0.0010123033
0.029356794 -0.027332189 -0.011135336 -0.010123033 -0.028344491 -0.0030369097 -0.012147639 0.026319886

KerasEggNet/dense_2/MatMul/ReadVariableOp/transpose i1 [10, 32] scale=0.0051434645 zero_point=0
00000000: 00fb c400 0101 0000 0000 adff cfff 00c9
00000010: 0601 b114 dbfe af01 1301 ff0f d6b9 0001
00000020: 01f9 c6fd 02ff 00fb fcff 0e01 1d04 fcd0
00000030: aa01 d90f 1200 0dff 9403 04bd 0abb 01fe
00000040: fcff 0efe f6fb f80d 070c bd06 1bfc 0a1a
00000050: 9cf3 1418 c0fb d5f7 c2f4 fd0d d3ab 0d01
00000060: 1601 d417 feec fbe7 0216 1e0c baf4 0a1a
00000070: c8e7 1710 caf7 1709 0c15 150d 8112 ea0b
00000080: eb03 0d10 1af8 0408 efe8 ac15 1d15 0db2
00000090: ccff 19bf 1b0c bf14 12fd 1bbe 1611 f417
000000a0: f307 b7f6 f908 f8f4 02f4 23f6 9d01 021a
000000b0: 0a0a ccb3 1901 eef2 ceff 0bcc cc1a 08fc
000000c0: 02f6 c001 fa05 f606 05f6 d4fe e105 f6e3
000000d0: 14fb b8bc 21fb 9afd c001 090f 1dd0 fcf9
000000e0: fe00 0501 0200 ff00 ffff ba01 dbff ffdc
000000f0: bafe 1dd1 bcff 14fe b802 fbc1 b4cf 0000
0.0 -0.025717322 -0.30860788 0.0 0.0051434645 0.0051434645 0.0 0.0
0.0 0.0 -0.42690757 -0.0051434645 -0.25202978 -0.0051434645 0.0 -0.28289056
0.030860787 0.0051434645 -0.40633368 0.10286929 -0.19030818 -0.010286929 -0.41662064 0.0051434645
0.09772582 0.0051434645 -0.0051434645 0.07715197 -0.21602552 -0.36518598 0.0 0.0051434645
0.0051434645 -0.036004253 -0.29832095 -0.015430394 0.010286929 -0.0051434645 0.0 -0.025717322
-0.020573858 -0.0051434645 0.072008505 0.0051434645 0.14916047 0.020573858 -0.020573858 -0.2468863
-0.44233796 0.0051434645 -0.20059511 0.07715197 0.09258236 0.0 0.06686504 -0.0051434645
-0.5554942 0.015430394 0.020573858 -0.34461212 0.051434644 -0.35489905 0.0051434645 -0.010286929
-0.020573858 -0.0051434645 0.072008505 -0.010286929 -0.051434644 -0.025717322 -0.041147716 0.06686504
0.036004253 0.061721575 -0.34461212 0.030860787 0.13887355 -0.020573858 0.051434644 0.13373008
-0.5143465 -0.06686504 0.10286929 0.12344315 -0.32918173 -0.025717322 -0.22116898 -0.04629118
-0.3188948 -0.061721575 -0.015430394 0.06686504 -0.2314559 -0.4371945 0.06686504 0.0051434645
0.11315622 0.0051434645 -0.22631244 0.118299685 -0.010286929 -0.10286929 -0.025717322 -0.12858662
0.010286929 0.11315622 0.15430394 0.061721575 -0.3600425 -0.061721575 0.051434644 0.13373008
-0.28803402 -0.12858662 0.118299685 0.08229543 -0.2777471 -0.04629118 0.118299685 0.04629118
0.061721575 0.10801276 0.10801276 0.06686504 -0.65322 0.09258236 -0.11315622 0.05657811
-0.10801276 0.015430394 0.06686504 0.08229543 0.13373008 -0.041147716 0.020573858 0.041147716
-0.0874389 -0.12344315 -0.43205103 0.10801276 0.14916047 0.10801276 0.06686504 -0.40119022
-0.26746017 -0.0051434645 0.12858662 -0.3343252 0.13887355 0.061721575 -0.3343252 0.10286929
0.09258236 -0.015430394 0.13887355 -0.33946866 0.11315622 0.0874389 -0.061721575 0.118299685
-0.06686504 0.036004253 -0.3754729 -0.051434644 -0.036004253 0.041147716 -0.041147716 -0.061721575
0.010286929 -0.061721575 0.18002126 -0.051434644 -0.509203 0.0051434645 0.010286929 0.13373008
0.051434644 0.051434644 -0.26746017 -0.39604676 0.12858662 0.0051434645 -0.09258236 -0.072008505
-0.25717324 -0.0051434645 0.05657811 -0.26746017 -0.26746017 0.13373008 0.041147716 -0.020573858
0.010286929 -0.051434644 -0.32918173 0.0051434645 -0.030860787 0.025717322 -0.051434644 0.030860787
0.025717322 -0.051434644 -0.22631244 -0.010286929 -0.1594474 0.025717322 -0.051434644 -0.14916047
0.10286929 -0.025717322 -0.37032944 -0.3497556 0.16973433 -0.025717322 -0.5246334 -0.015430394
-0.32918173 0.0051434645 0.04629118 0.07715197 0.14916047 -0.2468863 -0.020573858 -0.036004253
-0.010286929 0.0 0.025717322 0.0051434645 0.010286929 0.0 -0.0051434645 0.0
-0.0051434645 -0.0051434645 -0.3600425 0.0051434645 -0.19030818 -0.0051434645 -0.0051434645 -0.18516472
-0.3600425 -0.010286929 0.14916047 -0.24174283 -0.3497556 -0.0051434645 0.10286929 -0.010286929
-0.37032944 0.010286929 -0.025717322 -0.32403827 -0.3909033 -0.25202978 0.0 0.0
